{"format": "graph-model", "generatedBy": "2.18.0", "convertedBy": "TensorFlow.js Converter v4.22.0", "signature": {"outputs": {"Identity:0": {"name": "Identity:0"}}}, "modelTopology": {"node": [{"name": "model_124/tf.strided_slice_44/StridedSlice/begin", "op": "Const", "attr": {"value": {"tensor": {"dtype": "DT_INT32", "tensorShape": {"dim": [{"size": "3"}]}}}, "dtype": {"type": "DT_INT32"}}}, {"name": "model_124/tf.strided_slice_44/StridedSlice/end", "op": "Const", "attr": {"dtype": {"type": "DT_INT32"}, "value": {"tensor": {"dtype": "DT_INT32", "tensorShape": {"dim": [{"size": "3"}]}}}}}, {"name": "model_124/tf.strided_slice_44/ones_like", "op": "Const", "attr": {"dtype": {"type": "DT_INT32"}, "value": {"tensor": {"dtype": "DT_INT32", "tensorShape": {"dim": [{"size": "3"}]}}}}}, {"name": "ConstantFolding/model_124/tf.math.divide_1/truediv_recip", "op": "Const", "attr": {"value": {"tensor": {"dtype": "DT_FLOAT", "tensorShape": {"dim": [{"size": "1"}, {"size": "1"}, {"size": "1"}]}}}, "dtype": {"type": "DT_FLOAT"}}}, {"name": "model_124/tf.strided_slice_45/StridedSlice/begin", "op": "Const", "attr": {"dtype": {"type": "DT_INT32"}, "value": {"tensor": {"dtype": "DT_INT32", "tensorShape": {"dim": [{"size": "3"}]}}}}}, {"name": "model_124/tf.strided_slice_45/StridedSlice/end", "op": "Const", "attr": {"value": {"tensor": {"dtype": "DT_INT32", "tensorShape": {"dim": [{"size": "3"}]}}}, "dtype": {"type": "DT_INT32"}}}, {"name": "model_124/tf.strided_slice_45/ones_like", "op": "Const", "attr": {"value": {"tensor": {"dtype": "DT_INT32", "tensorShape": {"dim": [{"size": "3"}]}}}, "dtype": {"type": "DT_INT32"}}}, {"name": "model_124/tf.concat_62/concat/axis", "op": "Const", "attr": {"dtype": {"type": "DT_INT32"}, "value": {"tensor": {"dtype": "DT_INT32", "tensorShape": {}}}}}, {"name": "model_124/tf.math.add_289/Add/y", "op": "Const", "attr": {"value": {"tensor": {"dtype": "DT_FLOAT", "tensorShape": {"dim": [{"size": "1"}, {"size": "2"}, {"size": "21504"}]}}}, "dtype": {"type": "DT_FLOAT"}}}, {"name": "model_124/tf.split_4/split/split_dim", "op": "Const", "attr": {"value": {"tensor": {"dtype": "DT_INT32", "tensorShape": {}}}, "dtype": {"type": "DT_INT32"}}}, {"name": "model_124/tf.strided_slice_42/StridedSlice/begin", "op": "Const", "attr": {"dtype": {"type": "DT_INT64"}, "value": {"tensor": {"dtype": "DT_INT64", "tensorShape": {"dim": [{"size": "3"}]}}}}}, {"name": "model_124/tf.strided_slice_42/StridedSlice/end", "op": "Const", "attr": {"value": {"tensor": {"dtype": "DT_INT64", "tensorShape": {"dim": [{"size": "3"}]}}}, "dtype": {"type": "DT_INT64"}}}, {"name": "model_124/tf.strided_slice_42/StridedSlice/strides", "op": "Const", "attr": {"value": {"tensor": {"dtype": "DT_INT64", "tensorShape": {"dim": [{"size": "3"}]}}}, "dtype": {"type": "DT_INT64"}}}, {"name": "model_124/tf.reshape_62/Reshape/shape", "op": "Const", "attr": {"dtype": {"type": "DT_INT32"}, "value": {"tensor": {"dtype": "DT_INT32", "tensorShape": {"dim": [{"size": "4"}]}}}}}, {"name": "model_124/tf.compat.v1.transpose_157/transpose/perm", "op": "Const", "attr": {"value": {"tensor": {"dtype": "DT_INT32", "tensorShape": {"dim": [{"size": "4"}]}}}, "dtype": {"type": "DT_INT32"}}}, {"name": "model_124/tf.compat.v1.transpose_158/transpose/perm", "op": "Const", "attr": {"dtype": {"type": "DT_INT32"}, "value": {"tensor": {"dtype": "DT_INT32", "tensorShape": {"dim": [{"size": "4"}]}}}}}, {"name": "model_124/tf.nn.convolution_467/convolution/filter", "op": "Const", "attr": {"value": {"tensor": {"dtype": "DT_FLOAT", "tensorShape": {"dim": [{"size": "1"}, {"size": "1"}, {"size": "16"}, {"size": "1"}]}}}, "dtype": {"type": "DT_FLOAT"}}}, {"name": "model_124/tf.compat.v1.transpose_163/transpose/perm", "op": "Const", "attr": {"dtype": {"type": "DT_INT32"}, "value": {"tensor": {"dtype": "DT_INT32", "tensorShape": {"dim": [{"size": "4"}]}}}}}, {"name": "model_124/tf.reshape_65/Reshape/shape", "op": "Const", "attr": {"dtype": {"type": "DT_INT32"}, "value": {"tensor": {"dtype": "DT_INT32", "tensorShape": {"dim": [{"size": "3"}]}}}}}, {"name": "model_124/tf.concat_66/concat/axis", "op": "Const", "attr": {"value": {"tensor": {"dtype": "DT_INT32", "tensorShape": {}}}, "dtype": {"type": "DT_INT32"}}}, {"name": "model_124/tf.math.multiply_784/Mul/y", "op": "Const", "attr": {"dtype": {"type": "DT_FLOAT"}, "value": {"tensor": {"dtype": "DT_FLOAT", "tensorShape": {"dim": [{"size": "1"}, {"size": "1"}, {"size": "21504"}]}}}}}, {"name": "model_124/tf.nn.convolution_417/convolution/filter", "op": "Const", "attr": {"dtype": {"type": "DT_FLOAT"}, "value": {"tensor": {"dtype": "DT_FLOAT", "tensorShape": {"dim": [{"size": "3"}, {"size": "3"}, {"size": "64"}, {"size": "64"}]}}}}}, {"name": "model_124/tf.math.add_223/Add/y", "op": "Const", "attr": {"value": {"tensor": {"dtype": "DT_FLOAT", "tensorShape": {"dim": [{"size": "64"}]}}}, "dtype": {"type": "DT_FLOAT"}}}, {"name": "model_124/tf.nn.convolution_419/convolution/filter", "op": "Const", "attr": {"value": {"tensor": {"dtype": "DT_FLOAT", "tensorShape": {"dim": [{"size": "3"}, {"size": "3"}, {"size": "64"}, {"size": "64"}]}}}, "dtype": {"type": "DT_FLOAT"}}}, {"name": "model_124/tf.math.add_226/Add/y", "op": "Const", "attr": {"value": {"tensor": {"dtype": "DT_FLOAT", "tensorShape": {"dim": [{"size": "64"}]}}}, "dtype": {"type": "DT_FLOAT"}}}, {"name": "model_124/tf.nn.convolution_423/convolution/filter", "op": "Const", "attr": {"value": {"tensor": {"dtype": "DT_FLOAT", "tensorShape": {"dim": [{"size": "1"}, {"size": "1"}, {"size": "64"}, {"size": "64"}]}}}, "dtype": {"type": "DT_FLOAT"}}}, {"name": "model_124/tf.math.add_230/Add/y", "op": "Const", "attr": {"dtype": {"type": "DT_FLOAT"}, "value": {"tensor": {"dtype": "DT_FLOAT", "tensorShape": {"dim": [{"size": "64"}]}}}}}, {"name": "model_124/tf.compat.v1.nn.depthwise_conv2d_8/depthwise/filter_in", "op": "Const", "attr": {"value": {"tensor": {"dtype": "DT_FLOAT", "tensorShape": {"dim": [{"size": "3"}, {"size": "3"}, {"size": "64"}, {"size": "1"}]}}}, "dtype": {"type": "DT_FLOAT"}}}, {"name": "model_124/tf.math.add_224/Add/y", "op": "Const", "attr": {"dtype": {"type": "DT_FLOAT"}, "value": {"tensor": {"dtype": "DT_FLOAT", "tensorShape": {"dim": [{"size": "64"}]}}}}}, {"name": "model_124/tf.nn.convolution_420/convolution/filter", "op": "Const", "attr": {"value": {"tensor": {"dtype": "DT_FLOAT", "tensorShape": {"dim": [{"size": "1"}, {"size": "1"}, {"size": "64"}, {"size": "64"}]}}}, "dtype": {"type": "DT_FLOAT"}}}, {"name": "model_124/tf.math.add_227/Add/y", "op": "Const", "attr": {"value": {"tensor": {"dtype": "DT_FLOAT", "tensorShape": {"dim": [{"size": "64"}]}}}, "dtype": {"type": "DT_FLOAT"}}}, {"name": "model_124/tf.compat.v1.nn.depthwise_conv2d_9/depthwise/filter_in", "op": "Const", "attr": {"value": {"tensor": {"dtype": "DT_FLOAT", "tensorShape": {"dim": [{"size": "3"}, {"size": "3"}, {"size": "64"}, {"size": "1"}]}}}, "dtype": {"type": "DT_FLOAT"}}}, {"name": "model_124/tf.math.add_231/Add/y", "op": "Const", "attr": {"value": {"tensor": {"dtype": "DT_FLOAT", "tensorShape": {"dim": [{"size": "64"}]}}}, "dtype": {"type": "DT_FLOAT"}}}, {"name": "model_124/tf.nn.convolution_427/convolution/filter", "op": "Const", "attr": {"value": {"tensor": {"dtype": "DT_FLOAT", "tensorShape": {"dim": [{"size": "1"}, {"size": "1"}, {"size": "64"}, {"size": "64"}]}}}, "dtype": {"type": "DT_FLOAT"}}}, {"name": "model_124/tf.math.add_235/Add/y", "op": "Const", "attr": {"dtype": {"type": "DT_FLOAT"}, "value": {"tensor": {"dtype": "DT_FLOAT", "tensorShape": {"dim": [{"size": "64"}]}}}}}, {"name": "model_124/tf.nn.convolution_429/convolution/filter", "op": "Const", "attr": {"dtype": {"type": "DT_FLOAT"}, "value": {"tensor": {"dtype": "DT_FLOAT", "tensorShape": {"dim": [{"size": "1"}, {"size": "1"}, {"size": "64"}, {"size": "15"}]}}}}}, {"name": "model_124/tf.math.add_237/Add/y", "op": "Const", "attr": {"value": {"tensor": {"dtype": "DT_FLOAT", "tensorShape": {"dim": [{"size": "15"}]}}}, "dtype": {"type": "DT_FLOAT"}}}, {"name": "model_124/tf.concat_48/concat/axis", "op": "Const", "attr": {"value": {"tensor": {"dtype": "DT_INT32", "tensorShape": {}}}, "dtype": {"type": "DT_INT32"}}}, {"name": "model_124/tf.compat.v1.transpose_113/transpose/perm", "op": "Const", "attr": {"dtype": {"type": "DT_INT32"}, "value": {"tensor": {"dtype": "DT_INT32", "tensorShape": {"dim": [{"size": "4"}]}}}}}, {"name": "model_124/tf.reshape_47/Reshape/shape", "op": "Const", "attr": {"dtype": {"type": "DT_INT32"}, "value": {"tensor": {"dtype": "DT_INT32", "tensorShape": {"dim": [{"size": "3"}]}}}}}, {"name": "model_124/tf.nn.convolution_433/convolution/filter", "op": "Const", "attr": {"dtype": {"type": "DT_FLOAT"}, "value": {"tensor": {"dtype": "DT_FLOAT", "tensorShape": {"dim": [{"size": "3"}, {"size": "3"}, {"size": "128"}, {"size": "64"}]}}}}}, {"name": "model_124/tf.math.add_243/Add/y", "op": "Const", "attr": {"value": {"tensor": {"dtype": "DT_FLOAT", "tensorShape": {"dim": [{"size": "64"}]}}}, "dtype": {"type": "DT_FLOAT"}}}, {"name": "model_124/tf.nn.convolution_437/convolution/filter", "op": "Const", "attr": {"value": {"tensor": {"dtype": "DT_FLOAT", "tensorShape": {"dim": [{"size": "3"}, {"size": "3"}, {"size": "64"}, {"size": "64"}]}}}, "dtype": {"type": "DT_FLOAT"}}}, {"name": "model_124/tf.math.add_248/Add/y", "op": "Const", "attr": {"dtype": {"type": "DT_FLOAT"}, "value": {"tensor": {"dtype": "DT_FLOAT", "tensorShape": {"dim": [{"size": "64"}]}}}}}, {"name": "model_124/tf.nn.convolution_443/convolution/filter", "op": "Const", "attr": {"dtype": {"type": "DT_FLOAT"}, "value": {"tensor": {"dtype": "DT_FLOAT", "tensorShape": {"dim": [{"size": "1"}, {"size": "1"}, {"size": "64"}, {"size": "64"}]}}}}}, {"name": "model_124/tf.math.add_254/Add/y", "op": "Const", "attr": {"dtype": {"type": "DT_FLOAT"}, "value": {"tensor": {"dtype": "DT_FLOAT", "tensorShape": {"dim": [{"size": "64"}]}}}}}, {"name": "model_124/tf.compat.v1.nn.depthwise_conv2d_10/depthwise/filter_in", "op": "Const", "attr": {"dtype": {"type": "DT_FLOAT"}, "value": {"tensor": {"dtype": "DT_FLOAT", "tensorShape": {"dim": [{"size": "3"}, {"size": "3"}, {"size": "128"}, {"size": "1"}]}}}}}, {"name": "model_124/tf.math.add_244/Add/y", "op": "Const", "attr": {"dtype": {"type": "DT_FLOAT"}, "value": {"tensor": {"dtype": "DT_FLOAT", "tensorShape": {"dim": [{"size": "128"}]}}}}}, {"name": "model_124/tf.nn.convolution_438/convolution/filter", "op": "Const", "attr": {"value": {"tensor": {"dtype": "DT_FLOAT", "tensorShape": {"dim": [{"size": "1"}, {"size": "1"}, {"size": "128"}, {"size": "64"}]}}}, "dtype": {"type": "DT_FLOAT"}}}, {"name": "model_124/tf.math.add_249/Add/y", "op": "Const", "attr": {"dtype": {"type": "DT_FLOAT"}, "value": {"tensor": {"dtype": "DT_FLOAT", "tensorShape": {"dim": [{"size": "64"}]}}}}}, {"name": "model_124/tf.compat.v1.nn.depthwise_conv2d_13/depthwise/filter_in", "op": "Const", "attr": {"value": {"tensor": {"dtype": "DT_FLOAT", "tensorShape": {"dim": [{"size": "3"}, {"size": "3"}, {"size": "64"}, {"size": "1"}]}}}, "dtype": {"type": "DT_FLOAT"}}}, {"name": "model_124/tf.math.add_257/Add/y", "op": "Const", "attr": {"dtype": {"type": "DT_FLOAT"}, "value": {"tensor": {"dtype": "DT_FLOAT", "tensorShape": {"dim": [{"size": "64"}]}}}}}, {"name": "model_124/tf.nn.convolution_448/convolution/filter", "op": "Const", "attr": {"value": {"tensor": {"dtype": "DT_FLOAT", "tensorShape": {"dim": [{"size": "1"}, {"size": "1"}, {"size": "64"}, {"size": "64"}]}}}, "dtype": {"type": "DT_FLOAT"}}}, {"name": "model_124/tf.math.add_262/Add/y", "op": "Const", "attr": {"dtype": {"type": "DT_FLOAT"}, "value": {"tensor": {"dtype": "DT_FLOAT", "tensorShape": {"dim": [{"size": "64"}]}}}}}, {"name": "model_124/tf.nn.convolution_452/convolution/filter", "op": "Const", "attr": {"dtype": {"type": "DT_FLOAT"}, "value": {"tensor": {"dtype": "DT_FLOAT", "tensorShape": {"dim": [{"size": "1"}, {"size": "1"}, {"size": "64"}, {"size": "15"}]}}}}}, {"name": "model_124/tf.math.add_266/Add/y", "op": "Const", "attr": {"value": {"tensor": {"dtype": "DT_FLOAT", "tensorShape": {"dim": [{"size": "15"}]}}}, "dtype": {"type": "DT_FLOAT"}}}, {"name": "model_124/tf.concat_53/concat/axis", "op": "Const", "attr": {"dtype": {"type": "DT_INT32"}, "value": {"tensor": {"dtype": "DT_INT32", "tensorShape": {}}}}}, {"name": "model_124/tf.compat.v1.transpose_140/transpose/perm", "op": "Const", "attr": {"value": {"tensor": {"dtype": "DT_INT32", "tensorShape": {"dim": [{"size": "4"}]}}}, "dtype": {"type": "DT_INT32"}}}, {"name": "model_124/tf.reshape_53/Reshape/shape", "op": "Const", "attr": {"dtype": {"type": "DT_INT32"}, "value": {"tensor": {"dtype": "DT_INT32", "tensorShape": {"dim": [{"size": "3"}]}}}}}, {"name": "model_124/tf.nn.convolution_459/convolution/filter", "op": "Const", "attr": {"dtype": {"type": "DT_FLOAT"}, "value": {"tensor": {"dtype": "DT_FLOAT", "tensorShape": {"dim": [{"size": "3"}, {"size": "3"}, {"size": "256"}, {"size": "64"}]}}}}}, {"name": "model_124/tf.math.add_277/Add/y", "op": "Const", "attr": {"value": {"tensor": {"dtype": "DT_FLOAT", "tensorShape": {"dim": [{"size": "64"}]}}}, "dtype": {"type": "DT_FLOAT"}}}, {"name": "model_124/tf.nn.convolution_461/convolution/filter", "op": "Const", "attr": {"dtype": {"type": "DT_FLOAT"}, "value": {"tensor": {"dtype": "DT_FLOAT", "tensorShape": {"dim": [{"size": "3"}, {"size": "3"}, {"size": "64"}, {"size": "64"}]}}}}}, {"name": "model_124/tf.math.add_280/Add/y", "op": "Const", "attr": {"value": {"tensor": {"dtype": "DT_FLOAT", "tensorShape": {"dim": [{"size": "64"}]}}}, "dtype": {"type": "DT_FLOAT"}}}, {"name": "model_124/tf.nn.convolution_464/convolution/filter", "op": "Const", "attr": {"dtype": {"type": "DT_FLOAT"}, "value": {"tensor": {"dtype": "DT_FLOAT", "tensorShape": {"dim": [{"size": "1"}, {"size": "1"}, {"size": "64"}, {"size": "64"}]}}}}}, {"name": "model_124/tf.math.add_283/Add/y", "op": "Const", "attr": {"value": {"tensor": {"dtype": "DT_FLOAT", "tensorShape": {"dim": [{"size": "64"}]}}}, "dtype": {"type": "DT_FLOAT"}}}, {"name": "model_124/tf.compat.v1.nn.depthwise_conv2d_14/depthwise/filter_in", "op": "Const", "attr": {"value": {"tensor": {"dtype": "DT_FLOAT", "tensorShape": {"dim": [{"size": "3"}, {"size": "3"}, {"size": "256"}, {"size": "1"}]}}}, "dtype": {"type": "DT_FLOAT"}}}, {"name": "model_124/tf.math.add_278/Add/y", "op": "Const", "attr": {"value": {"tensor": {"dtype": "DT_FLOAT", "tensorShape": {"dim": [{"size": "256"}]}}}, "dtype": {"type": "DT_FLOAT"}}}, {"name": "model_124/tf.nn.convolution_462/convolution/filter", "op": "Const", "attr": {"dtype": {"type": "DT_FLOAT"}, "value": {"tensor": {"dtype": "DT_FLOAT", "tensorShape": {"dim": [{"size": "1"}, {"size": "1"}, {"size": "256"}, {"size": "64"}]}}}}}, {"name": "model_124/tf.math.add_281/Add/y", "op": "Const", "attr": {"value": {"tensor": {"dtype": "DT_FLOAT", "tensorShape": {"dim": [{"size": "64"}]}}}, "dtype": {"type": "DT_FLOAT"}}}, {"name": "model_124/tf.compat.v1.nn.depthwise_conv2d_15/depthwise/filter_in", "op": "Const", "attr": {"dtype": {"type": "DT_FLOAT"}, "value": {"tensor": {"dtype": "DT_FLOAT", "tensorShape": {"dim": [{"size": "3"}, {"size": "3"}, {"size": "64"}, {"size": "1"}]}}}}}, {"name": "model_124/tf.math.add_284/Add/y", "op": "Const", "attr": {"dtype": {"type": "DT_FLOAT"}, "value": {"tensor": {"dtype": "DT_FLOAT", "tensorShape": {"dim": [{"size": "64"}]}}}}}, {"name": "model_124/tf.nn.convolution_465/convolution/filter", "op": "Const", "attr": {"value": {"tensor": {"dtype": "DT_FLOAT", "tensorShape": {"dim": [{"size": "1"}, {"size": "1"}, {"size": "64"}, {"size": "64"}]}}}, "dtype": {"type": "DT_FLOAT"}}}, {"name": "model_124/tf.math.add_285/Add/y", "op": "Const", "attr": {"dtype": {"type": "DT_FLOAT"}, "value": {"tensor": {"dtype": "DT_FLOAT", "tensorShape": {"dim": [{"size": "64"}]}}}}}, {"name": "model_124/tf.nn.convolution_466/convolution/filter", "op": "Const", "attr": {"value": {"tensor": {"dtype": "DT_FLOAT", "tensorShape": {"dim": [{"size": "1"}, {"size": "1"}, {"size": "64"}, {"size": "15"}]}}}, "dtype": {"type": "DT_FLOAT"}}}, {"name": "model_124/tf.math.add_286/Add/y", "op": "Const", "attr": {"dtype": {"type": "DT_FLOAT"}, "value": {"tensor": {"dtype": "DT_FLOAT", "tensorShape": {"dim": [{"size": "15"}]}}}}}, {"name": "model_124/tf.concat_57/concat/axis", "op": "Const", "attr": {"value": {"tensor": {"dtype": "DT_INT32", "tensorShape": {}}}, "dtype": {"type": "DT_INT32"}}}, {"name": "model_124/tf.compat.v1.transpose_150/transpose/perm", "op": "Const", "attr": {"dtype": {"type": "DT_INT32"}, "value": {"tensor": {"dtype": "DT_INT32", "tensorShape": {"dim": [{"size": "4"}]}}}}}, {"name": "model_124/tf.reshape_59/Reshape/shape", "op": "Const", "attr": {"dtype": {"type": "DT_INT32"}, "value": {"tensor": {"dtype": "DT_INT32", "tensorShape": {"dim": [{"size": "3"}]}}}}}, {"name": "model_124/tf.concat_58/concat/axis", "op": "Const", "attr": {"value": {"tensor": {"dtype": "DT_INT32", "tensorShape": {}}}, "dtype": {"type": "DT_INT32"}}}, {"name": "model_124/tf.strided_slice_43/StridedSlice/begin", "op": "Const", "attr": {"dtype": {"type": "DT_INT64"}, "value": {"tensor": {"dtype": "DT_INT64", "tensorShape": {"dim": [{"size": "3"}]}}}}}, {"name": "model_124/tf.strided_slice_43/StridedSlice/end", "op": "Const", "attr": {"value": {"tensor": {"dtype": "DT_INT64", "tensorShape": {"dim": [{"size": "3"}]}}}, "dtype": {"type": "DT_INT64"}}}, {"name": "model_124/tf.strided_slice_43/StridedSlice/strides", "op": "Const", "attr": {"value": {"tensor": {"dtype": "DT_INT64", "tensorShape": {"dim": [{"size": "3"}]}}}, "dtype": {"type": "DT_INT64"}}}, {"name": "model_124/tf.nn.convolution_416/convolution/filter", "op": "Const", "attr": {"value": {"tensor": {"dtype": "DT_FLOAT", "tensorShape": {"dim": [{"size": "3"}, {"size": "3"}, {"size": "64"}, {"size": "16"}]}}}, "dtype": {"type": "DT_FLOAT"}}}, {"name": "model_124/tf.math.add_222/Add/y", "op": "Const", "attr": {"value": {"tensor": {"dtype": "DT_FLOAT", "tensorShape": {"dim": [{"size": "16"}]}}}, "dtype": {"type": "DT_FLOAT"}}}, {"name": "model_124/tf.nn.convolution_418/convolution/filter", "op": "Const", "attr": {"value": {"tensor": {"dtype": "DT_FLOAT", "tensorShape": {"dim": [{"size": "3"}, {"size": "3"}, {"size": "16"}, {"size": "16"}]}}}, "dtype": {"type": "DT_FLOAT"}}}, {"name": "model_124/tf.math.add_225/Add/y", "op": "Const", "attr": {"dtype": {"type": "DT_FLOAT"}, "value": {"tensor": {"dtype": "DT_FLOAT", "tensorShape": {"dim": [{"size": "16"}]}}}}}, {"name": "model_124/tf.nn.convolution_422/convolution/filter", "op": "Const", "attr": {"value": {"tensor": {"dtype": "DT_FLOAT", "tensorShape": {"dim": [{"size": "1"}, {"size": "1"}, {"size": "16"}, {"size": "1"}]}}}, "dtype": {"type": "DT_FLOAT"}}}, {"name": "model_124/tf.math.add_229/Add/y", "op": "Const", "attr": {"value": {"tensor": {"dtype": "DT_FLOAT", "tensorShape": {"dim": [{"size": "1"}]}}}, "dtype": {"type": "DT_FLOAT"}}}, {"name": "model_124/tf.compat.v1.transpose_105/transpose/perm", "op": "Const", "attr": {"value": {"tensor": {"dtype": "DT_INT32", "tensorShape": {"dim": [{"size": "4"}]}}}, "dtype": {"type": "DT_INT32"}}}, {"name": "model_124/tf.reshape_44/Reshape/shape", "op": "Const", "attr": {"value": {"tensor": {"dtype": "DT_INT32", "tensorShape": {"dim": [{"size": "3"}]}}}, "dtype": {"type": "DT_INT32"}}}, {"name": "model_124/tf.nn.convolution_432/convolution/filter", "op": "Const", "attr": {"value": {"tensor": {"dtype": "DT_FLOAT", "tensorShape": {"dim": [{"size": "3"}, {"size": "3"}, {"size": "128"}, {"size": "16"}]}}}, "dtype": {"type": "DT_FLOAT"}}}, {"name": "model_124/tf.math.add_242/Add/y", "op": "Const", "attr": {"value": {"tensor": {"dtype": "DT_FLOAT", "tensorShape": {"dim": [{"size": "16"}]}}}, "dtype": {"type": "DT_FLOAT"}}}, {"name": "model_124/tf.nn.convolution_434/convolution/filter", "op": "Const", "attr": {"dtype": {"type": "DT_FLOAT"}, "value": {"tensor": {"dtype": "DT_FLOAT", "tensorShape": {"dim": [{"size": "3"}, {"size": "3"}, {"size": "16"}, {"size": "16"}]}}}}}, {"name": "model_124/tf.math.add_245/Add/y", "op": "Const", "attr": {"dtype": {"type": "DT_FLOAT"}, "value": {"tensor": {"dtype": "DT_FLOAT", "tensorShape": {"dim": [{"size": "16"}]}}}}}, {"name": "model_124/tf.nn.convolution_440/convolution/filter", "op": "Const", "attr": {"dtype": {"type": "DT_FLOAT"}, "value": {"tensor": {"dtype": "DT_FLOAT", "tensorShape": {"dim": [{"size": "1"}, {"size": "1"}, {"size": "16"}, {"size": "1"}]}}}}}, {"name": "model_124/tf.math.add_251/Add/y", "op": "Const", "attr": {"dtype": {"type": "DT_FLOAT"}, "value": {"tensor": {"dtype": "DT_FLOAT", "tensorShape": {"dim": [{"size": "1"}]}}}}}, {"name": "model_124/tf.compat.v1.transpose_129/transpose/perm", "op": "Const", "attr": {"value": {"tensor": {"dtype": "DT_INT32", "tensorShape": {"dim": [{"size": "4"}]}}}, "dtype": {"type": "DT_INT32"}}}, {"name": "model_124/tf.reshape_50/Reshape/shape", "op": "Const", "attr": {"dtype": {"type": "DT_INT32"}, "value": {"tensor": {"dtype": "DT_INT32", "tensorShape": {"dim": [{"size": "3"}]}}}}}, {"name": "model_124/tf.strided_slice_40/ones_like/tensor", "op": "Const", "attr": {"dtype": {"type": "DT_INT64"}, "value": {"tensor": {"dtype": "DT_INT64", "tensorShape": {"dim": [{"size": "4"}]}}}}}, {"name": "model_124/tf.strided_slice_40/StridedSlice/end", "op": "Const", "attr": {"dtype": {"type": "DT_INT64"}, "value": {"tensor": {"dtype": "DT_INT64", "tensorShape": {"dim": [{"size": "4"}]}}}}}, {"name": "model_124/tf.strided_slice_40/ones_like", "op": "Const", "attr": {"value": {"tensor": {"dtype": "DT_INT64", "tensorShape": {"dim": [{"size": "4"}]}}}, "dtype": {"type": "DT_INT64"}}}, {"name": "model_124/tf.nn.convolution_444/convolution/filter", "op": "Const", "attr": {"value": {"tensor": {"dtype": "DT_FLOAT", "tensorShape": {"dim": [{"size": "1"}, {"size": "1"}, {"size": "128"}, {"size": "64"}]}}}, "dtype": {"type": "DT_FLOAT"}}}, {"name": "model_124/tf.math.add_258/Add/y", "op": "Const", "attr": {"value": {"tensor": {"dtype": "DT_FLOAT", "tensorShape": {"dim": [{"size": "64"}]}}}, "dtype": {"type": "DT_FLOAT"}}}, {"name": "model_124/tf.nn.convolution_449/convolution/filter", "op": "Const", "attr": {"dtype": {"type": "DT_FLOAT"}, "value": {"tensor": {"dtype": "DT_FLOAT", "tensorShape": {"dim": [{"size": "3"}, {"size": "3"}, {"size": "64"}, {"size": "64"}]}}}}}, {"name": "model_124/tf.math.add_263/Add/y", "op": "Const", "attr": {"dtype": {"type": "DT_FLOAT"}, "value": {"tensor": {"dtype": "DT_FLOAT", "tensorShape": {"dim": [{"size": "64"}]}}}}}, {"name": "model_124/tf.nn.convolution_453/convolution/filter", "op": "Const", "attr": {"dtype": {"type": "DT_FLOAT"}, "value": {"tensor": {"dtype": "DT_FLOAT", "tensorShape": {"dim": [{"size": "3"}, {"size": "3"}, {"size": "64"}, {"size": "64"}]}}}}}, {"name": "model_124/tf.math.add_267/Add/y", "op": "Const", "attr": {"value": {"tensor": {"dtype": "DT_FLOAT", "tensorShape": {"dim": [{"size": "64"}]}}}, "dtype": {"type": "DT_FLOAT"}}}, {"name": "model_124/tf.nn.convolution_454/convolution/filter", "op": "Const", "attr": {"value": {"tensor": {"dtype": "DT_FLOAT", "tensorShape": {"dim": [{"size": "3"}, {"size": "3"}, {"size": "64"}, {"size": "64"}]}}}, "dtype": {"type": "DT_FLOAT"}}}, {"name": "model_124/tf.math.add_270/Add/y", "op": "Const", "attr": {"value": {"tensor": {"dtype": "DT_FLOAT", "tensorShape": {"dim": [{"size": "64"}]}}}, "dtype": {"type": "DT_FLOAT"}}}, {"name": "model_124/tf.nn.convolution_455/convolution/filter", "op": "Const", "attr": {"dtype": {"type": "DT_FLOAT"}, "value": {"tensor": {"dtype": "DT_FLOAT", "tensorShape": {"dim": [{"size": "3"}, {"size": "3"}, {"size": "64"}, {"size": "64"}]}}}}}, {"name": "model_124/tf.math.add_271/Add/y", "op": "Const", "attr": {"dtype": {"type": "DT_FLOAT"}, "value": {"tensor": {"dtype": "DT_FLOAT", "tensorShape": {"dim": [{"size": "64"}]}}}}}, {"name": "model_124/tf.strided_slice_38/ones_like/tensor", "op": "Const", "attr": {"value": {"tensor": {"dtype": "DT_INT64", "tensorShape": {"dim": [{"size": "4"}]}}}, "dtype": {"type": "DT_INT64"}}}, {"name": "model_124/tf.strided_slice_38/StridedSlice/end", "op": "Const", "attr": {"dtype": {"type": "DT_INT64"}, "value": {"tensor": {"dtype": "DT_INT64", "tensorShape": {"dim": [{"size": "4"}]}}}}}, {"name": "model_124/tf.strided_slice_38/ones_like", "op": "Const", "attr": {"dtype": {"type": "DT_INT64"}, "value": {"tensor": {"dtype": "DT_INT64", "tensorShape": {"dim": [{"size": "4"}]}}}}}, {"name": "model_124/tf.strided_slice_36/ones_like/tensor", "op": "Const", "attr": {"value": {"tensor": {"dtype": "DT_INT64", "tensorShape": {"dim": [{"size": "4"}]}}}, "dtype": {"type": "DT_INT64"}}}, {"name": "model_124/tf.strided_slice_36/StridedSlice/end", "op": "Const", "attr": {"dtype": {"type": "DT_INT64"}, "value": {"tensor": {"dtype": "DT_INT64", "tensorShape": {"dim": [{"size": "4"}]}}}}}, {"name": "model_124/tf.strided_slice_36/ones_like", "op": "Const", "attr": {"value": {"tensor": {"dtype": "DT_INT64", "tensorShape": {"dim": [{"size": "4"}]}}}, "dtype": {"type": "DT_INT64"}}}, {"name": "model_124/tf.image.resize_3/resize/size", "op": "Const", "attr": {"dtype": {"type": "DT_INT32"}, "value": {"tensor": {"dtype": "DT_INT32", "tensorShape": {"dim": [{"size": "2"}]}}}}}, {"name": "model_124/tf.concat_43/concat/axis", "op": "Const", "attr": {"dtype": {"type": "DT_INT32"}, "value": {"tensor": {"dtype": "DT_INT32", "tensorShape": {}}}}}, {"name": "model_124/tf.nn.convolution_411/convolution/filter", "op": "Const", "attr": {"value": {"tensor": {"dtype": "DT_FLOAT", "tensorShape": {"dim": [{"size": "1"}, {"size": "1"}, {"size": "256"}, {"size": "64"}]}}}, "dtype": {"type": "DT_FLOAT"}}}, {"name": "model_124/tf.math.add_215/Add/y", "op": "Const", "attr": {"value": {"tensor": {"dtype": "DT_FLOAT", "tensorShape": {"dim": [{"size": "64"}]}}}, "dtype": {"type": "DT_FLOAT"}}}, {"name": "model_124/tf.strided_slice_37/ones_like/tensor", "op": "Const", "attr": {"dtype": {"type": "DT_INT64"}, "value": {"tensor": {"dtype": "DT_INT64", "tensorShape": {"dim": [{"size": "4"}]}}}}}, {"name": "model_124/tf.strided_slice_37/StridedSlice/end", "op": "Const", "attr": {"value": {"tensor": {"dtype": "DT_INT64", "tensorShape": {"dim": [{"size": "4"}]}}}, "dtype": {"type": "DT_INT64"}}}, {"name": "model_124/tf.strided_slice_37/ones_like", "op": "Const", "attr": {"dtype": {"type": "DT_INT64"}, "value": {"tensor": {"dtype": "DT_INT64", "tensorShape": {"dim": [{"size": "4"}]}}}}}, {"name": "model_124/tf.nn.convolution_412/convolution/filter", "op": "Const", "attr": {"dtype": {"type": "DT_FLOAT"}, "value": {"tensor": {"dtype": "DT_FLOAT", "tensorShape": {"dim": [{"size": "3"}, {"size": "3"}, {"size": "32"}, {"size": "16"}]}}}}}, {"name": "model_124/tf.math.add_216/Add/y", "op": "Const", "attr": {"value": {"tensor": {"dtype": "DT_FLOAT", "tensorShape": {"dim": [{"size": "16"}]}}}, "dtype": {"type": "DT_FLOAT"}}}, {"name": "model_124/tf.nn.convolution_413/convolution/filter", "op": "Const", "attr": {"dtype": {"type": "DT_FLOAT"}, "value": {"tensor": {"dtype": "DT_FLOAT", "tensorShape": {"dim": [{"size": "3"}, {"size": "3"}, {"size": "16"}, {"size": "32"}]}}}}}, {"name": "model_124/tf.math.add_217/Add/y", "op": "Const", "attr": {"value": {"tensor": {"dtype": "DT_FLOAT", "tensorShape": {"dim": [{"size": "32"}]}}}, "dtype": {"type": "DT_FLOAT"}}}, {"name": "model_124/tf.concat_44/concat/axis", "op": "Const", "attr": {"dtype": {"type": "DT_INT32"}, "value": {"tensor": {"dtype": "DT_INT32", "tensorShape": {}}}}}, {"name": "model_124/tf.nn.convolution_414/convolution/filter", "op": "Const", "attr": {"value": {"tensor": {"dtype": "DT_FLOAT", "tensorShape": {"dim": [{"size": "1"}, {"size": "1"}, {"size": "96"}, {"size": "64"}]}}}, "dtype": {"type": "DT_FLOAT"}}}, {"name": "model_124/tf.math.add_220/Add/y", "op": "Const", "attr": {"value": {"tensor": {"dtype": "DT_FLOAT", "tensorShape": {"dim": [{"size": "64"}]}}}, "dtype": {"type": "DT_FLOAT"}}}, {"name": "model_124/tf.compat.v1.pad_12/Pad/paddings", "op": "Const", "attr": {"value": {"tensor": {"dtype": "DT_INT32", "tensorShape": {"dim": [{"size": "4"}, {"size": "2"}]}}}, "dtype": {"type": "DT_INT32"}}}, {"name": "model_124/tf.nn.convolution_415/convolution/filter", "op": "Const", "attr": {"value": {"tensor": {"dtype": "DT_FLOAT", "tensorShape": {"dim": [{"size": "3"}, {"size": "3"}, {"size": "64"}, {"size": "64"}]}}}, "dtype": {"type": "DT_FLOAT"}}}, {"name": "model_124/tf.math.add_221/Add/y", "op": "Const", "attr": {"value": {"tensor": {"dtype": "DT_FLOAT", "tensorShape": {"dim": [{"size": "64"}]}}}, "dtype": {"type": "DT_FLOAT"}}}, {"name": "model_124/tf.strided_slice_34/ones_like/tensor", "op": "Const", "attr": {"dtype": {"type": "DT_INT64"}, "value": {"tensor": {"dtype": "DT_INT64", "tensorShape": {"dim": [{"size": "4"}]}}}}}, {"name": "model_124/tf.strided_slice_34/StridedSlice/end", "op": "Const", "attr": {"value": {"tensor": {"dtype": "DT_INT64", "tensorShape": {"dim": [{"size": "4"}]}}}, "dtype": {"type": "DT_INT64"}}}, {"name": "model_124/tf.strided_slice_34/ones_like", "op": "Const", "attr": {"value": {"tensor": {"dtype": "DT_INT64", "tensorShape": {"dim": [{"size": "4"}]}}}, "dtype": {"type": "DT_INT64"}}}, {"name": "model_124/tf.image.resize_2/resize/size", "op": "Const", "attr": {"dtype": {"type": "DT_INT32"}, "value": {"tensor": {"dtype": "DT_INT32", "tensorShape": {"dim": [{"size": "2"}]}}}}}, {"name": "model_124/tf.concat_39/concat/axis", "op": "Const", "attr": {"dtype": {"type": "DT_INT32"}, "value": {"tensor": {"dtype": "DT_INT32", "tensorShape": {}}}}}, {"name": "model_124/tf.nn.convolution_405/convolution/filter", "op": "Const", "attr": {"value": {"tensor": {"dtype": "DT_FLOAT", "tensorShape": {"dim": [{"size": "1"}, {"size": "1"}, {"size": "384"}, {"size": "128"}]}}}, "dtype": {"type": "DT_FLOAT"}}}, {"name": "model_124/tf.math.add_207/Add/y", "op": "Const", "attr": {"value": {"tensor": {"dtype": "DT_FLOAT", "tensorShape": {"dim": [{"size": "128"}]}}}, "dtype": {"type": "DT_FLOAT"}}}, {"name": "model_124/tf.strided_slice_35/ones_like/tensor", "op": "Const", "attr": {"value": {"tensor": {"dtype": "DT_INT64", "tensorShape": {"dim": [{"size": "4"}]}}}, "dtype": {"type": "DT_INT64"}}}, {"name": "model_124/tf.strided_slice_35/StridedSlice/end", "op": "Const", "attr": {"dtype": {"type": "DT_INT64"}, "value": {"tensor": {"dtype": "DT_INT64", "tensorShape": {"dim": [{"size": "4"}]}}}}}, {"name": "model_124/tf.strided_slice_35/ones_like", "op": "Const", "attr": {"value": {"tensor": {"dtype": "DT_INT64", "tensorShape": {"dim": [{"size": "4"}]}}}, "dtype": {"type": "DT_INT64"}}}, {"name": "model_124/tf.nn.convolution_408/convolution/filter", "op": "Const", "attr": {"dtype": {"type": "DT_FLOAT"}, "value": {"tensor": {"dtype": "DT_FLOAT", "tensorShape": {"dim": [{"size": "3"}, {"size": "3"}, {"size": "64"}, {"size": "32"}]}}}}}, {"name": "model_124/tf.math.add_210/Add/y", "op": "Const", "attr": {"dtype": {"type": "DT_FLOAT"}, "value": {"tensor": {"dtype": "DT_FLOAT", "tensorShape": {"dim": [{"size": "32"}]}}}}}, {"name": "model_124/tf.nn.convolution_409/convolution/filter", "op": "Const", "attr": {"value": {"tensor": {"dtype": "DT_FLOAT", "tensorShape": {"dim": [{"size": "3"}, {"size": "3"}, {"size": "32"}, {"size": "64"}]}}}, "dtype": {"type": "DT_FLOAT"}}}, {"name": "model_124/tf.math.add_211/Add/y", "op": "Const", "attr": {"value": {"tensor": {"dtype": "DT_FLOAT", "tensorShape": {"dim": [{"size": "64"}]}}}, "dtype": {"type": "DT_FLOAT"}}}, {"name": "model_124/tf.concat_40/concat/axis", "op": "Const", "attr": {"value": {"tensor": {"dtype": "DT_INT32", "tensorShape": {}}}, "dtype": {"type": "DT_INT32"}}}, {"name": "model_124/tf.nn.convolution_410/convolution/filter", "op": "Const", "attr": {"dtype": {"type": "DT_FLOAT"}, "value": {"tensor": {"dtype": "DT_FLOAT", "tensorShape": {"dim": [{"size": "1"}, {"size": "1"}, {"size": "192"}, {"size": "128"}]}}}}}, {"name": "model_124/tf.math.add_214/Add/y", "op": "Const", "attr": {"dtype": {"type": "DT_FLOAT"}, "value": {"tensor": {"dtype": "DT_FLOAT", "tensorShape": {"dim": [{"size": "128"}]}}}}}, {"name": "model_124/tf.concat_47/concat/axis", "op": "Const", "attr": {"dtype": {"type": "DT_INT32"}, "value": {"tensor": {"dtype": "DT_INT32", "tensorShape": {}}}}}, {"name": "model_124/tf.nn.convolution_421/convolution/filter", "op": "Const", "attr": {"value": {"tensor": {"dtype": "DT_FLOAT", "tensorShape": {"dim": [{"size": "1"}, {"size": "1"}, {"size": "192"}, {"size": "128"}]}}}, "dtype": {"type": "DT_FLOAT"}}}, {"name": "model_124/tf.math.add_228/Add/y", "op": "Const", "attr": {"value": {"tensor": {"dtype": "DT_FLOAT", "tensorShape": {"dim": [{"size": "128"}]}}}, "dtype": {"type": "DT_FLOAT"}}}, {"name": "model_124/tf.strided_slice_39/ones_like/tensor", "op": "Const", "attr": {"dtype": {"type": "DT_INT64"}, "value": {"tensor": {"dtype": "DT_INT64", "tensorShape": {"dim": [{"size": "4"}]}}}}}, {"name": "model_124/tf.strided_slice_39/StridedSlice/end", "op": "Const", "attr": {"dtype": {"type": "DT_INT64"}, "value": {"tensor": {"dtype": "DT_INT64", "tensorShape": {"dim": [{"size": "4"}]}}}}}, {"name": "model_124/tf.strided_slice_39/ones_like", "op": "Const", "attr": {"dtype": {"type": "DT_INT64"}, "value": {"tensor": {"dtype": "DT_INT64", "tensorShape": {"dim": [{"size": "4"}]}}}}}, {"name": "model_124/tf.nn.convolution_426/convolution/filter", "op": "Const", "attr": {"dtype": {"type": "DT_FLOAT"}, "value": {"tensor": {"dtype": "DT_FLOAT", "tensorShape": {"dim": [{"size": "3"}, {"size": "3"}, {"size": "64"}, {"size": "32"}]}}}}}, {"name": "model_124/tf.math.add_234/Add/y", "op": "Const", "attr": {"dtype": {"type": "DT_FLOAT"}, "value": {"tensor": {"dtype": "DT_FLOAT", "tensorShape": {"dim": [{"size": "32"}]}}}}}, {"name": "model_124/tf.nn.convolution_428/convolution/filter", "op": "Const", "attr": {"value": {"tensor": {"dtype": "DT_FLOAT", "tensorShape": {"dim": [{"size": "3"}, {"size": "3"}, {"size": "32"}, {"size": "64"}]}}}, "dtype": {"type": "DT_FLOAT"}}}, {"name": "model_124/tf.math.add_236/Add/y", "op": "Const", "attr": {"value": {"tensor": {"dtype": "DT_FLOAT", "tensorShape": {"dim": [{"size": "64"}]}}}, "dtype": {"type": "DT_FLOAT"}}}, {"name": "model_124/tf.concat_49/concat/axis", "op": "Const", "attr": {"dtype": {"type": "DT_INT32"}, "value": {"tensor": {"dtype": "DT_INT32", "tensorShape": {}}}}}, {"name": "model_124/tf.nn.convolution_430/convolution/filter", "op": "Const", "attr": {"value": {"tensor": {"dtype": "DT_FLOAT", "tensorShape": {"dim": [{"size": "1"}, {"size": "1"}, {"size": "192"}, {"size": "128"}]}}}, "dtype": {"type": "DT_FLOAT"}}}, {"name": "model_124/tf.math.add_240/Add/y", "op": "Const", "attr": {"dtype": {"type": "DT_FLOAT"}, "value": {"tensor": {"dtype": "DT_FLOAT", "tensorShape": {"dim": [{"size": "128"}]}}}}}, {"name": "model_124/tf.compat.v1.pad_13/Pad/paddings", "op": "Const", "attr": {"value": {"tensor": {"dtype": "DT_INT32", "tensorShape": {"dim": [{"size": "4"}, {"size": "2"}]}}}, "dtype": {"type": "DT_INT32"}}}, {"name": "model_124/tf.nn.convolution_431/convolution/filter", "op": "Const", "attr": {"value": {"tensor": {"dtype": "DT_FLOAT", "tensorShape": {"dim": [{"size": "3"}, {"size": "3"}, {"size": "128"}, {"size": "128"}]}}}, "dtype": {"type": "DT_FLOAT"}}}, {"name": "model_124/tf.math.add_241/Add/y", "op": "Const", "attr": {"value": {"tensor": {"dtype": "DT_FLOAT", "tensorShape": {"dim": [{"size": "128"}]}}}, "dtype": {"type": "DT_FLOAT"}}}, {"name": "model_124/tf.math.add_203/Add/y", "op": "Const", "attr": {"dtype": {"type": "DT_FLOAT"}, "value": {"tensor": {"dtype": "DT_FLOAT", "tensorShape": {"dim": [{"size": "128"}]}}}}}, {"name": "model_124/tf.math.add_199/Add/y", "op": "Const", "attr": {"value": {"tensor": {"dtype": "DT_FLOAT", "tensorShape": {"dim": [{"size": "128"}]}}}, "dtype": {"type": "DT_FLOAT"}}}, {"name": "model_124/tf.math.add_196/Add/y", "op": "Const", "attr": {"value": {"tensor": {"dtype": "DT_FLOAT", "tensorShape": {"dim": [{"size": "128"}]}}}, "dtype": {"type": "DT_FLOAT"}}}, {"name": "model_124/tf.strided_slice_31/StridedSlice/begin", "op": "Const", "attr": {"value": {"tensor": {"dtype": "DT_INT32", "tensorShape": {"dim": [{"size": "4"}]}}}, "dtype": {"type": "DT_INT32"}}}, {"name": "model_124/tf.strided_slice_31/StridedSlice/end", "op": "Const", "attr": {"value": {"tensor": {"dtype": "DT_INT32", "tensorShape": {"dim": [{"size": "4"}]}}}, "dtype": {"type": "DT_INT32"}}}, {"name": "model_124/tf.strided_slice_31/ones_like", "op": "Const", "attr": {"dtype": {"type": "DT_INT32"}, "value": {"tensor": {"dtype": "DT_INT32", "tensorShape": {"dim": [{"size": "4"}]}}}}}, {"name": "model_124/tf.strided_slice_32/StridedSlice/begin", "op": "Const", "attr": {"value": {"tensor": {"dtype": "DT_INT32", "tensorShape": {"dim": [{"size": "4"}]}}}, "dtype": {"type": "DT_INT32"}}}, {"name": "model_124/tf.strided_slice_32/StridedSlice/end", "op": "Const", "attr": {"dtype": {"type": "DT_INT32"}, "value": {"tensor": {"dtype": "DT_INT32", "tensorShape": {"dim": [{"size": "4"}]}}}}}, {"name": "model_124/tf.strided_slice_32/ones_like", "op": "Const", "attr": {"dtype": {"type": "DT_INT32"}, "value": {"tensor": {"dtype": "DT_INT32", "tensorShape": {"dim": [{"size": "4"}]}}}}}, {"name": "model_124/tf.math.multiply_536/Mul/y", "op": "Const", "attr": {"value": {"tensor": {"dtype": "DT_FLOAT", "tensorShape": {"dim": [{"size": "1"}, {"size": "1"}, {"size": "1"}, {"size": "1"}]}}}, "dtype": {"type": "DT_FLOAT"}}}, {"name": "model_124/tf.reshape_41/Reshape/shape", "op": "Const", "attr": {"dtype": {"type": "DT_INT32"}, "value": {"tensor": {"dtype": "DT_INT32", "tensorShape": {"dim": [{"size": "4"}]}}}}}, {"name": "model_124/tf.compat.v1.transpose_95/transpose/perm", "op": "Const", "attr": {"dtype": {"type": "DT_INT32"}, "value": {"tensor": {"dtype": "DT_INT32", "tensorShape": {"dim": [{"size": "4"}]}}}}}, {"name": "model_124/tf.nn.convolution_273/convolution/filter", "op": "Const", "attr": {"dtype": {"type": "DT_FLOAT"}, "value": {"tensor": {"dtype": "DT_FLOAT", "tensorShape": {"dim": [{"size": "3"}, {"size": "3"}, {"size": "1"}, {"size": "1"}]}}}}}, {"name": "model_124/tf.nn.convolution_274/convolution/filter", "op": "Const", "attr": {"dtype": {"type": "DT_FLOAT"}, "value": {"tensor": {"dtype": "DT_FLOAT", "tensorShape": {"dim": [{"size": "3"}, {"size": "3"}, {"size": "1"}, {"size": "1"}]}}}}}, {"name": "model_124/tf.nn.convolution_275/convolution/filter", "op": "Const", "attr": {"value": {"tensor": {"dtype": "DT_FLOAT", "tensorShape": {"dim": [{"size": "3"}, {"size": "3"}, {"size": "1"}, {"size": "1"}]}}}, "dtype": {"type": "DT_FLOAT"}}}, {"name": "model_124/tf.nn.convolution_276/convolution/filter", "op": "Const", "attr": {"dtype": {"type": "DT_FLOAT"}, "value": {"tensor": {"dtype": "DT_FLOAT", "tensorShape": {"dim": [{"size": "3"}, {"size": "3"}, {"size": "1"}, {"size": "1"}]}}}}}, {"name": "model_124/tf.nn.convolution_277/convolution/filter", "op": "Const", "attr": {"value": {"tensor": {"dtype": "DT_FLOAT", "tensorShape": {"dim": [{"size": "3"}, {"size": "3"}, {"size": "1"}, {"size": "1"}]}}}, "dtype": {"type": "DT_FLOAT"}}}, {"name": "model_124/tf.nn.convolution_278/convolution/filter", "op": "Const", "attr": {"dtype": {"type": "DT_FLOAT"}, "value": {"tensor": {"dtype": "DT_FLOAT", "tensorShape": {"dim": [{"size": "3"}, {"size": "3"}, {"size": "1"}, {"size": "1"}]}}}}}, {"name": "model_124/tf.nn.convolution_279/convolution/filter", "op": "Const", "attr": {"value": {"tensor": {"dtype": "DT_FLOAT", "tensorShape": {"dim": [{"size": "3"}, {"size": "3"}, {"size": "1"}, {"size": "1"}]}}}, "dtype": {"type": "DT_FLOAT"}}}, {"name": "model_124/tf.nn.convolution_280/convolution/filter", "op": "Const", "attr": {"value": {"tensor": {"dtype": "DT_FLOAT", "tensorShape": {"dim": [{"size": "3"}, {"size": "3"}, {"size": "1"}, {"size": "1"}]}}}, "dtype": {"type": "DT_FLOAT"}}}, {"name": "model_124/tf.nn.convolution_281/convolution/filter", "op": "Const", "attr": {"dtype": {"type": "DT_FLOAT"}, "value": {"tensor": {"dtype": "DT_FLOAT", "tensorShape": {"dim": [{"size": "3"}, {"size": "3"}, {"size": "1"}, {"size": "1"}]}}}}}, {"name": "model_124/tf.nn.convolution_282/convolution/filter", "op": "Const", "attr": {"value": {"tensor": {"dtype": "DT_FLOAT", "tensorShape": {"dim": [{"size": "3"}, {"size": "3"}, {"size": "1"}, {"size": "1"}]}}}, "dtype": {"type": "DT_FLOAT"}}}, {"name": "model_124/tf.nn.convolution_283/convolution/filter", "op": "Const", "attr": {"dtype": {"type": "DT_FLOAT"}, "value": {"tensor": {"dtype": "DT_FLOAT", "tensorShape": {"dim": [{"size": "3"}, {"size": "3"}, {"size": "1"}, {"size": "1"}]}}}}}, {"name": "model_124/tf.nn.convolution_284/convolution/filter", "op": "Const", "attr": {"dtype": {"type": "DT_FLOAT"}, "value": {"tensor": {"dtype": "DT_FLOAT", "tensorShape": {"dim": [{"size": "3"}, {"size": "3"}, {"size": "1"}, {"size": "1"}]}}}}}, {"name": "model_124/tf.nn.convolution_285/convolution/filter", "op": "Const", "attr": {"dtype": {"type": "DT_FLOAT"}, "value": {"tensor": {"dtype": "DT_FLOAT", "tensorShape": {"dim": [{"size": "3"}, {"size": "3"}, {"size": "1"}, {"size": "1"}]}}}}}, {"name": "model_124/tf.nn.convolution_286/convolution/filter", "op": "Const", "attr": {"value": {"tensor": {"dtype": "DT_FLOAT", "tensorShape": {"dim": [{"size": "3"}, {"size": "3"}, {"size": "1"}, {"size": "1"}]}}}, "dtype": {"type": "DT_FLOAT"}}}, {"name": "model_124/tf.nn.convolution_287/convolution/filter", "op": "Const", "attr": {"value": {"tensor": {"dtype": "DT_FLOAT", "tensorShape": {"dim": [{"size": "3"}, {"size": "3"}, {"size": "1"}, {"size": "1"}]}}}, "dtype": {"type": "DT_FLOAT"}}}, {"name": "model_124/tf.nn.convolution_288/convolution/filter", "op": "Const", "attr": {"value": {"tensor": {"dtype": "DT_FLOAT", "tensorShape": {"dim": [{"size": "3"}, {"size": "3"}, {"size": "1"}, {"size": "1"}]}}}, "dtype": {"type": "DT_FLOAT"}}}, {"name": "model_124/tf.nn.convolution_289/convolution/filter", "op": "Const", "attr": {"value": {"tensor": {"dtype": "DT_FLOAT", "tensorShape": {"dim": [{"size": "3"}, {"size": "3"}, {"size": "1"}, {"size": "1"}]}}}, "dtype": {"type": "DT_FLOAT"}}}, {"name": "model_124/tf.nn.convolution_290/convolution/filter", "op": "Const", "attr": {"dtype": {"type": "DT_FLOAT"}, "value": {"tensor": {"dtype": "DT_FLOAT", "tensorShape": {"dim": [{"size": "3"}, {"size": "3"}, {"size": "1"}, {"size": "1"}]}}}}}, {"name": "model_124/tf.nn.convolution_291/convolution/filter", "op": "Const", "attr": {"value": {"tensor": {"dtype": "DT_FLOAT", "tensorShape": {"dim": [{"size": "3"}, {"size": "3"}, {"size": "1"}, {"size": "1"}]}}}, "dtype": {"type": "DT_FLOAT"}}}, {"name": "model_124/tf.nn.convolution_292/convolution/filter", "op": "Const", "attr": {"value": {"tensor": {"dtype": "DT_FLOAT", "tensorShape": {"dim": [{"size": "3"}, {"size": "3"}, {"size": "1"}, {"size": "1"}]}}}, "dtype": {"type": "DT_FLOAT"}}}, {"name": "model_124/tf.nn.convolution_293/convolution/filter", "op": "Const", "attr": {"value": {"tensor": {"dtype": "DT_FLOAT", "tensorShape": {"dim": [{"size": "3"}, {"size": "3"}, {"size": "1"}, {"size": "1"}]}}}, "dtype": {"type": "DT_FLOAT"}}}, {"name": "model_124/tf.nn.convolution_294/convolution/filter", "op": "Const", "attr": {"value": {"tensor": {"dtype": "DT_FLOAT", "tensorShape": {"dim": [{"size": "3"}, {"size": "3"}, {"size": "1"}, {"size": "1"}]}}}, "dtype": {"type": "DT_FLOAT"}}}, {"name": "model_124/tf.nn.convolution_295/convolution/filter", "op": "Const", "attr": {"dtype": {"type": "DT_FLOAT"}, "value": {"tensor": {"dtype": "DT_FLOAT", "tensorShape": {"dim": [{"size": "3"}, {"size": "3"}, {"size": "1"}, {"size": "1"}]}}}}}, {"name": "model_124/tf.nn.convolution_296/convolution/filter", "op": "Const", "attr": {"dtype": {"type": "DT_FLOAT"}, "value": {"tensor": {"dtype": "DT_FLOAT", "tensorShape": {"dim": [{"size": "3"}, {"size": "3"}, {"size": "1"}, {"size": "1"}]}}}}}, {"name": "model_124/tf.nn.convolution_297/convolution/filter", "op": "Const", "attr": {"value": {"tensor": {"dtype": "DT_FLOAT", "tensorShape": {"dim": [{"size": "3"}, {"size": "3"}, {"size": "1"}, {"size": "1"}]}}}, "dtype": {"type": "DT_FLOAT"}}}, {"name": "model_124/tf.nn.convolution_298/convolution/filter", "op": "Const", "attr": {"value": {"tensor": {"dtype": "DT_FLOAT", "tensorShape": {"dim": [{"size": "3"}, {"size": "3"}, {"size": "1"}, {"size": "1"}]}}}, "dtype": {"type": "DT_FLOAT"}}}, {"name": "model_124/tf.nn.convolution_299/convolution/filter", "op": "Const", "attr": {"value": {"tensor": {"dtype": "DT_FLOAT", "tensorShape": {"dim": [{"size": "3"}, {"size": "3"}, {"size": "1"}, {"size": "1"}]}}}, "dtype": {"type": "DT_FLOAT"}}}, {"name": "model_124/tf.nn.convolution_300/convolution/filter", "op": "Const", "attr": {"value": {"tensor": {"dtype": "DT_FLOAT", "tensorShape": {"dim": [{"size": "3"}, {"size": "3"}, {"size": "1"}, {"size": "1"}]}}}, "dtype": {"type": "DT_FLOAT"}}}, {"name": "model_124/tf.nn.convolution_301/convolution/filter", "op": "Const", "attr": {"dtype": {"type": "DT_FLOAT"}, "value": {"tensor": {"dtype": "DT_FLOAT", "tensorShape": {"dim": [{"size": "3"}, {"size": "3"}, {"size": "1"}, {"size": "1"}]}}}}}, {"name": "model_124/tf.nn.convolution_302/convolution/filter", "op": "Const", "attr": {"value": {"tensor": {"dtype": "DT_FLOAT", "tensorShape": {"dim": [{"size": "3"}, {"size": "3"}, {"size": "1"}, {"size": "1"}]}}}, "dtype": {"type": "DT_FLOAT"}}}, {"name": "model_124/tf.nn.convolution_303/convolution/filter", "op": "Const", "attr": {"value": {"tensor": {"dtype": "DT_FLOAT", "tensorShape": {"dim": [{"size": "3"}, {"size": "3"}, {"size": "1"}, {"size": "1"}]}}}, "dtype": {"type": "DT_FLOAT"}}}, {"name": "model_124/tf.nn.convolution_304/convolution/filter", "op": "Const", "attr": {"dtype": {"type": "DT_FLOAT"}, "value": {"tensor": {"dtype": "DT_FLOAT", "tensorShape": {"dim": [{"size": "3"}, {"size": "3"}, {"size": "1"}, {"size": "1"}]}}}}}, {"name": "model_124/tf.nn.convolution_305/convolution/filter", "op": "Const", "attr": {"dtype": {"type": "DT_FLOAT"}, "value": {"tensor": {"dtype": "DT_FLOAT", "tensorShape": {"dim": [{"size": "3"}, {"size": "3"}, {"size": "1"}, {"size": "1"}]}}}}}, {"name": "model_124/tf.nn.convolution_306/convolution/filter", "op": "Const", "attr": {"value": {"tensor": {"dtype": "DT_FLOAT", "tensorShape": {"dim": [{"size": "3"}, {"size": "3"}, {"size": "1"}, {"size": "1"}]}}}, "dtype": {"type": "DT_FLOAT"}}}, {"name": "model_124/tf.nn.convolution_307/convolution/filter", "op": "Const", "attr": {"dtype": {"type": "DT_FLOAT"}, "value": {"tensor": {"dtype": "DT_FLOAT", "tensorShape": {"dim": [{"size": "3"}, {"size": "3"}, {"size": "1"}, {"size": "1"}]}}}}}, {"name": "model_124/tf.nn.convolution_308/convolution/filter", "op": "Const", "attr": {"value": {"tensor": {"dtype": "DT_FLOAT", "tensorShape": {"dim": [{"size": "3"}, {"size": "3"}, {"size": "1"}, {"size": "1"}]}}}, "dtype": {"type": "DT_FLOAT"}}}, {"name": "model_124/tf.nn.convolution_309/convolution/filter", "op": "Const", "attr": {"value": {"tensor": {"dtype": "DT_FLOAT", "tensorShape": {"dim": [{"size": "3"}, {"size": "3"}, {"size": "1"}, {"size": "1"}]}}}, "dtype": {"type": "DT_FLOAT"}}}, {"name": "model_124/tf.nn.convolution_310/convolution/filter", "op": "Const", "attr": {"value": {"tensor": {"dtype": "DT_FLOAT", "tensorShape": {"dim": [{"size": "3"}, {"size": "3"}, {"size": "1"}, {"size": "1"}]}}}, "dtype": {"type": "DT_FLOAT"}}}, {"name": "model_124/tf.nn.convolution_311/convolution/filter", "op": "Const", "attr": {"dtype": {"type": "DT_FLOAT"}, "value": {"tensor": {"dtype": "DT_FLOAT", "tensorShape": {"dim": [{"size": "3"}, {"size": "3"}, {"size": "1"}, {"size": "1"}]}}}}}, {"name": "model_124/tf.nn.convolution_312/convolution/filter", "op": "Const", "attr": {"dtype": {"type": "DT_FLOAT"}, "value": {"tensor": {"dtype": "DT_FLOAT", "tensorShape": {"dim": [{"size": "3"}, {"size": "3"}, {"size": "1"}, {"size": "1"}]}}}}}, {"name": "model_124/tf.nn.convolution_313/convolution/filter", "op": "Const", "attr": {"value": {"tensor": {"dtype": "DT_FLOAT", "tensorShape": {"dim": [{"size": "3"}, {"size": "3"}, {"size": "1"}, {"size": "1"}]}}}, "dtype": {"type": "DT_FLOAT"}}}, {"name": "model_124/tf.nn.convolution_314/convolution/filter", "op": "Const", "attr": {"value": {"tensor": {"dtype": "DT_FLOAT", "tensorShape": {"dim": [{"size": "3"}, {"size": "3"}, {"size": "1"}, {"size": "1"}]}}}, "dtype": {"type": "DT_FLOAT"}}}, {"name": "model_124/tf.nn.convolution_315/convolution/filter", "op": "Const", "attr": {"dtype": {"type": "DT_FLOAT"}, "value": {"tensor": {"dtype": "DT_FLOAT", "tensorShape": {"dim": [{"size": "3"}, {"size": "3"}, {"size": "1"}, {"size": "1"}]}}}}}, {"name": "model_124/tf.nn.convolution_316/convolution/filter", "op": "Const", "attr": {"value": {"tensor": {"dtype": "DT_FLOAT", "tensorShape": {"dim": [{"size": "3"}, {"size": "3"}, {"size": "1"}, {"size": "1"}]}}}, "dtype": {"type": "DT_FLOAT"}}}, {"name": "model_124/tf.nn.convolution_317/convolution/filter", "op": "Const", "attr": {"dtype": {"type": "DT_FLOAT"}, "value": {"tensor": {"dtype": "DT_FLOAT", "tensorShape": {"dim": [{"size": "3"}, {"size": "3"}, {"size": "1"}, {"size": "1"}]}}}}}, {"name": "model_124/tf.nn.convolution_318/convolution/filter", "op": "Const", "attr": {"value": {"tensor": {"dtype": "DT_FLOAT", "tensorShape": {"dim": [{"size": "3"}, {"size": "3"}, {"size": "1"}, {"size": "1"}]}}}, "dtype": {"type": "DT_FLOAT"}}}, {"name": "model_124/tf.nn.convolution_319/convolution/filter", "op": "Const", "attr": {"dtype": {"type": "DT_FLOAT"}, "value": {"tensor": {"dtype": "DT_FLOAT", "tensorShape": {"dim": [{"size": "3"}, {"size": "3"}, {"size": "1"}, {"size": "1"}]}}}}}, {"name": "model_124/tf.nn.convolution_320/convolution/filter", "op": "Const", "attr": {"dtype": {"type": "DT_FLOAT"}, "value": {"tensor": {"dtype": "DT_FLOAT", "tensorShape": {"dim": [{"size": "3"}, {"size": "3"}, {"size": "1"}, {"size": "1"}]}}}}}, {"name": "model_124/tf.nn.convolution_321/convolution/filter", "op": "Const", "attr": {"value": {"tensor": {"dtype": "DT_FLOAT", "tensorShape": {"dim": [{"size": "3"}, {"size": "3"}, {"size": "1"}, {"size": "1"}]}}}, "dtype": {"type": "DT_FLOAT"}}}, {"name": "model_124/tf.nn.convolution_322/convolution/filter", "op": "Const", "attr": {"value": {"tensor": {"dtype": "DT_FLOAT", "tensorShape": {"dim": [{"size": "3"}, {"size": "3"}, {"size": "1"}, {"size": "1"}]}}}, "dtype": {"type": "DT_FLOAT"}}}, {"name": "model_124/tf.nn.convolution_323/convolution/filter", "op": "Const", "attr": {"value": {"tensor": {"dtype": "DT_FLOAT", "tensorShape": {"dim": [{"size": "3"}, {"size": "3"}, {"size": "1"}, {"size": "1"}]}}}, "dtype": {"type": "DT_FLOAT"}}}, {"name": "model_124/tf.nn.convolution_324/convolution/filter", "op": "Const", "attr": {"dtype": {"type": "DT_FLOAT"}, "value": {"tensor": {"dtype": "DT_FLOAT", "tensorShape": {"dim": [{"size": "3"}, {"size": "3"}, {"size": "1"}, {"size": "1"}]}}}}}, {"name": "model_124/tf.nn.convolution_325/convolution/filter", "op": "Const", "attr": {"value": {"tensor": {"dtype": "DT_FLOAT", "tensorShape": {"dim": [{"size": "3"}, {"size": "3"}, {"size": "1"}, {"size": "1"}]}}}, "dtype": {"type": "DT_FLOAT"}}}, {"name": "model_124/tf.nn.convolution_326/convolution/filter", "op": "Const", "attr": {"value": {"tensor": {"dtype": "DT_FLOAT", "tensorShape": {"dim": [{"size": "3"}, {"size": "3"}, {"size": "1"}, {"size": "1"}]}}}, "dtype": {"type": "DT_FLOAT"}}}, {"name": "model_124/tf.nn.convolution_327/convolution/filter", "op": "Const", "attr": {"value": {"tensor": {"dtype": "DT_FLOAT", "tensorShape": {"dim": [{"size": "3"}, {"size": "3"}, {"size": "1"}, {"size": "1"}]}}}, "dtype": {"type": "DT_FLOAT"}}}, {"name": "model_124/tf.nn.convolution_328/convolution/filter", "op": "Const", "attr": {"value": {"tensor": {"dtype": "DT_FLOAT", "tensorShape": {"dim": [{"size": "3"}, {"size": "3"}, {"size": "1"}, {"size": "1"}]}}}, "dtype": {"type": "DT_FLOAT"}}}, {"name": "model_124/tf.nn.convolution_329/convolution/filter", "op": "Const", "attr": {"value": {"tensor": {"dtype": "DT_FLOAT", "tensorShape": {"dim": [{"size": "3"}, {"size": "3"}, {"size": "1"}, {"size": "1"}]}}}, "dtype": {"type": "DT_FLOAT"}}}, {"name": "model_124/tf.nn.convolution_330/convolution/filter", "op": "Const", "attr": {"dtype": {"type": "DT_FLOAT"}, "value": {"tensor": {"dtype": "DT_FLOAT", "tensorShape": {"dim": [{"size": "3"}, {"size": "3"}, {"size": "1"}, {"size": "1"}]}}}}}, {"name": "model_124/tf.nn.convolution_331/convolution/filter", "op": "Const", "attr": {"value": {"tensor": {"dtype": "DT_FLOAT", "tensorShape": {"dim": [{"size": "3"}, {"size": "3"}, {"size": "1"}, {"size": "1"}]}}}, "dtype": {"type": "DT_FLOAT"}}}, {"name": "model_124/tf.nn.convolution_332/convolution/filter", "op": "Const", "attr": {"value": {"tensor": {"dtype": "DT_FLOAT", "tensorShape": {"dim": [{"size": "3"}, {"size": "3"}, {"size": "1"}, {"size": "1"}]}}}, "dtype": {"type": "DT_FLOAT"}}}, {"name": "model_124/tf.nn.convolution_333/convolution/filter", "op": "Const", "attr": {"dtype": {"type": "DT_FLOAT"}, "value": {"tensor": {"dtype": "DT_FLOAT", "tensorShape": {"dim": [{"size": "3"}, {"size": "3"}, {"size": "1"}, {"size": "1"}]}}}}}, {"name": "model_124/tf.nn.convolution_334/convolution/filter", "op": "Const", "attr": {"value": {"tensor": {"dtype": "DT_FLOAT", "tensorShape": {"dim": [{"size": "3"}, {"size": "3"}, {"size": "1"}, {"size": "1"}]}}}, "dtype": {"type": "DT_FLOAT"}}}, {"name": "model_124/tf.nn.convolution_335/convolution/filter", "op": "Const", "attr": {"dtype": {"type": "DT_FLOAT"}, "value": {"tensor": {"dtype": "DT_FLOAT", "tensorShape": {"dim": [{"size": "3"}, {"size": "3"}, {"size": "1"}, {"size": "1"}]}}}}}, {"name": "model_124/tf.nn.convolution_336/convolution/filter", "op": "Const", "attr": {"dtype": {"type": "DT_FLOAT"}, "value": {"tensor": {"dtype": "DT_FLOAT", "tensorShape": {"dim": [{"size": "3"}, {"size": "3"}, {"size": "1"}, {"size": "1"}]}}}}}, {"name": "model_124/tf.nn.convolution_337/convolution/filter", "op": "Const", "attr": {"value": {"tensor": {"dtype": "DT_FLOAT", "tensorShape": {"dim": [{"size": "3"}, {"size": "3"}, {"size": "1"}, {"size": "1"}]}}}, "dtype": {"type": "DT_FLOAT"}}}, {"name": "model_124/tf.nn.convolution_338/convolution/filter", "op": "Const", "attr": {"dtype": {"type": "DT_FLOAT"}, "value": {"tensor": {"dtype": "DT_FLOAT", "tensorShape": {"dim": [{"size": "3"}, {"size": "3"}, {"size": "1"}, {"size": "1"}]}}}}}, {"name": "model_124/tf.nn.convolution_339/convolution/filter", "op": "Const", "attr": {"dtype": {"type": "DT_FLOAT"}, "value": {"tensor": {"dtype": "DT_FLOAT", "tensorShape": {"dim": [{"size": "3"}, {"size": "3"}, {"size": "1"}, {"size": "1"}]}}}}}, {"name": "model_124/tf.nn.convolution_340/convolution/filter", "op": "Const", "attr": {"value": {"tensor": {"dtype": "DT_FLOAT", "tensorShape": {"dim": [{"size": "3"}, {"size": "3"}, {"size": "1"}, {"size": "1"}]}}}, "dtype": {"type": "DT_FLOAT"}}}, {"name": "model_124/tf.nn.convolution_341/convolution/filter", "op": "Const", "attr": {"value": {"tensor": {"dtype": "DT_FLOAT", "tensorShape": {"dim": [{"size": "3"}, {"size": "3"}, {"size": "1"}, {"size": "1"}]}}}, "dtype": {"type": "DT_FLOAT"}}}, {"name": "model_124/tf.nn.convolution_342/convolution/filter", "op": "Const", "attr": {"value": {"tensor": {"dtype": "DT_FLOAT", "tensorShape": {"dim": [{"size": "3"}, {"size": "3"}, {"size": "1"}, {"size": "1"}]}}}, "dtype": {"type": "DT_FLOAT"}}}, {"name": "model_124/tf.nn.convolution_343/convolution/filter", "op": "Const", "attr": {"dtype": {"type": "DT_FLOAT"}, "value": {"tensor": {"dtype": "DT_FLOAT", "tensorShape": {"dim": [{"size": "3"}, {"size": "3"}, {"size": "1"}, {"size": "1"}]}}}}}, {"name": "model_124/tf.nn.convolution_344/convolution/filter", "op": "Const", "attr": {"dtype": {"type": "DT_FLOAT"}, "value": {"tensor": {"dtype": "DT_FLOAT", "tensorShape": {"dim": [{"size": "3"}, {"size": "3"}, {"size": "1"}, {"size": "1"}]}}}}}, {"name": "model_124/tf.nn.convolution_345/convolution/filter", "op": "Const", "attr": {"dtype": {"type": "DT_FLOAT"}, "value": {"tensor": {"dtype": "DT_FLOAT", "tensorShape": {"dim": [{"size": "3"}, {"size": "3"}, {"size": "1"}, {"size": "1"}]}}}}}, {"name": "model_124/tf.nn.convolution_346/convolution/filter", "op": "Const", "attr": {"dtype": {"type": "DT_FLOAT"}, "value": {"tensor": {"dtype": "DT_FLOAT", "tensorShape": {"dim": [{"size": "3"}, {"size": "3"}, {"size": "1"}, {"size": "1"}]}}}}}, {"name": "model_124/tf.nn.convolution_347/convolution/filter", "op": "Const", "attr": {"dtype": {"type": "DT_FLOAT"}, "value": {"tensor": {"dtype": "DT_FLOAT", "tensorShape": {"dim": [{"size": "3"}, {"size": "3"}, {"size": "1"}, {"size": "1"}]}}}}}, {"name": "model_124/tf.nn.convolution_348/convolution/filter", "op": "Const", "attr": {"value": {"tensor": {"dtype": "DT_FLOAT", "tensorShape": {"dim": [{"size": "3"}, {"size": "3"}, {"size": "1"}, {"size": "1"}]}}}, "dtype": {"type": "DT_FLOAT"}}}, {"name": "model_124/tf.nn.convolution_349/convolution/filter", "op": "Const", "attr": {"value": {"tensor": {"dtype": "DT_FLOAT", "tensorShape": {"dim": [{"size": "3"}, {"size": "3"}, {"size": "1"}, {"size": "1"}]}}}, "dtype": {"type": "DT_FLOAT"}}}, {"name": "model_124/tf.nn.convolution_350/convolution/filter", "op": "Const", "attr": {"value": {"tensor": {"dtype": "DT_FLOAT", "tensorShape": {"dim": [{"size": "3"}, {"size": "3"}, {"size": "1"}, {"size": "1"}]}}}, "dtype": {"type": "DT_FLOAT"}}}, {"name": "model_124/tf.nn.convolution_351/convolution/filter", "op": "Const", "attr": {"dtype": {"type": "DT_FLOAT"}, "value": {"tensor": {"dtype": "DT_FLOAT", "tensorShape": {"dim": [{"size": "3"}, {"size": "3"}, {"size": "1"}, {"size": "1"}]}}}}}, {"name": "model_124/tf.nn.convolution_352/convolution/filter", "op": "Const", "attr": {"value": {"tensor": {"dtype": "DT_FLOAT", "tensorShape": {"dim": [{"size": "3"}, {"size": "3"}, {"size": "1"}, {"size": "1"}]}}}, "dtype": {"type": "DT_FLOAT"}}}, {"name": "model_124/tf.nn.convolution_353/convolution/filter", "op": "Const", "attr": {"dtype": {"type": "DT_FLOAT"}, "value": {"tensor": {"dtype": "DT_FLOAT", "tensorShape": {"dim": [{"size": "3"}, {"size": "3"}, {"size": "1"}, {"size": "1"}]}}}}}, {"name": "model_124/tf.nn.convolution_354/convolution/filter", "op": "Const", "attr": {"value": {"tensor": {"dtype": "DT_FLOAT", "tensorShape": {"dim": [{"size": "3"}, {"size": "3"}, {"size": "1"}, {"size": "1"}]}}}, "dtype": {"type": "DT_FLOAT"}}}, {"name": "model_124/tf.nn.convolution_355/convolution/filter", "op": "Const", "attr": {"value": {"tensor": {"dtype": "DT_FLOAT", "tensorShape": {"dim": [{"size": "3"}, {"size": "3"}, {"size": "1"}, {"size": "1"}]}}}, "dtype": {"type": "DT_FLOAT"}}}, {"name": "model_124/tf.nn.convolution_356/convolution/filter", "op": "Const", "attr": {"dtype": {"type": "DT_FLOAT"}, "value": {"tensor": {"dtype": "DT_FLOAT", "tensorShape": {"dim": [{"size": "3"}, {"size": "3"}, {"size": "1"}, {"size": "1"}]}}}}}, {"name": "model_124/tf.nn.convolution_357/convolution/filter", "op": "Const", "attr": {"value": {"tensor": {"dtype": "DT_FLOAT", "tensorShape": {"dim": [{"size": "3"}, {"size": "3"}, {"size": "1"}, {"size": "1"}]}}}, "dtype": {"type": "DT_FLOAT"}}}, {"name": "model_124/tf.nn.convolution_358/convolution/filter", "op": "Const", "attr": {"dtype": {"type": "DT_FLOAT"}, "value": {"tensor": {"dtype": "DT_FLOAT", "tensorShape": {"dim": [{"size": "3"}, {"size": "3"}, {"size": "1"}, {"size": "1"}]}}}}}, {"name": "model_124/tf.nn.convolution_359/convolution/filter", "op": "Const", "attr": {"value": {"tensor": {"dtype": "DT_FLOAT", "tensorShape": {"dim": [{"size": "3"}, {"size": "3"}, {"size": "1"}, {"size": "1"}]}}}, "dtype": {"type": "DT_FLOAT"}}}, {"name": "model_124/tf.nn.convolution_360/convolution/filter", "op": "Const", "attr": {"dtype": {"type": "DT_FLOAT"}, "value": {"tensor": {"dtype": "DT_FLOAT", "tensorShape": {"dim": [{"size": "3"}, {"size": "3"}, {"size": "1"}, {"size": "1"}]}}}}}, {"name": "model_124/tf.nn.convolution_361/convolution/filter", "op": "Const", "attr": {"value": {"tensor": {"dtype": "DT_FLOAT", "tensorShape": {"dim": [{"size": "3"}, {"size": "3"}, {"size": "1"}, {"size": "1"}]}}}, "dtype": {"type": "DT_FLOAT"}}}, {"name": "model_124/tf.nn.convolution_362/convolution/filter", "op": "Const", "attr": {"value": {"tensor": {"dtype": "DT_FLOAT", "tensorShape": {"dim": [{"size": "3"}, {"size": "3"}, {"size": "1"}, {"size": "1"}]}}}, "dtype": {"type": "DT_FLOAT"}}}, {"name": "model_124/tf.nn.convolution_363/convolution/filter", "op": "Const", "attr": {"dtype": {"type": "DT_FLOAT"}, "value": {"tensor": {"dtype": "DT_FLOAT", "tensorShape": {"dim": [{"size": "3"}, {"size": "3"}, {"size": "1"}, {"size": "1"}]}}}}}, {"name": "model_124/tf.nn.convolution_364/convolution/filter", "op": "Const", "attr": {"dtype": {"type": "DT_FLOAT"}, "value": {"tensor": {"dtype": "DT_FLOAT", "tensorShape": {"dim": [{"size": "3"}, {"size": "3"}, {"size": "1"}, {"size": "1"}]}}}}}, {"name": "model_124/tf.nn.convolution_365/convolution/filter", "op": "Const", "attr": {"value": {"tensor": {"dtype": "DT_FLOAT", "tensorShape": {"dim": [{"size": "3"}, {"size": "3"}, {"size": "1"}, {"size": "1"}]}}}, "dtype": {"type": "DT_FLOAT"}}}, {"name": "model_124/tf.nn.convolution_366/convolution/filter", "op": "Const", "attr": {"value": {"tensor": {"dtype": "DT_FLOAT", "tensorShape": {"dim": [{"size": "3"}, {"size": "3"}, {"size": "1"}, {"size": "1"}]}}}, "dtype": {"type": "DT_FLOAT"}}}, {"name": "model_124/tf.nn.convolution_367/convolution/filter", "op": "Const", "attr": {"value": {"tensor": {"dtype": "DT_FLOAT", "tensorShape": {"dim": [{"size": "3"}, {"size": "3"}, {"size": "1"}, {"size": "1"}]}}}, "dtype": {"type": "DT_FLOAT"}}}, {"name": "model_124/tf.nn.convolution_368/convolution/filter", "op": "Const", "attr": {"dtype": {"type": "DT_FLOAT"}, "value": {"tensor": {"dtype": "DT_FLOAT", "tensorShape": {"dim": [{"size": "3"}, {"size": "3"}, {"size": "1"}, {"size": "1"}]}}}}}, {"name": "model_124/tf.nn.convolution_369/convolution/filter", "op": "Const", "attr": {"dtype": {"type": "DT_FLOAT"}, "value": {"tensor": {"dtype": "DT_FLOAT", "tensorShape": {"dim": [{"size": "3"}, {"size": "3"}, {"size": "1"}, {"size": "1"}]}}}}}, {"name": "model_124/tf.nn.convolution_370/convolution/filter", "op": "Const", "attr": {"value": {"tensor": {"dtype": "DT_FLOAT", "tensorShape": {"dim": [{"size": "3"}, {"size": "3"}, {"size": "1"}, {"size": "1"}]}}}, "dtype": {"type": "DT_FLOAT"}}}, {"name": "model_124/tf.nn.convolution_371/convolution/filter", "op": "Const", "attr": {"dtype": {"type": "DT_FLOAT"}, "value": {"tensor": {"dtype": "DT_FLOAT", "tensorShape": {"dim": [{"size": "3"}, {"size": "3"}, {"size": "1"}, {"size": "1"}]}}}}}, {"name": "model_124/tf.nn.convolution_372/convolution/filter", "op": "Const", "attr": {"value": {"tensor": {"dtype": "DT_FLOAT", "tensorShape": {"dim": [{"size": "3"}, {"size": "3"}, {"size": "1"}, {"size": "1"}]}}}, "dtype": {"type": "DT_FLOAT"}}}, {"name": "model_124/tf.nn.convolution_373/convolution/filter", "op": "Const", "attr": {"dtype": {"type": "DT_FLOAT"}, "value": {"tensor": {"dtype": "DT_FLOAT", "tensorShape": {"dim": [{"size": "3"}, {"size": "3"}, {"size": "1"}, {"size": "1"}]}}}}}, {"name": "model_124/tf.nn.convolution_374/convolution/filter", "op": "Const", "attr": {"value": {"tensor": {"dtype": "DT_FLOAT", "tensorShape": {"dim": [{"size": "3"}, {"size": "3"}, {"size": "1"}, {"size": "1"}]}}}, "dtype": {"type": "DT_FLOAT"}}}, {"name": "model_124/tf.nn.convolution_375/convolution/filter", "op": "Const", "attr": {"dtype": {"type": "DT_FLOAT"}, "value": {"tensor": {"dtype": "DT_FLOAT", "tensorShape": {"dim": [{"size": "3"}, {"size": "3"}, {"size": "1"}, {"size": "1"}]}}}}}, {"name": "model_124/tf.nn.convolution_376/convolution/filter", "op": "Const", "attr": {"dtype": {"type": "DT_FLOAT"}, "value": {"tensor": {"dtype": "DT_FLOAT", "tensorShape": {"dim": [{"size": "3"}, {"size": "3"}, {"size": "1"}, {"size": "1"}]}}}}}, {"name": "model_124/tf.nn.convolution_377/convolution/filter", "op": "Const", "attr": {"dtype": {"type": "DT_FLOAT"}, "value": {"tensor": {"dtype": "DT_FLOAT", "tensorShape": {"dim": [{"size": "3"}, {"size": "3"}, {"size": "1"}, {"size": "1"}]}}}}}, {"name": "model_124/tf.nn.convolution_378/convolution/filter", "op": "Const", "attr": {"value": {"tensor": {"dtype": "DT_FLOAT", "tensorShape": {"dim": [{"size": "3"}, {"size": "3"}, {"size": "1"}, {"size": "1"}]}}}, "dtype": {"type": "DT_FLOAT"}}}, {"name": "model_124/tf.nn.convolution_379/convolution/filter", "op": "Const", "attr": {"value": {"tensor": {"dtype": "DT_FLOAT", "tensorShape": {"dim": [{"size": "3"}, {"size": "3"}, {"size": "1"}, {"size": "1"}]}}}, "dtype": {"type": "DT_FLOAT"}}}, {"name": "model_124/tf.nn.convolution_380/convolution/filter", "op": "Const", "attr": {"dtype": {"type": "DT_FLOAT"}, "value": {"tensor": {"dtype": "DT_FLOAT", "tensorShape": {"dim": [{"size": "3"}, {"size": "3"}, {"size": "1"}, {"size": "1"}]}}}}}, {"name": "model_124/tf.nn.convolution_381/convolution/filter", "op": "Const", "attr": {"value": {"tensor": {"dtype": "DT_FLOAT", "tensorShape": {"dim": [{"size": "3"}, {"size": "3"}, {"size": "1"}, {"size": "1"}]}}}, "dtype": {"type": "DT_FLOAT"}}}, {"name": "model_124/tf.nn.convolution_382/convolution/filter", "op": "Const", "attr": {"value": {"tensor": {"dtype": "DT_FLOAT", "tensorShape": {"dim": [{"size": "3"}, {"size": "3"}, {"size": "1"}, {"size": "1"}]}}}, "dtype": {"type": "DT_FLOAT"}}}, {"name": "model_124/tf.nn.convolution_383/convolution/filter", "op": "Const", "attr": {"value": {"tensor": {"dtype": "DT_FLOAT", "tensorShape": {"dim": [{"size": "3"}, {"size": "3"}, {"size": "1"}, {"size": "1"}]}}}, "dtype": {"type": "DT_FLOAT"}}}, {"name": "model_124/tf.nn.convolution_384/convolution/filter", "op": "Const", "attr": {"dtype": {"type": "DT_FLOAT"}, "value": {"tensor": {"dtype": "DT_FLOAT", "tensorShape": {"dim": [{"size": "3"}, {"size": "3"}, {"size": "1"}, {"size": "1"}]}}}}}, {"name": "model_124/tf.nn.convolution_385/convolution/filter", "op": "Const", "attr": {"dtype": {"type": "DT_FLOAT"}, "value": {"tensor": {"dtype": "DT_FLOAT", "tensorShape": {"dim": [{"size": "3"}, {"size": "3"}, {"size": "1"}, {"size": "1"}]}}}}}, {"name": "model_124/tf.nn.convolution_386/convolution/filter", "op": "Const", "attr": {"value": {"tensor": {"dtype": "DT_FLOAT", "tensorShape": {"dim": [{"size": "3"}, {"size": "3"}, {"size": "1"}, {"size": "1"}]}}}, "dtype": {"type": "DT_FLOAT"}}}, {"name": "model_124/tf.nn.convolution_387/convolution/filter", "op": "Const", "attr": {"value": {"tensor": {"dtype": "DT_FLOAT", "tensorShape": {"dim": [{"size": "3"}, {"size": "3"}, {"size": "1"}, {"size": "1"}]}}}, "dtype": {"type": "DT_FLOAT"}}}, {"name": "model_124/tf.nn.convolution_388/convolution/filter", "op": "Const", "attr": {"value": {"tensor": {"dtype": "DT_FLOAT", "tensorShape": {"dim": [{"size": "3"}, {"size": "3"}, {"size": "1"}, {"size": "1"}]}}}, "dtype": {"type": "DT_FLOAT"}}}, {"name": "model_124/tf.nn.convolution_389/convolution/filter", "op": "Const", "attr": {"dtype": {"type": "DT_FLOAT"}, "value": {"tensor": {"dtype": "DT_FLOAT", "tensorShape": {"dim": [{"size": "3"}, {"size": "3"}, {"size": "1"}, {"size": "1"}]}}}}}, {"name": "model_124/tf.nn.convolution_390/convolution/filter", "op": "Const", "attr": {"dtype": {"type": "DT_FLOAT"}, "value": {"tensor": {"dtype": "DT_FLOAT", "tensorShape": {"dim": [{"size": "3"}, {"size": "3"}, {"size": "1"}, {"size": "1"}]}}}}}, {"name": "model_124/tf.nn.convolution_391/convolution/filter", "op": "Const", "attr": {"dtype": {"type": "DT_FLOAT"}, "value": {"tensor": {"dtype": "DT_FLOAT", "tensorShape": {"dim": [{"size": "3"}, {"size": "3"}, {"size": "1"}, {"size": "1"}]}}}}}, {"name": "model_124/tf.nn.convolution_392/convolution/filter", "op": "Const", "attr": {"value": {"tensor": {"dtype": "DT_FLOAT", "tensorShape": {"dim": [{"size": "3"}, {"size": "3"}, {"size": "1"}, {"size": "1"}]}}}, "dtype": {"type": "DT_FLOAT"}}}, {"name": "model_124/tf.nn.convolution_393/convolution/filter", "op": "Const", "attr": {"dtype": {"type": "DT_FLOAT"}, "value": {"tensor": {"dtype": "DT_FLOAT", "tensorShape": {"dim": [{"size": "3"}, {"size": "3"}, {"size": "1"}, {"size": "1"}]}}}}}, {"name": "model_124/tf.nn.convolution_394/convolution/filter", "op": "Const", "attr": {"value": {"tensor": {"dtype": "DT_FLOAT", "tensorShape": {"dim": [{"size": "3"}, {"size": "3"}, {"size": "1"}, {"size": "1"}]}}}, "dtype": {"type": "DT_FLOAT"}}}, {"name": "model_124/tf.nn.convolution_395/convolution/filter", "op": "Const", "attr": {"dtype": {"type": "DT_FLOAT"}, "value": {"tensor": {"dtype": "DT_FLOAT", "tensorShape": {"dim": [{"size": "3"}, {"size": "3"}, {"size": "1"}, {"size": "1"}]}}}}}, {"name": "model_124/tf.nn.convolution_396/convolution/filter", "op": "Const", "attr": {"value": {"tensor": {"dtype": "DT_FLOAT", "tensorShape": {"dim": [{"size": "3"}, {"size": "3"}, {"size": "1"}, {"size": "1"}]}}}, "dtype": {"type": "DT_FLOAT"}}}, {"name": "model_124/tf.nn.convolution_397/convolution/filter", "op": "Const", "attr": {"value": {"tensor": {"dtype": "DT_FLOAT", "tensorShape": {"dim": [{"size": "3"}, {"size": "3"}, {"size": "1"}, {"size": "1"}]}}}, "dtype": {"type": "DT_FLOAT"}}}, {"name": "model_124/tf.nn.convolution_398/convolution/filter", "op": "Const", "attr": {"dtype": {"type": "DT_FLOAT"}, "value": {"tensor": {"dtype": "DT_FLOAT", "tensorShape": {"dim": [{"size": "3"}, {"size": "3"}, {"size": "1"}, {"size": "1"}]}}}}}, {"name": "model_124/tf.nn.convolution_399/convolution/filter", "op": "Const", "attr": {"value": {"tensor": {"dtype": "DT_FLOAT", "tensorShape": {"dim": [{"size": "3"}, {"size": "3"}, {"size": "1"}, {"size": "1"}]}}}, "dtype": {"type": "DT_FLOAT"}}}, {"name": "model_124/tf.split_3/split/split_dim", "op": "Const", "attr": {"value": {"tensor": {"dtype": "DT_INT32", "tensorShape": {}}}, "dtype": {"type": "DT_INT32"}}}, {"name": "model_124/tf.split_2/split/split_dim", "op": "Const", "attr": {"value": {"tensor": {"dtype": "DT_INT32", "tensorShape": {}}}, "dtype": {"type": "DT_INT32"}}}, {"name": "model_124/tf.strided_slice_29/ones_like/tensor", "op": "Const", "attr": {"value": {"tensor": {"dtype": "DT_INT64", "tensorShape": {"dim": [{"size": "4"}]}}}, "dtype": {"type": "DT_INT64"}}}, {"name": "model_124/tf.strided_slice_29/StridedSlice/end", "op": "Const", "attr": {"dtype": {"type": "DT_INT64"}, "value": {"tensor": {"dtype": "DT_INT64", "tensorShape": {"dim": [{"size": "4"}]}}}}}, {"name": "model_124/tf.strided_slice_29/ones_like", "op": "Const", "attr": {"value": {"tensor": {"dtype": "DT_INT64", "tensorShape": {"dim": [{"size": "4"}]}}}, "dtype": {"type": "DT_INT64"}}}, {"name": "model_124/tf.nn.convolution_261/convolution/filter", "op": "Const", "attr": {"value": {"tensor": {"dtype": "DT_FLOAT", "tensorShape": {"dim": [{"size": "1"}, {"size": "1"}, {"size": "128"}, {"size": "64"}]}}}, "dtype": {"type": "DT_FLOAT"}}}, {"name": "model_124/tf.math.add_180/Add/y", "op": "Const", "attr": {"value": {"tensor": {"dtype": "DT_FLOAT", "tensorShape": {"dim": [{"size": "64"}]}}}, "dtype": {"type": "DT_FLOAT"}}}, {"name": "model_124/tf.nn.convolution_263/convolution/filter", "op": "Const", "attr": {"value": {"tensor": {"dtype": "DT_FLOAT", "tensorShape": {"dim": [{"size": "3"}, {"size": "3"}, {"size": "64"}, {"size": "64"}]}}}, "dtype": {"type": "DT_FLOAT"}}}, {"name": "model_124/tf.math.add_182/Add/y", "op": "Const", "attr": {"dtype": {"type": "DT_FLOAT"}, "value": {"tensor": {"dtype": "DT_FLOAT", "tensorShape": {"dim": [{"size": "64"}]}}}}}, {"name": "model_124/tf.nn.convolution_264/convolution/filter", "op": "Const", "attr": {"value": {"tensor": {"dtype": "DT_FLOAT", "tensorShape": {"dim": [{"size": "3"}, {"size": "3"}, {"size": "64"}, {"size": "64"}]}}}, "dtype": {"type": "DT_FLOAT"}}}, {"name": "model_124/tf.math.add_183/Add/y", "op": "Const", "attr": {"dtype": {"type": "DT_FLOAT"}, "value": {"tensor": {"dtype": "DT_FLOAT", "tensorShape": {"dim": [{"size": "64"}]}}}}}, {"name": "model_124/tf.nn.convolution_265/convolution/filter", "op": "Const", "attr": {"value": {"tensor": {"dtype": "DT_FLOAT", "tensorShape": {"dim": [{"size": "3"}, {"size": "3"}, {"size": "64"}, {"size": "64"}]}}}, "dtype": {"type": "DT_FLOAT"}}}, {"name": "model_124/tf.math.add_186/Add/y", "op": "Const", "attr": {"dtype": {"type": "DT_FLOAT"}, "value": {"tensor": {"dtype": "DT_FLOAT", "tensorShape": {"dim": [{"size": "64"}]}}}}}, {"name": "model_124/tf.nn.convolution_266/convolution/filter", "op": "Const", "attr": {"dtype": {"type": "DT_FLOAT"}, "value": {"tensor": {"dtype": "DT_FLOAT", "tensorShape": {"dim": [{"size": "3"}, {"size": "3"}, {"size": "64"}, {"size": "64"}]}}}}}, {"name": "model_124/tf.math.add_187/Add/y", "op": "Const", "attr": {"value": {"tensor": {"dtype": "DT_FLOAT", "tensorShape": {"dim": [{"size": "64"}]}}}, "dtype": {"type": "DT_FLOAT"}}}, {"name": "model_124/tf.strided_slice_27/ones_like/tensor", "op": "Const", "attr": {"dtype": {"type": "DT_INT64"}, "value": {"tensor": {"dtype": "DT_INT64", "tensorShape": {"dim": [{"size": "4"}]}}}}}, {"name": "model_124/tf.strided_slice_27/StridedSlice/end", "op": "Const", "attr": {"value": {"tensor": {"dtype": "DT_INT64", "tensorShape": {"dim": [{"size": "4"}]}}}, "dtype": {"type": "DT_INT64"}}}, {"name": "model_124/tf.strided_slice_27/ones_like", "op": "Const", "attr": {"dtype": {"type": "DT_INT64"}, "value": {"tensor": {"dtype": "DT_INT64", "tensorShape": {"dim": [{"size": "4"}]}}}}}, {"name": "model_124/tf.nn.convolution_247/convolution/filter", "op": "Const", "attr": {"value": {"tensor": {"dtype": "DT_FLOAT", "tensorShape": {"dim": [{"size": "1"}, {"size": "1"}, {"size": "64"}, {"size": "32"}]}}}, "dtype": {"type": "DT_FLOAT"}}}, {"name": "model_124/tf.math.add_162/Add/y", "op": "Const", "attr": {"dtype": {"type": "DT_FLOAT"}, "value": {"tensor": {"dtype": "DT_FLOAT", "tensorShape": {"dim": [{"size": "32"}]}}}}}, {"name": "model_124/tf.nn.convolution_251/convolution/filter", "op": "Const", "attr": {"dtype": {"type": "DT_FLOAT"}, "value": {"tensor": {"dtype": "DT_FLOAT", "tensorShape": {"dim": [{"size": "3"}, {"size": "3"}, {"size": "32"}, {"size": "32"}]}}}}}, {"name": "model_124/tf.math.add_166/Add/y", "op": "Const", "attr": {"value": {"tensor": {"dtype": "DT_FLOAT", "tensorShape": {"dim": [{"size": "32"}]}}}, "dtype": {"type": "DT_FLOAT"}}}, {"name": "model_124/tf.nn.convolution_252/convolution/filter", "op": "Const", "attr": {"value": {"tensor": {"dtype": "DT_FLOAT", "tensorShape": {"dim": [{"size": "3"}, {"size": "3"}, {"size": "32"}, {"size": "32"}]}}}, "dtype": {"type": "DT_FLOAT"}}}, {"name": "model_124/tf.math.add_167/Add/y", "op": "Const", "attr": {"value": {"tensor": {"dtype": "DT_FLOAT", "tensorShape": {"dim": [{"size": "32"}]}}}, "dtype": {"type": "DT_FLOAT"}}}, {"name": "model_124/tf.nn.convolution_253/convolution/filter", "op": "Const", "attr": {"value": {"tensor": {"dtype": "DT_FLOAT", "tensorShape": {"dim": [{"size": "3"}, {"size": "3"}, {"size": "32"}, {"size": "32"}]}}}, "dtype": {"type": "DT_FLOAT"}}}, {"name": "model_124/tf.math.add_170/Add/y", "op": "Const", "attr": {"dtype": {"type": "DT_FLOAT"}, "value": {"tensor": {"dtype": "DT_FLOAT", "tensorShape": {"dim": [{"size": "32"}]}}}}}, {"name": "model_124/tf.nn.convolution_254/convolution/filter", "op": "Const", "attr": {"value": {"tensor": {"dtype": "DT_FLOAT", "tensorShape": {"dim": [{"size": "3"}, {"size": "3"}, {"size": "32"}, {"size": "32"}]}}}, "dtype": {"type": "DT_FLOAT"}}}, {"name": "model_124/tf.math.add_171/Add/y", "op": "Const", "attr": {"value": {"tensor": {"dtype": "DT_FLOAT", "tensorShape": {"dim": [{"size": "32"}]}}}, "dtype": {"type": "DT_FLOAT"}}}, {"name": "model_124/tf.strided_slice_25/ones_like/tensor", "op": "Const", "attr": {"dtype": {"type": "DT_INT64"}, "value": {"tensor": {"dtype": "DT_INT64", "tensorShape": {"dim": [{"size": "4"}]}}}}}, {"name": "model_124/tf.strided_slice_25/StridedSlice/end", "op": "Const", "attr": {"value": {"tensor": {"dtype": "DT_INT64", "tensorShape": {"dim": [{"size": "4"}]}}}, "dtype": {"type": "DT_INT64"}}}, {"name": "model_124/tf.strided_slice_25/ones_like", "op": "Const", "attr": {"dtype": {"type": "DT_INT64"}, "value": {"tensor": {"dtype": "DT_INT64", "tensorShape": {"dim": [{"size": "4"}]}}}}}, {"name": "model_124/tf.strided_slice_23/ones_like/tensor", "op": "Const", "attr": {"value": {"tensor": {"dtype": "DT_INT64", "tensorShape": {"dim": [{"size": "4"}]}}}, "dtype": {"type": "DT_INT64"}}}, {"name": "model_124/tf.strided_slice_23/StridedSlice/end", "op": "Const", "attr": {"value": {"tensor": {"dtype": "DT_INT64", "tensorShape": {"dim": [{"size": "4"}]}}}, "dtype": {"type": "DT_INT64"}}}, {"name": "model_124/tf.strided_slice_23/ones_like", "op": "Const", "attr": {"dtype": {"type": "DT_INT64"}, "value": {"tensor": {"dtype": "DT_INT64", "tensorShape": {"dim": [{"size": "4"}]}}}}}, {"name": "model_124/tf.compat.v1.pad_7/Pad/paddings", "op": "Const", "attr": {"value": {"tensor": {"dtype": "DT_INT32", "tensorShape": {"dim": [{"size": "4"}, {"size": "2"}]}}}, "dtype": {"type": "DT_INT32"}}}, {"name": "model_124/tf.nn.convolution_225/convolution/filter", "op": "Const", "attr": {"dtype": {"type": "DT_FLOAT"}, "value": {"tensor": {"dtype": "DT_FLOAT", "tensorShape": {"dim": [{"size": "3"}, {"size": "3"}, {"size": "3"}, {"size": "16"}]}}}}}, {"name": "model_124/tf.math.add_136/Add/y", "op": "Const", "attr": {"value": {"tensor": {"dtype": "DT_FLOAT", "tensorShape": {"dim": [{"size": "16"}]}}}, "dtype": {"type": "DT_FLOAT"}}}, {"name": "model_124/tf.compat.v1.pad_8/Pad/paddings", "op": "Const", "attr": {"value": {"tensor": {"dtype": "DT_INT32", "tensorShape": {"dim": [{"size": "4"}, {"size": "2"}]}}}, "dtype": {"type": "DT_INT32"}}}, {"name": "model_124/tf.nn.convolution_226/convolution/filter", "op": "Const", "attr": {"value": {"tensor": {"dtype": "DT_FLOAT", "tensorShape": {"dim": [{"size": "3"}, {"size": "3"}, {"size": "16"}, {"size": "32"}]}}}, "dtype": {"type": "DT_FLOAT"}}}, {"name": "model_124/tf.math.add_137/Add/y", "op": "Const", "attr": {"dtype": {"type": "DT_FLOAT"}, "value": {"tensor": {"dtype": "DT_FLOAT", "tensorShape": {"dim": [{"size": "32"}]}}}}}, {"name": "model_124/tf.nn.convolution_227/convolution/filter", "op": "Const", "attr": {"dtype": {"type": "DT_FLOAT"}, "value": {"tensor": {"dtype": "DT_FLOAT", "tensorShape": {"dim": [{"size": "1"}, {"size": "1"}, {"size": "32"}, {"size": "32"}]}}}}}, {"name": "model_124/tf.math.add_138/Add/y", "op": "Const", "attr": {"value": {"tensor": {"dtype": "DT_FLOAT", "tensorShape": {"dim": [{"size": "32"}]}}}, "dtype": {"type": "DT_FLOAT"}}}, {"name": "model_124/tf.strided_slice_24/ones_like/tensor", "op": "Const", "attr": {"dtype": {"type": "DT_INT64"}, "value": {"tensor": {"dtype": "DT_INT64", "tensorShape": {"dim": [{"size": "4"}]}}}}}, {"name": "model_124/tf.strided_slice_24/StridedSlice/end", "op": "Const", "attr": {"dtype": {"type": "DT_INT64"}, "value": {"tensor": {"dtype": "DT_INT64", "tensorShape": {"dim": [{"size": "4"}]}}}}}, {"name": "model_124/tf.strided_slice_24/ones_like", "op": "Const", "attr": {"value": {"tensor": {"dtype": "DT_INT64", "tensorShape": {"dim": [{"size": "4"}]}}}, "dtype": {"type": "DT_INT64"}}}, {"name": "model_124/tf.nn.convolution_228/convolution/filter", "op": "Const", "attr": {"value": {"tensor": {"dtype": "DT_FLOAT", "tensorShape": {"dim": [{"size": "3"}, {"size": "3"}, {"size": "16"}, {"size": "8"}]}}}, "dtype": {"type": "DT_FLOAT"}}}, {"name": "model_124/tf.math.add_139/Add/y", "op": "Const", "attr": {"dtype": {"type": "DT_FLOAT"}, "value": {"tensor": {"dtype": "DT_FLOAT", "tensorShape": {"dim": [{"size": "8"}]}}}}}, {"name": "model_124/tf.nn.convolution_229/convolution/filter", "op": "Const", "attr": {"dtype": {"type": "DT_FLOAT"}, "value": {"tensor": {"dtype": "DT_FLOAT", "tensorShape": {"dim": [{"size": "3"}, {"size": "3"}, {"size": "8"}, {"size": "16"}]}}}}}, {"name": "model_124/tf.math.add_140/Add/y", "op": "Const", "attr": {"dtype": {"type": "DT_FLOAT"}, "value": {"tensor": {"dtype": "DT_FLOAT", "tensorShape": {"dim": [{"size": "16"}]}}}}}, {"name": "model_124/tf.concat_30/concat/axis", "op": "Const", "attr": {"value": {"tensor": {"dtype": "DT_INT32", "tensorShape": {}}}, "dtype": {"type": "DT_INT32"}}}, {"name": "model_124/tf.nn.convolution_230/convolution/filter", "op": "Const", "attr": {"dtype": {"type": "DT_FLOAT"}, "value": {"tensor": {"dtype": "DT_FLOAT", "tensorShape": {"dim": [{"size": "1"}, {"size": "1"}, {"size": "48"}, {"size": "64"}]}}}}}, {"name": "model_124/tf.math.add_143/Add/y", "op": "Const", "attr": {"dtype": {"type": "DT_FLOAT"}, "value": {"tensor": {"dtype": "DT_FLOAT", "tensorShape": {"dim": [{"size": "64"}]}}}}}, {"name": "model_124/tf.compat.v1.pad_9/Pad/paddings", "op": "Const", "attr": {"dtype": {"type": "DT_INT32"}, "value": {"tensor": {"dtype": "DT_INT32", "tensorShape": {"dim": [{"size": "4"}, {"size": "2"}]}}}}}, {"name": "model_124/tf.nn.convolution_231/convolution/filter", "op": "Const", "attr": {"dtype": {"type": "DT_FLOAT"}, "value": {"tensor": {"dtype": "DT_FLOAT", "tensorShape": {"dim": [{"size": "3"}, {"size": "3"}, {"size": "64"}, {"size": "64"}]}}}}}, {"name": "model_124/tf.math.add_144/Add/y", "op": "Const", "attr": {"dtype": {"type": "DT_FLOAT"}, "value": {"tensor": {"dtype": "DT_FLOAT", "tensorShape": {"dim": [{"size": "64"}]}}}}}, {"name": "model_124/tf.nn.convolution_232/convolution/filter", "op": "Const", "attr": {"dtype": {"type": "DT_FLOAT"}, "value": {"tensor": {"dtype": "DT_FLOAT", "tensorShape": {"dim": [{"size": "1"}, {"size": "1"}, {"size": "64"}, {"size": "64"}]}}}}}, {"name": "model_124/tf.math.add_145/Add/y", "op": "Const", "attr": {"value": {"tensor": {"dtype": "DT_FLOAT", "tensorShape": {"dim": [{"size": "64"}]}}}, "dtype": {"type": "DT_FLOAT"}}}, {"name": "model_124/tf.strided_slice_26/ones_like/tensor", "op": "Const", "attr": {"value": {"tensor": {"dtype": "DT_INT64", "tensorShape": {"dim": [{"size": "4"}]}}}, "dtype": {"type": "DT_INT64"}}}, {"name": "model_124/tf.strided_slice_26/StridedSlice/end", "op": "Const", "attr": {"dtype": {"type": "DT_INT64"}, "value": {"tensor": {"dtype": "DT_INT64", "tensorShape": {"dim": [{"size": "4"}]}}}}}, {"name": "model_124/tf.strided_slice_26/ones_like", "op": "Const", "attr": {"value": {"tensor": {"dtype": "DT_INT64", "tensorShape": {"dim": [{"size": "4"}]}}}, "dtype": {"type": "DT_INT64"}}}, {"name": "model_124/tf.nn.convolution_233/convolution/filter", "op": "Const", "attr": {"dtype": {"type": "DT_FLOAT"}, "value": {"tensor": {"dtype": "DT_FLOAT", "tensorShape": {"dim": [{"size": "3"}, {"size": "3"}, {"size": "32"}, {"size": "16"}]}}}}}, {"name": "model_124/tf.math.add_146/Add/y", "op": "Const", "attr": {"value": {"tensor": {"dtype": "DT_FLOAT", "tensorShape": {"dim": [{"size": "16"}]}}}, "dtype": {"type": "DT_FLOAT"}}}, {"name": "model_124/tf.nn.convolution_234/convolution/filter", "op": "Const", "attr": {"value": {"tensor": {"dtype": "DT_FLOAT", "tensorShape": {"dim": [{"size": "3"}, {"size": "3"}, {"size": "16"}, {"size": "32"}]}}}, "dtype": {"type": "DT_FLOAT"}}}, {"name": "model_124/tf.math.add_147/Add/y", "op": "Const", "attr": {"dtype": {"type": "DT_FLOAT"}, "value": {"tensor": {"dtype": "DT_FLOAT", "tensorShape": {"dim": [{"size": "32"}]}}}}}, {"name": "model_124/tf.concat_31/concat/axis", "op": "Const", "attr": {"dtype": {"type": "DT_INT32"}, "value": {"tensor": {"dtype": "DT_INT32", "tensorShape": {}}}}}, {"name": "model_124/tf.nn.convolution_235/convolution/filter", "op": "Const", "attr": {"value": {"tensor": {"dtype": "DT_FLOAT", "tensorShape": {"dim": [{"size": "1"}, {"size": "1"}, {"size": "96"}, {"size": "128"}]}}}, "dtype": {"type": "DT_FLOAT"}}}, {"name": "model_124/tf.math.add_150/Add/y", "op": "Const", "attr": {"value": {"tensor": {"dtype": "DT_FLOAT", "tensorShape": {"dim": [{"size": "128"}]}}}, "dtype": {"type": "DT_FLOAT"}}}, {"name": "model_124/tf.compat.v1.pad_10/Pad/paddings", "op": "Const", "attr": {"dtype": {"type": "DT_INT32"}, "value": {"tensor": {"dtype": "DT_INT32", "tensorShape": {"dim": [{"size": "4"}, {"size": "2"}]}}}}}, {"name": "model_124/tf.nn.convolution_243/convolution/filter", "op": "Const", "attr": {"value": {"tensor": {"dtype": "DT_FLOAT", "tensorShape": {"dim": [{"size": "3"}, {"size": "3"}, {"size": "128"}, {"size": "128"}]}}}, "dtype": {"type": "DT_FLOAT"}}}, {"name": "model_124/tf.math.add_158/Add/y", "op": "Const", "attr": {"dtype": {"type": "DT_FLOAT"}, "value": {"tensor": {"dtype": "DT_FLOAT", "tensorShape": {"dim": [{"size": "128"}]}}}}}, {"name": "model_124/tf.nn.convolution_244/convolution/filter", "op": "Const", "attr": {"value": {"tensor": {"dtype": "DT_FLOAT", "tensorShape": {"dim": [{"size": "1"}, {"size": "1"}, {"size": "128"}, {"size": "128"}]}}}, "dtype": {"type": "DT_FLOAT"}}}, {"name": "model_124/tf.math.add_159/Add/y", "op": "Const", "attr": {"dtype": {"type": "DT_FLOAT"}, "value": {"tensor": {"dtype": "DT_FLOAT", "tensorShape": {"dim": [{"size": "128"}]}}}}}, {"name": "model_124/tf.strided_slice_28/ones_like/tensor", "op": "Const", "attr": {"value": {"tensor": {"dtype": "DT_INT64", "tensorShape": {"dim": [{"size": "4"}]}}}, "dtype": {"type": "DT_INT64"}}}, {"name": "model_124/tf.strided_slice_28/StridedSlice/end", "op": "Const", "attr": {"value": {"tensor": {"dtype": "DT_INT64", "tensorShape": {"dim": [{"size": "4"}]}}}, "dtype": {"type": "DT_INT64"}}}, {"name": "model_124/tf.strided_slice_28/ones_like", "op": "Const", "attr": {"value": {"tensor": {"dtype": "DT_INT64", "tensorShape": {"dim": [{"size": "4"}]}}}, "dtype": {"type": "DT_INT64"}}}, {"name": "model_124/tf.nn.convolution_250/convolution/filter", "op": "Const", "attr": {"dtype": {"type": "DT_FLOAT"}, "value": {"tensor": {"dtype": "DT_FLOAT", "tensorShape": {"dim": [{"size": "1"}, {"size": "1"}, {"size": "64"}, {"size": "32"}]}}}}}, {"name": "model_124/tf.math.add_165/Add/y", "op": "Const", "attr": {"value": {"tensor": {"dtype": "DT_FLOAT", "tensorShape": {"dim": [{"size": "32"}]}}}, "dtype": {"type": "DT_FLOAT"}}}, {"name": "model_124/tf.concat_32/concat/axis", "op": "Const", "attr": {"dtype": {"type": "DT_INT32"}, "value": {"tensor": {"dtype": "DT_INT32", "tensorShape": {}}}}}, {"name": "model_124/tf.nn.convolution_257/convolution/filter", "op": "Const", "attr": {"value": {"tensor": {"dtype": "DT_FLOAT", "tensorShape": {"dim": [{"size": "1"}, {"size": "1"}, {"size": "64"}, {"size": "64"}]}}}, "dtype": {"type": "DT_FLOAT"}}}, {"name": "model_124/tf.math.add_176/Add/y", "op": "Const", "attr": {"value": {"tensor": {"dtype": "DT_FLOAT", "tensorShape": {"dim": [{"size": "64"}]}}}, "dtype": {"type": "DT_FLOAT"}}}, {"name": "model_124/tf.concat_33/concat/axis", "op": "Const", "attr": {"value": {"tensor": {"dtype": "DT_INT32", "tensorShape": {}}}, "dtype": {"type": "DT_INT32"}}}, {"name": "model_124/tf.nn.convolution_258/convolution/filter", "op": "Const", "attr": {"value": {"tensor": {"dtype": "DT_FLOAT", "tensorShape": {"dim": [{"size": "1"}, {"size": "1"}, {"size": "192"}, {"size": "128"}]}}}, "dtype": {"type": "DT_FLOAT"}}}, {"name": "model_124/tf.math.add_177/Add/y", "op": "Const", "attr": {"dtype": {"type": "DT_FLOAT"}, "value": {"tensor": {"dtype": "DT_FLOAT", "tensorShape": {"dim": [{"size": "128"}]}}}}}, {"name": "model_124/tf.compat.v1.pad_11/Pad/paddings", "op": "Const", "attr": {"dtype": {"type": "DT_INT32"}, "value": {"tensor": {"dtype": "DT_INT32", "tensorShape": {"dim": [{"size": "4"}, {"size": "2"}]}}}}}, {"name": "model_124/tf.nn.convolution_259/convolution/filter", "op": "Const", "attr": {"dtype": {"type": "DT_FLOAT"}, "value": {"tensor": {"dtype": "DT_FLOAT", "tensorShape": {"dim": [{"size": "3"}, {"size": "3"}, {"size": "128"}, {"size": "256"}]}}}}}, {"name": "model_124/tf.math.add_178/Add/y", "op": "Const", "attr": {"value": {"tensor": {"dtype": "DT_FLOAT", "tensorShape": {"dim": [{"size": "256"}]}}}, "dtype": {"type": "DT_FLOAT"}}}, {"name": "model_124/tf.nn.convolution_260/convolution/filter", "op": "Const", "attr": {"value": {"tensor": {"dtype": "DT_FLOAT", "tensorShape": {"dim": [{"size": "1"}, {"size": "1"}, {"size": "256"}, {"size": "256"}]}}}, "dtype": {"type": "DT_FLOAT"}}}, {"name": "model_124/tf.math.add_179/Add/y", "op": "Const", "attr": {"dtype": {"type": "DT_FLOAT"}, "value": {"tensor": {"dtype": "DT_FLOAT", "tensorShape": {"dim": [{"size": "256"}]}}}}}, {"name": "model_124/tf.strided_slice_30/ones_like/tensor", "op": "Const", "attr": {"value": {"tensor": {"dtype": "DT_INT64", "tensorShape": {"dim": [{"size": "4"}]}}}, "dtype": {"type": "DT_INT64"}}}, {"name": "model_124/tf.strided_slice_30/StridedSlice/end", "op": "Const", "attr": {"value": {"tensor": {"dtype": "DT_INT64", "tensorShape": {"dim": [{"size": "4"}]}}}, "dtype": {"type": "DT_INT64"}}}, {"name": "model_124/tf.strided_slice_30/ones_like", "op": "Const", "attr": {"dtype": {"type": "DT_INT64"}, "value": {"tensor": {"dtype": "DT_INT64", "tensorShape": {"dim": [{"size": "4"}]}}}}}, {"name": "model_124/tf.nn.convolution_262/convolution/filter", "op": "Const", "attr": {"dtype": {"type": "DT_FLOAT"}, "value": {"tensor": {"dtype": "DT_FLOAT", "tensorShape": {"dim": [{"size": "1"}, {"size": "1"}, {"size": "128"}, {"size": "64"}]}}}}}, {"name": "model_124/tf.math.add_181/Add/y", "op": "Const", "attr": {"value": {"tensor": {"dtype": "DT_FLOAT", "tensorShape": {"dim": [{"size": "64"}]}}}, "dtype": {"type": "DT_FLOAT"}}}, {"name": "model_124/tf.concat_34/concat/axis", "op": "Const", "attr": {"dtype": {"type": "DT_INT32"}, "value": {"tensor": {"dtype": "DT_INT32", "tensorShape": {}}}}}, {"name": "model_124/tf.nn.convolution_267/convolution/filter", "op": "Const", "attr": {"value": {"tensor": {"dtype": "DT_FLOAT", "tensorShape": {"dim": [{"size": "1"}, {"size": "1"}, {"size": "128"}, {"size": "128"}]}}}, "dtype": {"type": "DT_FLOAT"}}}, {"name": "model_124/tf.math.add_190/Add/y", "op": "Const", "attr": {"dtype": {"type": "DT_FLOAT"}, "value": {"tensor": {"dtype": "DT_FLOAT", "tensorShape": {"dim": [{"size": "128"}]}}}}}, {"name": "model_124/tf.concat_35/concat/axis", "op": "Const", "attr": {"value": {"tensor": {"dtype": "DT_INT32", "tensorShape": {}}}, "dtype": {"type": "DT_INT32"}}}, {"name": "model_124/tf.nn.convolution_268/convolution/filter", "op": "Const", "attr": {"value": {"tensor": {"dtype": "DT_FLOAT", "tensorShape": {"dim": [{"size": "1"}, {"size": "1"}, {"size": "384"}, {"size": "256"}]}}}, "dtype": {"type": "DT_FLOAT"}}}, {"name": "model_124/tf.math.add_191/Add/y", "op": "Const", "attr": {"value": {"tensor": {"dtype": "DT_FLOAT", "tensorShape": {"dim": [{"size": "256"}]}}}, "dtype": {"type": "DT_FLOAT"}}}, {"name": "model_124/tf.nn.convolution_269/convolution/filter", "op": "Const", "attr": {"dtype": {"type": "DT_FLOAT"}, "value": {"tensor": {"dtype": "DT_FLOAT", "tensorShape": {"dim": [{"size": "1"}, {"size": "1"}, {"size": "256"}, {"size": "128"}]}}}}}, {"name": "model_124/tf.math.add_192/Add/y", "op": "Const", "attr": {"value": {"tensor": {"dtype": "DT_FLOAT", "tensorShape": {"dim": [{"size": "128"}]}}}, "dtype": {"type": "DT_FLOAT"}}}, {"name": "model_124/tf.concat_36/concat/axis", "op": "Const", "attr": {"value": {"tensor": {"dtype": "DT_INT32", "tensorShape": {}}}, "dtype": {"type": "DT_INT32"}}}, {"name": "model_124/tf.nn.convolution_270/convolution/filter", "op": "Const", "attr": {"dtype": {"type": "DT_FLOAT"}, "value": {"tensor": {"dtype": "DT_FLOAT", "tensorShape": {"dim": [{"size": "1"}, {"size": "1"}, {"size": "512"}, {"size": "256"}]}}}}}, {"name": "model_124/tf.math.add_193/Add/y", "op": "Const", "attr": {"value": {"tensor": {"dtype": "DT_FLOAT", "tensorShape": {"dim": [{"size": "256"}]}}}, "dtype": {"type": "DT_FLOAT"}}}, {"name": "model_124/tf.nn.convolution_271/convolution/filter", "op": "Const", "attr": {"dtype": {"type": "DT_FLOAT"}, "value": {"tensor": {"dtype": "DT_FLOAT", "tensorShape": {"dim": [{"size": "1"}, {"size": "1"}, {"size": "256"}, {"size": "256"}]}}}}}, {"name": "model_124/tf.math.add_194/Add/y", "op": "Const", "attr": {"value": {"tensor": {"dtype": "DT_FLOAT", "tensorShape": {"dim": [{"size": "256"}]}}}, "dtype": {"type": "DT_FLOAT"}}}, {"name": "model_124/tf.nn.convolution_272/convolution/filter", "op": "Const", "attr": {"value": {"tensor": {"dtype": "DT_FLOAT", "tensorShape": {"dim": [{"size": "1"}, {"size": "1"}, {"size": "128"}, {"size": "256"}]}}}, "dtype": {"type": "DT_FLOAT"}}}, {"name": "model_124/tf.math.add_195/Add/y", "op": "Const", "attr": {"dtype": {"type": "DT_FLOAT"}, "value": {"tensor": {"dtype": "DT_FLOAT", "tensorShape": {"dim": [{"size": "256"}]}}}}}, {"name": "model_124/tf.compat.v1.transpose_80/transpose/perm", "op": "Const", "attr": {"value": {"tensor": {"dtype": "DT_INT32", "tensorShape": {"dim": [{"size": "4"}]}}}, "dtype": {"type": "DT_INT32"}}}, {"name": "model_124/tf.reshape_35/Reshape/shape", "op": "Const", "attr": {"value": {"tensor": {"dtype": "DT_INT32", "tensorShape": {"dim": [{"size": "4"}]}}}, "dtype": {"type": "DT_INT32"}}}, {"name": "model_124/tf.strided_slice_33/StridedSlice/begin", "op": "Const", "attr": {"value": {"tensor": {"dtype": "DT_INT32", "tensorShape": {"dim": [{"size": "4"}]}}}, "dtype": {"type": "DT_INT32"}}}, {"name": "model_124/tf.strided_slice_33/StridedSlice/end", "op": "Const", "attr": {"value": {"tensor": {"dtype": "DT_INT32", "tensorShape": {"dim": [{"size": "4"}]}}}, "dtype": {"type": "DT_INT32"}}}, {"name": "model_124/tf.strided_slice_33/ones_like", "op": "Const", "attr": {"value": {"tensor": {"dtype": "DT_INT32", "tensorShape": {"dim": [{"size": "4"}]}}}, "dtype": {"type": "DT_INT32"}}}, {"name": "model_124/tf.reshape_38/Reshape/shape", "op": "Const", "attr": {"value": {"tensor": {"dtype": "DT_INT32", "tensorShape": {"dim": [{"size": "4"}]}}}, "dtype": {"type": "DT_INT32"}}}, {"name": "model_124/tf.compat.v1.transpose_88/transpose/perm", "op": "Const", "attr": {"dtype": {"type": "DT_INT32"}, "value": {"tensor": {"dtype": "DT_INT32", "tensorShape": {"dim": [{"size": "4"}]}}}}}, {"name": "model_124/tf.nn.convolution_400/convolution/filter", "op": "Const", "attr": {"value": {"tensor": {"dtype": "DT_FLOAT", "tensorShape": {"dim": [{"size": "3"}, {"size": "3"}, {"size": "1"}, {"size": "1"}]}}}, "dtype": {"type": "DT_FLOAT"}}}, {"name": "model_124/tf.concat_37/concat/axis", "op": "Const", "attr": {"value": {"tensor": {"dtype": "DT_INT32", "tensorShape": {}}}, "dtype": {"type": "DT_INT32"}}}, {"name": "model_124/tf.nn.convolution_401/convolution/filter", "op": "Const", "attr": {"value": {"tensor": {"dtype": "DT_FLOAT", "tensorShape": {"dim": [{"size": "1"}, {"size": "1"}, {"size": "128"}, {"size": "128"}]}}}, "dtype": {"type": "DT_FLOAT"}}}, {"name": "model_124/tf.nn.convolution_402/convolution/filter", "op": "Const", "attr": {"value": {"tensor": {"dtype": "DT_FLOAT", "tensorShape": {"dim": [{"size": "1"}, {"size": "1"}, {"size": "128"}, {"size": "256"}]}}}, "dtype": {"type": "DT_FLOAT"}}}, {"name": "model_124/tf.math.add_202/Add/y", "op": "Const", "attr": {"value": {"tensor": {"dtype": "DT_FLOAT", "tensorShape": {"dim": [{"size": "256"}]}}}, "dtype": {"type": "DT_FLOAT"}}}, {"name": "model_124/tf.nn.convolution_403/convolution/filter", "op": "Const", "attr": {"value": {"tensor": {"dtype": "DT_FLOAT", "tensorShape": {"dim": [{"size": "1"}, {"size": "1"}, {"size": "256"}, {"size": "128"}]}}}, "dtype": {"type": "DT_FLOAT"}}}, {"name": "model_124/tf.concat_38/concat/axis", "op": "Const", "attr": {"dtype": {"type": "DT_INT32"}, "value": {"tensor": {"dtype": "DT_INT32", "tensorShape": {}}}}}, {"name": "model_124/tf.nn.convolution_404/convolution/filter", "op": "Const", "attr": {"dtype": {"type": "DT_FLOAT"}, "value": {"tensor": {"dtype": "DT_FLOAT", "tensorShape": {"dim": [{"size": "1"}, {"size": "1"}, {"size": "256"}, {"size": "256"}]}}}}}, {"name": "model_124/tf.math.add_206/Add/y", "op": "Const", "attr": {"value": {"tensor": {"dtype": "DT_FLOAT", "tensorShape": {"dim": [{"size": "256"}]}}}, "dtype": {"type": "DT_FLOAT"}}}, {"name": "model_124/tf.concat_50/concat/axis", "op": "Const", "attr": {"value": {"tensor": {"dtype": "DT_INT32", "tensorShape": {}}}, "dtype": {"type": "DT_INT32"}}}, {"name": "model_124/tf.nn.convolution_439/convolution/filter", "op": "Const", "attr": {"value": {"tensor": {"dtype": "DT_FLOAT", "tensorShape": {"dim": [{"size": "1"}, {"size": "1"}, {"size": "384"}, {"size": "256"}]}}}, "dtype": {"type": "DT_FLOAT"}}}, {"name": "model_124/tf.math.add_250/Add/y", "op": "Const", "attr": {"value": {"tensor": {"dtype": "DT_FLOAT", "tensorShape": {"dim": [{"size": "256"}]}}}, "dtype": {"type": "DT_FLOAT"}}}, {"name": "model_124/tf.strided_slice_41/ones_like/tensor", "op": "Const", "attr": {"value": {"tensor": {"dtype": "DT_INT64", "tensorShape": {"dim": [{"size": "4"}]}}}, "dtype": {"type": "DT_INT64"}}}, {"name": "model_124/tf.strided_slice_41/StridedSlice/end", "op": "Const", "attr": {"value": {"tensor": {"dtype": "DT_INT64", "tensorShape": {"dim": [{"size": "4"}]}}}, "dtype": {"type": "DT_INT64"}}}, {"name": "model_124/tf.strided_slice_41/ones_like", "op": "Const", "attr": {"dtype": {"type": "DT_INT64"}, "value": {"tensor": {"dtype": "DT_INT64", "tensorShape": {"dim": [{"size": "4"}]}}}}}, {"name": "model_124/tf.nn.convolution_445/convolution/filter", "op": "Const", "attr": {"dtype": {"type": "DT_FLOAT"}, "value": {"tensor": {"dtype": "DT_FLOAT", "tensorShape": {"dim": [{"size": "1"}, {"size": "1"}, {"size": "128"}, {"size": "64"}]}}}}}, {"name": "model_124/tf.math.add_259/Add/y", "op": "Const", "attr": {"dtype": {"type": "DT_FLOAT"}, "value": {"tensor": {"dtype": "DT_FLOAT", "tensorShape": {"dim": [{"size": "64"}]}}}}}, {"name": "model_124/tf.concat_54/concat/axis", "op": "Const", "attr": {"dtype": {"type": "DT_INT32"}, "value": {"tensor": {"dtype": "DT_INT32", "tensorShape": {}}}}}, {"name": "model_124/tf.nn.convolution_456/convolution/filter", "op": "Const", "attr": {"value": {"tensor": {"dtype": "DT_FLOAT", "tensorShape": {"dim": [{"size": "1"}, {"size": "1"}, {"size": "128"}, {"size": "128"}]}}}, "dtype": {"type": "DT_FLOAT"}}}, {"name": "model_124/tf.math.add_274/Add/y", "op": "Const", "attr": {"value": {"tensor": {"dtype": "DT_FLOAT", "tensorShape": {"dim": [{"size": "128"}]}}}, "dtype": {"type": "DT_FLOAT"}}}, {"name": "model_124/tf.concat_55/concat/axis", "op": "Const", "attr": {"value": {"tensor": {"dtype": "DT_INT32", "tensorShape": {}}}, "dtype": {"type": "DT_INT32"}}}, {"name": "model_124/tf.nn.convolution_457/convolution/filter", "op": "Const", "attr": {"dtype": {"type": "DT_FLOAT"}, "value": {"tensor": {"dtype": "DT_FLOAT", "tensorShape": {"dim": [{"size": "1"}, {"size": "1"}, {"size": "384"}, {"size": "256"}]}}}}}, {"name": "model_124/tf.math.add_275/Add/y", "op": "Const", "attr": {"value": {"tensor": {"dtype": "DT_FLOAT", "tensorShape": {"dim": [{"size": "256"}]}}}, "dtype": {"type": "DT_FLOAT"}}}, {"name": "model_124/tf.nn.convolution_458/convolution/filter", "op": "Const", "attr": {"dtype": {"type": "DT_FLOAT"}, "value": {"tensor": {"dtype": "DT_FLOAT", "tensorShape": {"dim": [{"size": "3"}, {"size": "3"}, {"size": "256"}, {"size": "16"}]}}}}}, {"name": "model_124/tf.math.add_276/Add/y", "op": "Const", "attr": {"dtype": {"type": "DT_FLOAT"}, "value": {"tensor": {"dtype": "DT_FLOAT", "tensorShape": {"dim": [{"size": "16"}]}}}}}, {"name": "model_124/tf.nn.convolution_460/convolution/filter", "op": "Const", "attr": {"value": {"tensor": {"dtype": "DT_FLOAT", "tensorShape": {"dim": [{"size": "3"}, {"size": "3"}, {"size": "16"}, {"size": "16"}]}}}, "dtype": {"type": "DT_FLOAT"}}}, {"name": "model_124/tf.math.add_279/Add/y", "op": "Const", "attr": {"dtype": {"type": "DT_FLOAT"}, "value": {"tensor": {"dtype": "DT_FLOAT", "tensorShape": {"dim": [{"size": "16"}]}}}}}, {"name": "model_124/tf.nn.convolution_463/convolution/filter", "op": "Const", "attr": {"value": {"tensor": {"dtype": "DT_FLOAT", "tensorShape": {"dim": [{"size": "1"}, {"size": "1"}, {"size": "16"}, {"size": "1"}]}}}, "dtype": {"type": "DT_FLOAT"}}}, {"name": "model_124/tf.math.add_282/Add/y", "op": "Const", "attr": {"value": {"tensor": {"dtype": "DT_FLOAT", "tensorShape": {"dim": [{"size": "1"}]}}}, "dtype": {"type": "DT_FLOAT"}}}, {"name": "model_124/tf.compat.v1.transpose_145/transpose/perm", "op": "Const", "attr": {"value": {"tensor": {"dtype": "DT_INT32", "tensorShape": {"dim": [{"size": "4"}]}}}, "dtype": {"type": "DT_INT32"}}}, {"name": "model_124/tf.reshape_56/Reshape/shape", "op": "Const", "attr": {"value": {"tensor": {"dtype": "DT_INT32", "tensorShape": {"dim": [{"size": "3"}]}}}, "dtype": {"type": "DT_INT32"}}}, {"name": "model_124/tf.concat_56/concat/axis", "op": "Const", "attr": {"value": {"tensor": {"dtype": "DT_INT32", "tensorShape": {}}}, "dtype": {"type": "DT_INT32"}}}, {"name": "model_124/tf.math.subtract_2/Sub/y", "op": "Const", "attr": {"dtype": {"type": "DT_FLOAT"}, "value": {"tensor": {"dtype": "DT_FLOAT", "tensorShape": {"dim": [{"size": "1"}, {"size": "1"}, {"size": "1"}]}}}}}, {"name": "model_124/tf.math.multiply_747/Mul/y", "op": "Const", "attr": {"value": {"tensor": {"dtype": "DT_FLOAT", "tensorShape": {"dim": [{"size": "1"}, {"size": "1"}, {"size": "1"}]}}}, "dtype": {"type": "DT_FLOAT"}}}, {"name": "model_124/output0/concat/axis", "op": "Const", "attr": {"dtype": {"type": "DT_INT32"}, "value": {"tensor": {"dtype": "DT_INT32", "tensorShape": {}}}}}, {"name": "x", "op": "Placeholder", "attr": {"dtype": {"type": "DT_FLOAT"}, "shape": {"shape": {"dim": [{"size": "1"}, {"size": "1024"}, {"size": "1024"}, {"size": "3"}]}}}}, {"name": "model_124/tf.compat.v1.pad_7/Pad", "op": "Pad", "input": ["x", "model_124/tf.compat.v1.pad_7/Pad/paddings"], "attr": {"T": {"type": "DT_FLOAT"}, "Tpaddings": {"type": "DT_INT32"}}}, {"name": "model_124/tf.math.add_136/Add", "op": "_FusedConv2D", "input": ["model_124/tf.compat.v1.pad_7/Pad", "model_124/tf.nn.convolution_225/convolution/filter", "model_124/tf.math.add_136/Add/y"], "device": "/device:CPU:0", "attr": {"use_cudnn_on_gpu": {"b": true}, "leakyrelu_alpha": {"f": 0.2}, "num_args": {"i": "1"}, "data_format": {"s": "TkhXQw=="}, "dilations": {"list": {"i": ["1", "1", "1", "1"]}}, "filter_format": {"s": "SFdJTw=="}, "T": {"type": "DT_FLOAT"}, "num_host_args": {"i": "0"}, "epsilon": {"f": 0.0}, "explicit_paddings": {"list": {}}, "fused_ops": {"list": {"s": ["Qmlhc0FkZA=="]}}, "strides": {"list": {"i": ["1", "2", "2", "1"]}}, "TArgs": {"list": {"type": ["DT_FLOAT"]}}, "padding": {"s": "VkFMSUQ="}}}, {"name": "model_124/tf.math.sigmoid_87/Sigmoid", "op": "Sigmoid", "input": ["model_124/tf.math.add_136/Add"], "attr": {"T": {"type": "DT_FLOAT"}}}, {"name": "model_124/tf.math.multiply_390/Mul", "op": "Mul", "input": ["model_124/tf.math.add_136/Add", "model_124/tf.math.sigmoid_87/Sigmoid"], "attr": {"T": {"type": "DT_FLOAT"}}}, {"name": "model_124/tf.compat.v1.pad_8/Pad", "op": "Pad", "input": ["model_124/tf.math.multiply_390/Mul", "model_124/tf.compat.v1.pad_8/Pad/paddings"], "attr": {"T": {"type": "DT_FLOAT"}, "Tpaddings": {"type": "DT_INT32"}}}, {"name": "model_124/tf.math.add_137/Add", "op": "_FusedConv2D", "input": ["model_124/tf.compat.v1.pad_8/Pad", "model_124/tf.nn.convolution_226/convolution/filter", "model_124/tf.math.add_137/Add/y"], "device": "/device:CPU:0", "attr": {"dilations": {"list": {"i": ["1", "1", "1", "1"]}}, "padding": {"s": "VkFMSUQ="}, "strides": {"list": {"i": ["1", "2", "2", "1"]}}, "num_args": {"i": "1"}, "data_format": {"s": "TkhXQw=="}, "fused_ops": {"list": {"s": ["Qmlhc0FkZA=="]}}, "epsilon": {"f": 0.0}, "T": {"type": "DT_FLOAT"}, "filter_format": {"s": "SFdJTw=="}, "leakyrelu_alpha": {"f": 0.2}, "num_host_args": {"i": "0"}, "use_cudnn_on_gpu": {"b": true}, "TArgs": {"list": {"type": ["DT_FLOAT"]}}, "explicit_paddings": {"list": {}}}}, {"name": "model_124/tf.math.sigmoid_88/Sigmoid", "op": "Sigmoid", "input": ["model_124/tf.math.add_137/Add"], "attr": {"T": {"type": "DT_FLOAT"}}}, {"name": "model_124/tf.math.multiply_394/Mul", "op": "Mul", "input": ["model_124/tf.math.add_137/Add", "model_124/tf.math.sigmoid_88/Sigmoid"], "attr": {"T": {"type": "DT_FLOAT"}}}, {"name": "model_124/tf.math.add_138/Add", "op": "_FusedConv2D", "input": ["model_124/tf.math.multiply_394/Mul", "model_124/tf.nn.convolution_227/convolution/filter", "model_124/tf.math.add_138/Add/y"], "device": "/device:CPU:0", "attr": {"leakyrelu_alpha": {"f": 0.2}, "filter_format": {"s": "SFdJTw=="}, "epsilon": {"f": 0.0}, "data_format": {"s": "TkhXQw=="}, "num_host_args": {"i": "0"}, "padding": {"s": "U0FNRQ=="}, "TArgs": {"list": {"type": ["DT_FLOAT"]}}, "num_args": {"i": "1"}, "T": {"type": "DT_FLOAT"}, "dilations": {"list": {"i": ["1", "1", "1", "1"]}}, "fused_ops": {"list": {"s": ["Qmlhc0FkZA=="]}}, "use_cudnn_on_gpu": {"b": true}, "strides": {"list": {"i": ["1", "1", "1", "1"]}}, "explicit_paddings": {"list": {}}}}, {"name": "model_124/tf.math.sigmoid_89/Sigmoid", "op": "Sigmoid", "input": ["model_124/tf.math.add_138/Add"], "attr": {"T": {"type": "DT_FLOAT"}}}, {"name": "model_124/tf.math.multiply_398/Mul", "op": "Mul", "input": ["model_124/tf.math.add_138/Add", "model_124/tf.math.sigmoid_89/Sigmoid"], "attr": {"T": {"type": "DT_FLOAT"}}}, {"name": "model_124/tf.strided_slice_23/StridedSlice", "op": "StridedSlice", "input": ["model_124/tf.math.multiply_398/Mul", "model_124/tf.strided_slice_23/ones_like/tensor", "model_124/tf.strided_slice_23/StridedSlice/end", "model_124/tf.strided_slice_23/ones_like"], "attr": {"begin_mask": {"i": "15"}, "ellipsis_mask": {"i": "0"}, "end_mask": {"i": "7"}, "shrink_axis_mask": {"i": "0"}, "Index": {"type": "DT_INT64"}, "new_axis_mask": {"i": "0"}, "T": {"type": "DT_FLOAT"}}}, {"name": "model_124/tf.strided_slice_24/StridedSlice", "op": "StridedSlice", "input": ["model_124/tf.math.multiply_398/Mul", "model_124/tf.strided_slice_24/ones_like/tensor", "model_124/tf.strided_slice_24/StridedSlice/end", "model_124/tf.strided_slice_24/ones_like"], "attr": {"begin_mask": {"i": "7"}, "T": {"type": "DT_FLOAT"}, "shrink_axis_mask": {"i": "0"}, "new_axis_mask": {"i": "0"}, "Index": {"type": "DT_INT64"}, "ellipsis_mask": {"i": "0"}, "end_mask": {"i": "7"}}}, {"name": "model_124/tf.math.add_139/Add", "op": "_FusedConv2D", "input": ["model_124/tf.strided_slice_24/StridedSlice", "model_124/tf.nn.convolution_228/convolution/filter", "model_124/tf.math.add_139/Add/y"], "device": "/device:CPU:0", "attr": {"use_cudnn_on_gpu": {"b": true}, "fused_ops": {"list": {"s": ["Qmlhc0FkZA=="]}}, "num_args": {"i": "1"}, "strides": {"list": {"i": ["1", "1", "1", "1"]}}, "data_format": {"s": "TkhXQw=="}, "padding": {"s": "U0FNRQ=="}, "filter_format": {"s": "SFdJTw=="}, "dilations": {"list": {"i": ["1", "1", "1", "1"]}}, "explicit_paddings": {"list": {}}, "num_host_args": {"i": "0"}, "epsilon": {"f": 0.0}, "leakyrelu_alpha": {"f": 0.2}, "TArgs": {"list": {"type": ["DT_FLOAT"]}}, "T": {"type": "DT_FLOAT"}}}, {"name": "model_124/tf.math.sigmoid_90/Sigmoid", "op": "Sigmoid", "input": ["model_124/tf.math.add_139/Add"], "attr": {"T": {"type": "DT_FLOAT"}}}, {"name": "model_124/tf.math.multiply_402/Mul", "op": "Mul", "input": ["model_124/tf.math.add_139/Add", "model_124/tf.math.sigmoid_90/Sigmoid"], "attr": {"T": {"type": "DT_FLOAT"}}}, {"name": "model_124/tf.math.add_140/Add", "op": "_FusedConv2D", "input": ["model_124/tf.math.multiply_402/Mul", "model_124/tf.nn.convolution_229/convolution/filter", "model_124/tf.math.add_140/Add/y"], "device": "/device:CPU:0", "attr": {"TArgs": {"list": {"type": ["DT_FLOAT"]}}, "explicit_paddings": {"list": {}}, "leakyrelu_alpha": {"f": 0.2}, "filter_format": {"s": "SFdJTw=="}, "num_args": {"i": "1"}, "epsilon": {"f": 0.0}, "dilations": {"list": {"i": ["1", "1", "1", "1"]}}, "fused_ops": {"list": {"s": ["Qmlhc0FkZA=="]}}, "padding": {"s": "U0FNRQ=="}, "use_cudnn_on_gpu": {"b": true}, "strides": {"list": {"i": ["1", "1", "1", "1"]}}, "T": {"type": "DT_FLOAT"}, "data_format": {"s": "TkhXQw=="}, "num_host_args": {"i": "0"}}}, {"name": "model_124/tf.math.sigmoid_91/Sigmoid", "op": "Sigmoid", "input": ["model_124/tf.math.add_140/Add"], "attr": {"T": {"type": "DT_FLOAT"}}}, {"name": "model_124/tf.math.multiply_406/Mul", "op": "Mul", "input": ["model_124/tf.math.add_140/Add", "model_124/tf.math.sigmoid_91/Sigmoid"], "attr": {"T": {"type": "DT_FLOAT"}}}, {"name": "model_124/tf.math.add_142/Add", "op": "AddV2", "input": ["model_124/tf.strided_slice_24/StridedSlice", "model_124/tf.math.multiply_406/Mul"], "attr": {"T": {"type": "DT_FLOAT"}}}, {"name": "model_124/tf.concat_30/concat", "op": "ConcatV2", "input": ["model_124/tf.strided_slice_23/StridedSlice", "model_124/tf.strided_slice_24/StridedSlice", "model_124/tf.math.add_142/Add", "model_124/tf.concat_30/concat/axis"], "attr": {"Tidx": {"type": "DT_INT32"}, "N": {"i": "3"}, "T": {"type": "DT_FLOAT"}}}, {"name": "model_124/tf.math.add_143/Add", "op": "_FusedConv2D", "input": ["model_124/tf.concat_30/concat", "model_124/tf.nn.convolution_230/convolution/filter", "model_124/tf.math.add_143/Add/y"], "device": "/device:CPU:0", "attr": {"epsilon": {"f": 0.0}, "num_args": {"i": "1"}, "use_cudnn_on_gpu": {"b": true}, "num_host_args": {"i": "0"}, "leakyrelu_alpha": {"f": 0.2}, "strides": {"list": {"i": ["1", "1", "1", "1"]}}, "padding": {"s": "U0FNRQ=="}, "data_format": {"s": "TkhXQw=="}, "dilations": {"list": {"i": ["1", "1", "1", "1"]}}, "TArgs": {"list": {"type": ["DT_FLOAT"]}}, "fused_ops": {"list": {"s": ["Qmlhc0FkZA=="]}}, "T": {"type": "DT_FLOAT"}, "explicit_paddings": {"list": {}}, "filter_format": {"s": "SFdJTw=="}}}, {"name": "model_124/tf.math.sigmoid_92/Sigmoid", "op": "Sigmoid", "input": ["model_124/tf.math.add_143/Add"], "attr": {"T": {"type": "DT_FLOAT"}}}, {"name": "model_124/tf.math.multiply_412/Mul", "op": "Mul", "input": ["model_124/tf.math.add_143/Add", "model_124/tf.math.sigmoid_92/Sigmoid"], "attr": {"T": {"type": "DT_FLOAT"}}}, {"name": "model_124/tf.compat.v1.pad_9/Pad", "op": "Pad", "input": ["model_124/tf.math.multiply_412/Mul", "model_124/tf.compat.v1.pad_9/Pad/paddings"], "attr": {"Tpaddings": {"type": "DT_INT32"}, "T": {"type": "DT_FLOAT"}}}, {"name": "model_124/tf.math.add_144/Add", "op": "_FusedConv2D", "input": ["model_124/tf.compat.v1.pad_9/Pad", "model_124/tf.nn.convolution_231/convolution/filter", "model_124/tf.math.add_144/Add/y"], "device": "/device:CPU:0", "attr": {"strides": {"list": {"i": ["1", "2", "2", "1"]}}, "fused_ops": {"list": {"s": ["Qmlhc0FkZA=="]}}, "epsilon": {"f": 0.0}, "dilations": {"list": {"i": ["1", "1", "1", "1"]}}, "T": {"type": "DT_FLOAT"}, "explicit_paddings": {"list": {}}, "num_host_args": {"i": "0"}, "data_format": {"s": "TkhXQw=="}, "leakyrelu_alpha": {"f": 0.2}, "TArgs": {"list": {"type": ["DT_FLOAT"]}}, "filter_format": {"s": "SFdJTw=="}, "num_args": {"i": "1"}, "use_cudnn_on_gpu": {"b": true}, "padding": {"s": "VkFMSUQ="}}}, {"name": "model_124/tf.math.sigmoid_93/Sigmoid", "op": "Sigmoid", "input": ["model_124/tf.math.add_144/Add"], "attr": {"T": {"type": "DT_FLOAT"}}}, {"name": "model_124/tf.math.multiply_416/Mul", "op": "Mul", "input": ["model_124/tf.math.add_144/Add", "model_124/tf.math.sigmoid_93/Sigmoid"], "attr": {"T": {"type": "DT_FLOAT"}}}, {"name": "model_124/tf.math.add_145/Add", "op": "_FusedConv2D", "input": ["model_124/tf.math.multiply_416/Mul", "model_124/tf.nn.convolution_232/convolution/filter", "model_124/tf.math.add_145/Add/y"], "device": "/device:CPU:0", "attr": {"TArgs": {"list": {"type": ["DT_FLOAT"]}}, "strides": {"list": {"i": ["1", "1", "1", "1"]}}, "num_host_args": {"i": "0"}, "leakyrelu_alpha": {"f": 0.2}, "fused_ops": {"list": {"s": ["Qmlhc0FkZA=="]}}, "padding": {"s": "U0FNRQ=="}, "explicit_paddings": {"list": {}}, "dilations": {"list": {"i": ["1", "1", "1", "1"]}}, "T": {"type": "DT_FLOAT"}, "use_cudnn_on_gpu": {"b": true}, "data_format": {"s": "TkhXQw=="}, "filter_format": {"s": "SFdJTw=="}, "epsilon": {"f": 0.0}, "num_args": {"i": "1"}}}, {"name": "model_124/tf.math.sigmoid_94/Sigmoid", "op": "Sigmoid", "input": ["model_124/tf.math.add_145/Add"], "attr": {"T": {"type": "DT_FLOAT"}}}, {"name": "model_124/tf.math.multiply_420/Mul", "op": "Mul", "input": ["model_124/tf.math.add_145/Add", "model_124/tf.math.sigmoid_94/Sigmoid"], "attr": {"T": {"type": "DT_FLOAT"}}}, {"name": "model_124/tf.strided_slice_25/StridedSlice", "op": "StridedSlice", "input": ["model_124/tf.math.multiply_420/Mul", "model_124/tf.strided_slice_25/ones_like/tensor", "model_124/tf.strided_slice_25/StridedSlice/end", "model_124/tf.strided_slice_25/ones_like"], "attr": {"T": {"type": "DT_FLOAT"}, "Index": {"type": "DT_INT64"}, "shrink_axis_mask": {"i": "0"}, "begin_mask": {"i": "15"}, "ellipsis_mask": {"i": "0"}, "new_axis_mask": {"i": "0"}, "end_mask": {"i": "7"}}}, {"name": "model_124/tf.strided_slice_26/StridedSlice", "op": "StridedSlice", "input": ["model_124/tf.math.multiply_420/Mul", "model_124/tf.strided_slice_26/ones_like/tensor", "model_124/tf.strided_slice_26/StridedSlice/end", "model_124/tf.strided_slice_26/ones_like"], "attr": {"shrink_axis_mask": {"i": "0"}, "T": {"type": "DT_FLOAT"}, "new_axis_mask": {"i": "0"}, "end_mask": {"i": "7"}, "Index": {"type": "DT_INT64"}, "begin_mask": {"i": "7"}, "ellipsis_mask": {"i": "0"}}}, {"name": "model_124/tf.math.add_146/Add", "op": "_FusedConv2D", "input": ["model_124/tf.strided_slice_26/StridedSlice", "model_124/tf.nn.convolution_233/convolution/filter", "model_124/tf.math.add_146/Add/y"], "device": "/device:CPU:0", "attr": {"filter_format": {"s": "SFdJTw=="}, "leakyrelu_alpha": {"f": 0.2}, "T": {"type": "DT_FLOAT"}, "dilations": {"list": {"i": ["1", "1", "1", "1"]}}, "explicit_paddings": {"list": {}}, "use_cudnn_on_gpu": {"b": true}, "num_args": {"i": "1"}, "data_format": {"s": "TkhXQw=="}, "padding": {"s": "U0FNRQ=="}, "TArgs": {"list": {"type": ["DT_FLOAT"]}}, "strides": {"list": {"i": ["1", "1", "1", "1"]}}, "epsilon": {"f": 0.0}, "num_host_args": {"i": "0"}, "fused_ops": {"list": {"s": ["Qmlhc0FkZA=="]}}}}, {"name": "model_124/tf.math.sigmoid_95/Sigmoid", "op": "Sigmoid", "input": ["model_124/tf.math.add_146/Add"], "attr": {"T": {"type": "DT_FLOAT"}}}, {"name": "model_124/tf.math.multiply_424/Mul", "op": "Mul", "input": ["model_124/tf.math.add_146/Add", "model_124/tf.math.sigmoid_95/Sigmoid"], "attr": {"T": {"type": "DT_FLOAT"}}}, {"name": "model_124/tf.math.add_147/Add", "op": "_FusedConv2D", "input": ["model_124/tf.math.multiply_424/Mul", "model_124/tf.nn.convolution_234/convolution/filter", "model_124/tf.math.add_147/Add/y"], "device": "/device:CPU:0", "attr": {"epsilon": {"f": 0.0}, "T": {"type": "DT_FLOAT"}, "data_format": {"s": "TkhXQw=="}, "use_cudnn_on_gpu": {"b": true}, "fused_ops": {"list": {"s": ["Qmlhc0FkZA=="]}}, "num_host_args": {"i": "0"}, "dilations": {"list": {"i": ["1", "1", "1", "1"]}}, "filter_format": {"s": "SFdJTw=="}, "padding": {"s": "U0FNRQ=="}, "strides": {"list": {"i": ["1", "1", "1", "1"]}}, "TArgs": {"list": {"type": ["DT_FLOAT"]}}, "num_args": {"i": "1"}, "leakyrelu_alpha": {"f": 0.2}, "explicit_paddings": {"list": {}}}}, {"name": "model_124/tf.math.sigmoid_96/Sigmoid", "op": "Sigmoid", "input": ["model_124/tf.math.add_147/Add"], "attr": {"T": {"type": "DT_FLOAT"}}}, {"name": "model_124/tf.math.multiply_428/Mul", "op": "Mul", "input": ["model_124/tf.math.add_147/Add", "model_124/tf.math.sigmoid_96/Sigmoid"], "attr": {"T": {"type": "DT_FLOAT"}}}, {"name": "model_124/tf.math.add_149/Add", "op": "AddV2", "input": ["model_124/tf.strided_slice_26/StridedSlice", "model_124/tf.math.multiply_428/Mul"], "attr": {"T": {"type": "DT_FLOAT"}}}, {"name": "model_124/tf.concat_31/concat", "op": "ConcatV2", "input": ["model_124/tf.strided_slice_25/StridedSlice", "model_124/tf.strided_slice_26/StridedSlice", "model_124/tf.math.add_149/Add", "model_124/tf.concat_31/concat/axis"], "attr": {"T": {"type": "DT_FLOAT"}, "Tidx": {"type": "DT_INT32"}, "N": {"i": "3"}}}, {"name": "model_124/tf.math.add_150/Add", "op": "_FusedConv2D", "input": ["model_124/tf.concat_31/concat", "model_124/tf.nn.convolution_235/convolution/filter", "model_124/tf.math.add_150/Add/y"], "device": "/device:CPU:0", "attr": {"TArgs": {"list": {"type": ["DT_FLOAT"]}}, "epsilon": {"f": 0.0}, "data_format": {"s": "TkhXQw=="}, "padding": {"s": "U0FNRQ=="}, "dilations": {"list": {"i": ["1", "1", "1", "1"]}}, "num_args": {"i": "1"}, "T": {"type": "DT_FLOAT"}, "filter_format": {"s": "SFdJTw=="}, "fused_ops": {"list": {"s": ["Qmlhc0FkZA=="]}}, "leakyrelu_alpha": {"f": 0.2}, "explicit_paddings": {"list": {}}, "strides": {"list": {"i": ["1", "1", "1", "1"]}}, "use_cudnn_on_gpu": {"b": true}, "num_host_args": {"i": "0"}}}, {"name": "model_124/tf.math.sigmoid_97/Sigmoid", "op": "Sigmoid", "input": ["model_124/tf.math.add_150/Add"], "attr": {"T": {"type": "DT_FLOAT"}}}, {"name": "model_124/tf.math.multiply_434/Mul", "op": "Mul", "input": ["model_124/tf.math.add_150/Add", "model_124/tf.math.sigmoid_97/Sigmoid"], "attr": {"T": {"type": "DT_FLOAT"}}}, {"name": "model_124/tf.compat.v1.pad_10/Pad", "op": "Pad", "input": ["model_124/tf.math.multiply_434/Mul", "model_124/tf.compat.v1.pad_10/Pad/paddings"], "attr": {"Tpaddings": {"type": "DT_INT32"}, "T": {"type": "DT_FLOAT"}}}, {"name": "model_124/tf.math.add_158/Add", "op": "_FusedConv2D", "input": ["model_124/tf.compat.v1.pad_10/Pad", "model_124/tf.nn.convolution_243/convolution/filter", "model_124/tf.math.add_158/Add/y"], "device": "/device:CPU:0", "attr": {"epsilon": {"f": 0.0}, "TArgs": {"list": {"type": ["DT_FLOAT"]}}, "strides": {"list": {"i": ["1", "2", "2", "1"]}}, "leakyrelu_alpha": {"f": 0.2}, "explicit_paddings": {"list": {}}, "num_args": {"i": "1"}, "T": {"type": "DT_FLOAT"}, "num_host_args": {"i": "0"}, "use_cudnn_on_gpu": {"b": true}, "filter_format": {"s": "SFdJTw=="}, "padding": {"s": "VkFMSUQ="}, "fused_ops": {"list": {"s": ["Qmlhc0FkZA=="]}}, "dilations": {"list": {"i": ["1", "1", "1", "1"]}}, "data_format": {"s": "TkhXQw=="}}}, {"name": "model_124/tf.math.sigmoid_98/Sigmoid", "op": "Sigmoid", "input": ["model_124/tf.math.add_158/Add"], "attr": {"T": {"type": "DT_FLOAT"}}}, {"name": "model_124/tf.math.multiply_438/Mul", "op": "Mul", "input": ["model_124/tf.math.add_158/Add", "model_124/tf.math.sigmoid_98/Sigmoid"], "attr": {"T": {"type": "DT_FLOAT"}}}, {"name": "model_124/tf.math.add_159/Add", "op": "_FusedConv2D", "input": ["model_124/tf.math.multiply_438/Mul", "model_124/tf.nn.convolution_244/convolution/filter", "model_124/tf.math.add_159/Add/y"], "device": "/device:CPU:0", "attr": {"data_format": {"s": "TkhXQw=="}, "epsilon": {"f": 0.0}, "fused_ops": {"list": {"s": ["Qmlhc0FkZA=="]}}, "padding": {"s": "U0FNRQ=="}, "leakyrelu_alpha": {"f": 0.2}, "num_host_args": {"i": "0"}, "use_cudnn_on_gpu": {"b": true}, "dilations": {"list": {"i": ["1", "1", "1", "1"]}}, "strides": {"list": {"i": ["1", "1", "1", "1"]}}, "TArgs": {"list": {"type": ["DT_FLOAT"]}}, "filter_format": {"s": "SFdJTw=="}, "T": {"type": "DT_FLOAT"}, "explicit_paddings": {"list": {}}, "num_args": {"i": "1"}}}, {"name": "model_124/tf.math.sigmoid_99/Sigmoid", "op": "Sigmoid", "input": ["model_124/tf.math.add_159/Add"], "attr": {"T": {"type": "DT_FLOAT"}}}, {"name": "model_124/tf.math.multiply_442/Mul", "op": "Mul", "input": ["model_124/tf.math.add_159/Add", "model_124/tf.math.sigmoid_99/Sigmoid"], "attr": {"T": {"type": "DT_FLOAT"}}}, {"name": "model_124/tf.strided_slice_27/StridedSlice", "op": "StridedSlice", "input": ["model_124/tf.math.multiply_442/Mul", "model_124/tf.strided_slice_27/ones_like/tensor", "model_124/tf.strided_slice_27/StridedSlice/end", "model_124/tf.strided_slice_27/ones_like"], "attr": {"Index": {"type": "DT_INT64"}, "end_mask": {"i": "7"}, "shrink_axis_mask": {"i": "0"}, "ellipsis_mask": {"i": "0"}, "T": {"type": "DT_FLOAT"}, "new_axis_mask": {"i": "0"}, "begin_mask": {"i": "15"}}}, {"name": "model_124/tf.strided_slice_28/StridedSlice", "op": "StridedSlice", "input": ["model_124/tf.math.multiply_442/Mul", "model_124/tf.strided_slice_28/ones_like/tensor", "model_124/tf.strided_slice_28/StridedSlice/end", "model_124/tf.strided_slice_28/ones_like"], "attr": {"new_axis_mask": {"i": "0"}, "ellipsis_mask": {"i": "0"}, "shrink_axis_mask": {"i": "0"}, "end_mask": {"i": "7"}, "Index": {"type": "DT_INT64"}, "T": {"type": "DT_FLOAT"}, "begin_mask": {"i": "7"}}}, {"name": "model_124/tf.math.add_162/Add", "op": "_FusedConv2D", "input": ["model_124/tf.strided_slice_28/StridedSlice", "model_124/tf.nn.convolution_247/convolution/filter", "model_124/tf.math.add_162/Add/y"], "device": "/device:CPU:0", "attr": {"strides": {"list": {"i": ["1", "1", "1", "1"]}}, "num_args": {"i": "1"}, "filter_format": {"s": "SFdJTw=="}, "leakyrelu_alpha": {"f": 0.2}, "num_host_args": {"i": "0"}, "fused_ops": {"list": {"s": ["Qmlhc0FkZA=="]}}, "TArgs": {"list": {"type": ["DT_FLOAT"]}}, "explicit_paddings": {"list": {}}, "data_format": {"s": "TkhXQw=="}, "T": {"type": "DT_FLOAT"}, "epsilon": {"f": 0.0}, "use_cudnn_on_gpu": {"b": true}, "padding": {"s": "U0FNRQ=="}, "dilations": {"list": {"i": ["1", "1", "1", "1"]}}}}, {"name": "model_124/tf.math.add_165/Add", "op": "_FusedConv2D", "input": ["model_124/tf.strided_slice_28/StridedSlice", "model_124/tf.nn.convolution_250/convolution/filter", "model_124/tf.math.add_165/Add/y"], "device": "/device:CPU:0", "attr": {"num_args": {"i": "1"}, "explicit_paddings": {"list": {}}, "num_host_args": {"i": "0"}, "T": {"type": "DT_FLOAT"}, "strides": {"list": {"i": ["1", "1", "1", "1"]}}, "data_format": {"s": "TkhXQw=="}, "use_cudnn_on_gpu": {"b": true}, "padding": {"s": "U0FNRQ=="}, "fused_ops": {"list": {"s": ["Qmlhc0FkZA=="]}}, "filter_format": {"s": "SFdJTw=="}, "dilations": {"list": {"i": ["1", "1", "1", "1"]}}, "leakyrelu_alpha": {"f": 0.2}, "TArgs": {"list": {"type": ["DT_FLOAT"]}}, "epsilon": {"f": 0.0}}}, {"name": "model_124/tf.math.sigmoid_100/Sigmoid", "op": "Sigmoid", "input": ["model_124/tf.math.add_162/Add"], "attr": {"T": {"type": "DT_FLOAT"}}}, {"name": "model_124/tf.math.sigmoid_101/Sigmoid", "op": "Sigmoid", "input": ["model_124/tf.math.add_165/Add"], "attr": {"T": {"type": "DT_FLOAT"}}}, {"name": "model_124/tf.math.multiply_446/Mul", "op": "Mul", "input": ["model_124/tf.math.add_162/Add", "model_124/tf.math.sigmoid_100/Sigmoid"], "attr": {"T": {"type": "DT_FLOAT"}}}, {"name": "model_124/tf.math.multiply_450/Mul", "op": "Mul", "input": ["model_124/tf.math.add_165/Add", "model_124/tf.math.sigmoid_101/Sigmoid"], "attr": {"T": {"type": "DT_FLOAT"}}}, {"name": "model_124/tf.math.add_166/Add", "op": "_FusedConv2D", "input": ["model_124/tf.math.multiply_446/Mul", "model_124/tf.nn.convolution_251/convolution/filter", "model_124/tf.math.add_166/Add/y"], "device": "/device:CPU:0", "attr": {"TArgs": {"list": {"type": ["DT_FLOAT"]}}, "explicit_paddings": {"list": {}}, "leakyrelu_alpha": {"f": 0.2}, "epsilon": {"f": 0.0}, "dilations": {"list": {"i": ["1", "1", "1", "1"]}}, "num_args": {"i": "1"}, "num_host_args": {"i": "0"}, "padding": {"s": "U0FNRQ=="}, "use_cudnn_on_gpu": {"b": true}, "strides": {"list": {"i": ["1", "1", "1", "1"]}}, "filter_format": {"s": "SFdJTw=="}, "fused_ops": {"list": {"s": ["Qmlhc0FkZA=="]}}, "data_format": {"s": "TkhXQw=="}, "T": {"type": "DT_FLOAT"}}}, {"name": "model_124/tf.math.sigmoid_102/Sigmoid", "op": "Sigmoid", "input": ["model_124/tf.math.add_166/Add"], "attr": {"T": {"type": "DT_FLOAT"}}}, {"name": "model_124/tf.math.multiply_454/Mul", "op": "Mul", "input": ["model_124/tf.math.add_166/Add", "model_124/tf.math.sigmoid_102/Sigmoid"], "attr": {"T": {"type": "DT_FLOAT"}}}, {"name": "model_124/tf.math.add_167/Add", "op": "_FusedConv2D", "input": ["model_124/tf.math.multiply_454/Mul", "model_124/tf.nn.convolution_252/convolution/filter", "model_124/tf.math.add_167/Add/y"], "device": "/device:CPU:0", "attr": {"dilations": {"list": {"i": ["1", "1", "1", "1"]}}, "epsilon": {"f": 0.0}, "padding": {"s": "U0FNRQ=="}, "leakyrelu_alpha": {"f": 0.2}, "explicit_paddings": {"list": {}}, "fused_ops": {"list": {"s": ["Qmlhc0FkZA=="]}}, "use_cudnn_on_gpu": {"b": true}, "num_args": {"i": "1"}, "num_host_args": {"i": "0"}, "filter_format": {"s": "SFdJTw=="}, "T": {"type": "DT_FLOAT"}, "strides": {"list": {"i": ["1", "1", "1", "1"]}}, "data_format": {"s": "TkhXQw=="}, "TArgs": {"list": {"type": ["DT_FLOAT"]}}}}, {"name": "model_124/tf.math.sigmoid_103/Sigmoid", "op": "Sigmoid", "input": ["model_124/tf.math.add_167/Add"], "attr": {"T": {"type": "DT_FLOAT"}}}, {"name": "model_124/tf.math.multiply_458/Mul", "op": "Mul", "input": ["model_124/tf.math.add_167/Add", "model_124/tf.math.sigmoid_103/Sigmoid"], "attr": {"T": {"type": "DT_FLOAT"}}}, {"name": "model_124/tf.math.add_169/Add", "op": "AddV2", "input": ["model_124/tf.math.multiply_446/Mul", "model_124/tf.math.multiply_458/Mul"], "attr": {"T": {"type": "DT_FLOAT"}}}, {"name": "model_124/tf.math.add_170/Add", "op": "_FusedConv2D", "input": ["model_124/tf.math.add_169/Add", "model_124/tf.nn.convolution_253/convolution/filter", "model_124/tf.math.add_170/Add/y"], "device": "/device:CPU:0", "attr": {"epsilon": {"f": 0.0}, "num_host_args": {"i": "0"}, "fused_ops": {"list": {"s": ["Qmlhc0FkZA=="]}}, "num_args": {"i": "1"}, "use_cudnn_on_gpu": {"b": true}, "leakyrelu_alpha": {"f": 0.2}, "TArgs": {"list": {"type": ["DT_FLOAT"]}}, "T": {"type": "DT_FLOAT"}, "explicit_paddings": {"list": {}}, "strides": {"list": {"i": ["1", "1", "1", "1"]}}, "dilations": {"list": {"i": ["1", "1", "1", "1"]}}, "data_format": {"s": "TkhXQw=="}, "padding": {"s": "U0FNRQ=="}, "filter_format": {"s": "SFdJTw=="}}}, {"name": "model_124/tf.math.sigmoid_104/Sigmoid", "op": "Sigmoid", "input": ["model_124/tf.math.add_170/Add"], "attr": {"T": {"type": "DT_FLOAT"}}}, {"name": "model_124/tf.math.multiply_464/Mul", "op": "Mul", "input": ["model_124/tf.math.add_170/Add", "model_124/tf.math.sigmoid_104/Sigmoid"], "attr": {"T": {"type": "DT_FLOAT"}}}, {"name": "model_124/tf.math.add_171/Add", "op": "_FusedConv2D", "input": ["model_124/tf.math.multiply_464/Mul", "model_124/tf.nn.convolution_254/convolution/filter", "model_124/tf.math.add_171/Add/y"], "device": "/device:CPU:0", "attr": {"TArgs": {"list": {"type": ["DT_FLOAT"]}}, "strides": {"list": {"i": ["1", "1", "1", "1"]}}, "padding": {"s": "U0FNRQ=="}, "T": {"type": "DT_FLOAT"}, "filter_format": {"s": "SFdJTw=="}, "fused_ops": {"list": {"s": ["Qmlhc0FkZA=="]}}, "num_host_args": {"i": "0"}, "use_cudnn_on_gpu": {"b": true}, "dilations": {"list": {"i": ["1", "1", "1", "1"]}}, "leakyrelu_alpha": {"f": 0.2}, "data_format": {"s": "TkhXQw=="}, "epsilon": {"f": 0.0}, "num_args": {"i": "1"}, "explicit_paddings": {"list": {}}}}, {"name": "model_124/tf.math.sigmoid_105/Sigmoid", "op": "Sigmoid", "input": ["model_124/tf.math.add_171/Add"], "attr": {"T": {"type": "DT_FLOAT"}}}, {"name": "model_124/tf.math.multiply_468/Mul", "op": "Mul", "input": ["model_124/tf.math.add_171/Add", "model_124/tf.math.sigmoid_105/Sigmoid"], "attr": {"T": {"type": "DT_FLOAT"}}}, {"name": "model_124/tf.math.add_173/Add", "op": "AddV2", "input": ["model_124/tf.math.add_169/Add", "model_124/tf.math.multiply_468/Mul"], "attr": {"T": {"type": "DT_FLOAT"}}}, {"name": "model_124/tf.concat_32/concat", "op": "ConcatV2", "input": ["model_124/tf.math.add_173/Add", "model_124/tf.math.multiply_450/Mul", "model_124/tf.concat_32/concat/axis"], "attr": {"Tidx": {"type": "DT_INT32"}, "T": {"type": "DT_FLOAT"}, "N": {"i": "2"}}}, {"name": "model_124/tf.math.add_176/Add", "op": "_FusedConv2D", "input": ["model_124/tf.concat_32/concat", "model_124/tf.nn.convolution_257/convolution/filter", "model_124/tf.math.add_176/Add/y"], "device": "/device:CPU:0", "attr": {"dilations": {"list": {"i": ["1", "1", "1", "1"]}}, "num_args": {"i": "1"}, "use_cudnn_on_gpu": {"b": true}, "T": {"type": "DT_FLOAT"}, "fused_ops": {"list": {"s": ["Qmlhc0FkZA=="]}}, "padding": {"s": "U0FNRQ=="}, "filter_format": {"s": "SFdJTw=="}, "data_format": {"s": "TkhXQw=="}, "num_host_args": {"i": "0"}, "TArgs": {"list": {"type": ["DT_FLOAT"]}}, "explicit_paddings": {"list": {}}, "strides": {"list": {"i": ["1", "1", "1", "1"]}}, "leakyrelu_alpha": {"f": 0.2}, "epsilon": {"f": 0.0}}}, {"name": "model_124/tf.math.sigmoid_106/Sigmoid", "op": "Sigmoid", "input": ["model_124/tf.math.add_176/Add"], "attr": {"T": {"type": "DT_FLOAT"}}}, {"name": "model_124/tf.math.multiply_474/Mul", "op": "Mul", "input": ["model_124/tf.math.add_176/Add", "model_124/tf.math.sigmoid_106/Sigmoid"], "attr": {"T": {"type": "DT_FLOAT"}}}, {"name": "model_124/tf.concat_33/concat", "op": "ConcatV2", "input": ["model_124/tf.strided_slice_27/StridedSlice", "model_124/tf.strided_slice_28/StridedSlice", "model_124/tf.math.multiply_474/Mul", "model_124/tf.concat_33/concat/axis"], "attr": {"Tidx": {"type": "DT_INT32"}, "T": {"type": "DT_FLOAT"}, "N": {"i": "3"}}}, {"name": "model_124/tf.math.add_177/Add", "op": "_FusedConv2D", "input": ["model_124/tf.concat_33/concat", "model_124/tf.nn.convolution_258/convolution/filter", "model_124/tf.math.add_177/Add/y"], "device": "/device:CPU:0", "attr": {"use_cudnn_on_gpu": {"b": true}, "padding": {"s": "U0FNRQ=="}, "fused_ops": {"list": {"s": ["Qmlhc0FkZA=="]}}, "T": {"type": "DT_FLOAT"}, "strides": {"list": {"i": ["1", "1", "1", "1"]}}, "epsilon": {"f": 0.0}, "explicit_paddings": {"list": {}}, "filter_format": {"s": "SFdJTw=="}, "num_host_args": {"i": "0"}, "TArgs": {"list": {"type": ["DT_FLOAT"]}}, "dilations": {"list": {"i": ["1", "1", "1", "1"]}}, "data_format": {"s": "TkhXQw=="}, "leakyrelu_alpha": {"f": 0.2}, "num_args": {"i": "1"}}}, {"name": "model_124/tf.math.sigmoid_107/Sigmoid", "op": "Sigmoid", "input": ["model_124/tf.math.add_177/Add"], "attr": {"T": {"type": "DT_FLOAT"}}}, {"name": "model_124/tf.math.multiply_478/Mul", "op": "Mul", "input": ["model_124/tf.math.add_177/Add", "model_124/tf.math.sigmoid_107/Sigmoid"], "attr": {"T": {"type": "DT_FLOAT"}}}, {"name": "model_124/tf.compat.v1.pad_11/Pad", "op": "Pad", "input": ["model_124/tf.math.multiply_478/Mul", "model_124/tf.compat.v1.pad_11/Pad/paddings"], "attr": {"Tpaddings": {"type": "DT_INT32"}, "T": {"type": "DT_FLOAT"}}}, {"name": "model_124/tf.math.add_178/Add", "op": "_FusedConv2D", "input": ["model_124/tf.compat.v1.pad_11/Pad", "model_124/tf.nn.convolution_259/convolution/filter", "model_124/tf.math.add_178/Add/y"], "device": "/device:CPU:0", "attr": {"T": {"type": "DT_FLOAT"}, "dilations": {"list": {"i": ["1", "1", "1", "1"]}}, "num_host_args": {"i": "0"}, "filter_format": {"s": "SFdJTw=="}, "num_args": {"i": "1"}, "padding": {"s": "VkFMSUQ="}, "TArgs": {"list": {"type": ["DT_FLOAT"]}}, "strides": {"list": {"i": ["1", "2", "2", "1"]}}, "use_cudnn_on_gpu": {"b": true}, "leakyrelu_alpha": {"f": 0.2}, "epsilon": {"f": 0.0}, "explicit_paddings": {"list": {}}, "data_format": {"s": "TkhXQw=="}, "fused_ops": {"list": {"s": ["Qmlhc0FkZA=="]}}}}, {"name": "model_124/tf.math.sigmoid_108/Sigmoid", "op": "Sigmoid", "input": ["model_124/tf.math.add_178/Add"], "attr": {"T": {"type": "DT_FLOAT"}}}, {"name": "model_124/tf.math.multiply_482/Mul", "op": "Mul", "input": ["model_124/tf.math.add_178/Add", "model_124/tf.math.sigmoid_108/Sigmoid"], "attr": {"T": {"type": "DT_FLOAT"}}}, {"name": "model_124/tf.math.add_179/Add", "op": "_FusedConv2D", "input": ["model_124/tf.math.multiply_482/Mul", "model_124/tf.nn.convolution_260/convolution/filter", "model_124/tf.math.add_179/Add/y"], "device": "/device:CPU:0", "attr": {"fused_ops": {"list": {"s": ["Qmlhc0FkZA=="]}}, "dilations": {"list": {"i": ["1", "1", "1", "1"]}}, "padding": {"s": "U0FNRQ=="}, "explicit_paddings": {"list": {}}, "TArgs": {"list": {"type": ["DT_FLOAT"]}}, "use_cudnn_on_gpu": {"b": true}, "filter_format": {"s": "SFdJTw=="}, "data_format": {"s": "TkhXQw=="}, "epsilon": {"f": 0.0}, "T": {"type": "DT_FLOAT"}, "strides": {"list": {"i": ["1", "1", "1", "1"]}}, "leakyrelu_alpha": {"f": 0.2}, "num_host_args": {"i": "0"}, "num_args": {"i": "1"}}}, {"name": "model_124/tf.math.sigmoid_109/Sigmoid", "op": "Sigmoid", "input": ["model_124/tf.math.add_179/Add"], "attr": {"T": {"type": "DT_FLOAT"}}}, {"name": "model_124/tf.math.multiply_486/Mul", "op": "Mul", "input": ["model_124/tf.math.add_179/Add", "model_124/tf.math.sigmoid_109/Sigmoid"], "attr": {"T": {"type": "DT_FLOAT"}}}, {"name": "model_124/tf.strided_slice_29/StridedSlice", "op": "StridedSlice", "input": ["model_124/tf.math.multiply_486/Mul", "model_124/tf.strided_slice_29/ones_like/tensor", "model_124/tf.strided_slice_29/StridedSlice/end", "model_124/tf.strided_slice_29/ones_like"], "attr": {"begin_mask": {"i": "15"}, "shrink_axis_mask": {"i": "0"}, "T": {"type": "DT_FLOAT"}, "Index": {"type": "DT_INT64"}, "ellipsis_mask": {"i": "0"}, "new_axis_mask": {"i": "0"}, "end_mask": {"i": "7"}}}, {"name": "model_124/tf.strided_slice_30/StridedSlice", "op": "StridedSlice", "input": ["model_124/tf.math.multiply_486/Mul", "model_124/tf.strided_slice_30/ones_like/tensor", "model_124/tf.strided_slice_30/StridedSlice/end", "model_124/tf.strided_slice_30/ones_like"], "attr": {"Index": {"type": "DT_INT64"}, "end_mask": {"i": "7"}, "ellipsis_mask": {"i": "0"}, "new_axis_mask": {"i": "0"}, "shrink_axis_mask": {"i": "0"}, "T": {"type": "DT_FLOAT"}, "begin_mask": {"i": "7"}}}, {"name": "model_124/tf.math.add_180/Add", "op": "_FusedConv2D", "input": ["model_124/tf.strided_slice_30/StridedSlice", "model_124/tf.nn.convolution_261/convolution/filter", "model_124/tf.math.add_180/Add/y"], "device": "/device:CPU:0", "attr": {"filter_format": {"s": "SFdJTw=="}, "num_host_args": {"i": "0"}, "num_args": {"i": "1"}, "TArgs": {"list": {"type": ["DT_FLOAT"]}}, "strides": {"list": {"i": ["1", "1", "1", "1"]}}, "leakyrelu_alpha": {"f": 0.2}, "fused_ops": {"list": {"s": ["Qmlhc0FkZA=="]}}, "data_format": {"s": "TkhXQw=="}, "use_cudnn_on_gpu": {"b": true}, "epsilon": {"f": 0.0}, "dilations": {"list": {"i": ["1", "1", "1", "1"]}}, "padding": {"s": "U0FNRQ=="}, "explicit_paddings": {"list": {}}, "T": {"type": "DT_FLOAT"}}}, {"name": "model_124/tf.math.add_181/Add", "op": "_FusedConv2D", "input": ["model_124/tf.strided_slice_30/StridedSlice", "model_124/tf.nn.convolution_262/convolution/filter", "model_124/tf.math.add_181/Add/y"], "device": "/device:CPU:0", "attr": {"dilations": {"list": {"i": ["1", "1", "1", "1"]}}, "epsilon": {"f": 0.0}, "use_cudnn_on_gpu": {"b": true}, "num_args": {"i": "1"}, "TArgs": {"list": {"type": ["DT_FLOAT"]}}, "leakyrelu_alpha": {"f": 0.2}, "padding": {"s": "U0FNRQ=="}, "T": {"type": "DT_FLOAT"}, "explicit_paddings": {"list": {}}, "filter_format": {"s": "SFdJTw=="}, "num_host_args": {"i": "0"}, "fused_ops": {"list": {"s": ["Qmlhc0FkZA=="]}}, "strides": {"list": {"i": ["1", "1", "1", "1"]}}, "data_format": {"s": "TkhXQw=="}}}, {"name": "model_124/tf.math.sigmoid_110/Sigmoid", "op": "Sigmoid", "input": ["model_124/tf.math.add_180/Add"], "attr": {"T": {"type": "DT_FLOAT"}}}, {"name": "model_124/tf.math.sigmoid_111/Sigmoid", "op": "Sigmoid", "input": ["model_124/tf.math.add_181/Add"], "attr": {"T": {"type": "DT_FLOAT"}}}, {"name": "model_124/tf.math.multiply_490/Mul", "op": "Mul", "input": ["model_124/tf.math.add_180/Add", "model_124/tf.math.sigmoid_110/Sigmoid"], "attr": {"T": {"type": "DT_FLOAT"}}}, {"name": "model_124/tf.math.multiply_494/Mul", "op": "Mul", "input": ["model_124/tf.math.add_181/Add", "model_124/tf.math.sigmoid_111/Sigmoid"], "attr": {"T": {"type": "DT_FLOAT"}}}, {"name": "model_124/tf.math.add_182/Add", "op": "_FusedConv2D", "input": ["model_124/tf.math.multiply_490/Mul", "model_124/tf.nn.convolution_263/convolution/filter", "model_124/tf.math.add_182/Add/y"], "device": "/device:CPU:0", "attr": {"data_format": {"s": "TkhXQw=="}, "T": {"type": "DT_FLOAT"}, "leakyrelu_alpha": {"f": 0.2}, "filter_format": {"s": "SFdJTw=="}, "padding": {"s": "U0FNRQ=="}, "strides": {"list": {"i": ["1", "1", "1", "1"]}}, "dilations": {"list": {"i": ["1", "1", "1", "1"]}}, "num_args": {"i": "1"}, "fused_ops": {"list": {"s": ["Qmlhc0FkZA=="]}}, "epsilon": {"f": 0.0}, "num_host_args": {"i": "0"}, "use_cudnn_on_gpu": {"b": true}, "TArgs": {"list": {"type": ["DT_FLOAT"]}}, "explicit_paddings": {"list": {}}}}, {"name": "model_124/tf.math.sigmoid_112/Sigmoid", "op": "Sigmoid", "input": ["model_124/tf.math.add_182/Add"], "attr": {"T": {"type": "DT_FLOAT"}}}, {"name": "model_124/tf.math.multiply_498/Mul", "op": "Mul", "input": ["model_124/tf.math.add_182/Add", "model_124/tf.math.sigmoid_112/Sigmoid"], "attr": {"T": {"type": "DT_FLOAT"}}}, {"name": "model_124/tf.math.add_183/Add", "op": "_FusedConv2D", "input": ["model_124/tf.math.multiply_498/Mul", "model_124/tf.nn.convolution_264/convolution/filter", "model_124/tf.math.add_183/Add/y"], "device": "/device:CPU:0", "attr": {"fused_ops": {"list": {"s": ["Qmlhc0FkZA=="]}}, "TArgs": {"list": {"type": ["DT_FLOAT"]}}, "T": {"type": "DT_FLOAT"}, "strides": {"list": {"i": ["1", "1", "1", "1"]}}, "padding": {"s": "U0FNRQ=="}, "use_cudnn_on_gpu": {"b": true}, "num_args": {"i": "1"}, "dilations": {"list": {"i": ["1", "1", "1", "1"]}}, "data_format": {"s": "TkhXQw=="}, "num_host_args": {"i": "0"}, "filter_format": {"s": "SFdJTw=="}, "explicit_paddings": {"list": {}}, "leakyrelu_alpha": {"f": 0.2}, "epsilon": {"f": 0.0}}}, {"name": "model_124/tf.math.sigmoid_113/Sigmoid", "op": "Sigmoid", "input": ["model_124/tf.math.add_183/Add"], "attr": {"T": {"type": "DT_FLOAT"}}}, {"name": "model_124/tf.math.multiply_502/Mul", "op": "Mul", "input": ["model_124/tf.math.add_183/Add", "model_124/tf.math.sigmoid_113/Sigmoid"], "attr": {"T": {"type": "DT_FLOAT"}}}, {"name": "model_124/tf.math.add_185/Add", "op": "AddV2", "input": ["model_124/tf.math.multiply_490/Mul", "model_124/tf.math.multiply_502/Mul"], "attr": {"T": {"type": "DT_FLOAT"}}}, {"name": "model_124/tf.math.add_186/Add", "op": "_FusedConv2D", "input": ["model_124/tf.math.add_185/Add", "model_124/tf.nn.convolution_265/convolution/filter", "model_124/tf.math.add_186/Add/y"], "device": "/device:CPU:0", "attr": {"num_host_args": {"i": "0"}, "strides": {"list": {"i": ["1", "1", "1", "1"]}}, "leakyrelu_alpha": {"f": 0.2}, "T": {"type": "DT_FLOAT"}, "use_cudnn_on_gpu": {"b": true}, "TArgs": {"list": {"type": ["DT_FLOAT"]}}, "epsilon": {"f": 0.0}, "dilations": {"list": {"i": ["1", "1", "1", "1"]}}, "num_args": {"i": "1"}, "explicit_paddings": {"list": {}}, "padding": {"s": "U0FNRQ=="}, "data_format": {"s": "TkhXQw=="}, "fused_ops": {"list": {"s": ["Qmlhc0FkZA=="]}}, "filter_format": {"s": "SFdJTw=="}}}, {"name": "model_124/tf.math.sigmoid_114/Sigmoid", "op": "Sigmoid", "input": ["model_124/tf.math.add_186/Add"], "attr": {"T": {"type": "DT_FLOAT"}}}, {"name": "model_124/tf.math.multiply_508/Mul", "op": "Mul", "input": ["model_124/tf.math.add_186/Add", "model_124/tf.math.sigmoid_114/Sigmoid"], "attr": {"T": {"type": "DT_FLOAT"}}}, {"name": "model_124/tf.math.add_187/Add", "op": "_FusedConv2D", "input": ["model_124/tf.math.multiply_508/Mul", "model_124/tf.nn.convolution_266/convolution/filter", "model_124/tf.math.add_187/Add/y"], "device": "/device:CPU:0", "attr": {"padding": {"s": "U0FNRQ=="}, "dilations": {"list": {"i": ["1", "1", "1", "1"]}}, "epsilon": {"f": 0.0}, "num_host_args": {"i": "0"}, "explicit_paddings": {"list": {}}, "num_args": {"i": "1"}, "TArgs": {"list": {"type": ["DT_FLOAT"]}}, "fused_ops": {"list": {"s": ["Qmlhc0FkZA=="]}}, "leakyrelu_alpha": {"f": 0.2}, "T": {"type": "DT_FLOAT"}, "filter_format": {"s": "SFdJTw=="}, "strides": {"list": {"i": ["1", "1", "1", "1"]}}, "data_format": {"s": "TkhXQw=="}, "use_cudnn_on_gpu": {"b": true}}}, {"name": "model_124/tf.math.sigmoid_115/Sigmoid", "op": "Sigmoid", "input": ["model_124/tf.math.add_187/Add"], "attr": {"T": {"type": "DT_FLOAT"}}}, {"name": "model_124/tf.math.multiply_512/Mul", "op": "Mul", "input": ["model_124/tf.math.add_187/Add", "model_124/tf.math.sigmoid_115/Sigmoid"], "attr": {"T": {"type": "DT_FLOAT"}}}, {"name": "model_124/tf.math.add_189/Add", "op": "AddV2", "input": ["model_124/tf.math.add_185/Add", "model_124/tf.math.multiply_512/Mul"], "attr": {"T": {"type": "DT_FLOAT"}}}, {"name": "model_124/tf.concat_34/concat", "op": "ConcatV2", "input": ["model_124/tf.math.add_189/Add", "model_124/tf.math.multiply_494/Mul", "model_124/tf.concat_34/concat/axis"], "attr": {"T": {"type": "DT_FLOAT"}, "N": {"i": "2"}, "Tidx": {"type": "DT_INT32"}}}, {"name": "model_124/tf.math.add_190/Add", "op": "_FusedConv2D", "input": ["model_124/tf.concat_34/concat", "model_124/tf.nn.convolution_267/convolution/filter", "model_124/tf.math.add_190/Add/y"], "device": "/device:CPU:0", "attr": {"TArgs": {"list": {"type": ["DT_FLOAT"]}}, "fused_ops": {"list": {"s": ["Qmlhc0FkZA=="]}}, "epsilon": {"f": 0.0}, "num_host_args": {"i": "0"}, "filter_format": {"s": "SFdJTw=="}, "dilations": {"list": {"i": ["1", "1", "1", "1"]}}, "explicit_paddings": {"list": {}}, "use_cudnn_on_gpu": {"b": true}, "data_format": {"s": "TkhXQw=="}, "padding": {"s": "U0FNRQ=="}, "num_args": {"i": "1"}, "strides": {"list": {"i": ["1", "1", "1", "1"]}}, "T": {"type": "DT_FLOAT"}, "leakyrelu_alpha": {"f": 0.2}}}, {"name": "model_124/tf.math.sigmoid_116/Sigmoid", "op": "Sigmoid", "input": ["model_124/tf.math.add_190/Add"], "attr": {"T": {"type": "DT_FLOAT"}}}, {"name": "model_124/tf.math.multiply_518/Mul", "op": "Mul", "input": ["model_124/tf.math.add_190/Add", "model_124/tf.math.sigmoid_116/Sigmoid"], "attr": {"T": {"type": "DT_FLOAT"}}}, {"name": "model_124/tf.concat_35/concat", "op": "ConcatV2", "input": ["model_124/tf.strided_slice_29/StridedSlice", "model_124/tf.strided_slice_30/StridedSlice", "model_124/tf.math.multiply_518/Mul", "model_124/tf.concat_35/concat/axis"], "attr": {"T": {"type": "DT_FLOAT"}, "N": {"i": "3"}, "Tidx": {"type": "DT_INT32"}}}, {"name": "model_124/tf.math.add_191/Add", "op": "_FusedConv2D", "input": ["model_124/tf.concat_35/concat", "model_124/tf.nn.convolution_268/convolution/filter", "model_124/tf.math.add_191/Add/y"], "device": "/device:CPU:0", "attr": {"epsilon": {"f": 0.0}, "T": {"type": "DT_FLOAT"}, "filter_format": {"s": "SFdJTw=="}, "fused_ops": {"list": {"s": ["Qmlhc0FkZA=="]}}, "data_format": {"s": "TkhXQw=="}, "padding": {"s": "U0FNRQ=="}, "explicit_paddings": {"list": {}}, "TArgs": {"list": {"type": ["DT_FLOAT"]}}, "dilations": {"list": {"i": ["1", "1", "1", "1"]}}, "num_host_args": {"i": "0"}, "use_cudnn_on_gpu": {"b": true}, "num_args": {"i": "1"}, "strides": {"list": {"i": ["1", "1", "1", "1"]}}, "leakyrelu_alpha": {"f": 0.2}}}, {"name": "model_124/tf.math.sigmoid_117/Sigmoid", "op": "Sigmoid", "input": ["model_124/tf.math.add_191/Add"], "attr": {"T": {"type": "DT_FLOAT"}}}, {"name": "model_124/tf.math.multiply_522/Mul", "op": "Mul", "input": ["model_124/tf.math.add_191/Add", "model_124/tf.math.sigmoid_117/Sigmoid"], "attr": {"T": {"type": "DT_FLOAT"}}}, {"name": "model_124/tf.math.add_192/Add", "op": "_FusedConv2D", "input": ["model_124/tf.math.multiply_522/Mul", "model_124/tf.nn.convolution_269/convolution/filter", "model_124/tf.math.add_192/Add/y"], "device": "/device:CPU:0", "attr": {"strides": {"list": {"i": ["1", "1", "1", "1"]}}, "explicit_paddings": {"list": {}}, "padding": {"s": "U0FNRQ=="}, "leakyrelu_alpha": {"f": 0.2}, "T": {"type": "DT_FLOAT"}, "filter_format": {"s": "SFdJTw=="}, "use_cudnn_on_gpu": {"b": true}, "data_format": {"s": "TkhXQw=="}, "num_host_args": {"i": "0"}, "epsilon": {"f": 0.0}, "fused_ops": {"list": {"s": ["Qmlhc0FkZA=="]}}, "dilations": {"list": {"i": ["1", "1", "1", "1"]}}, "TArgs": {"list": {"type": ["DT_FLOAT"]}}, "num_args": {"i": "1"}}}, {"name": "model_124/tf.math.sigmoid_118/Sigmoid", "op": "Sigmoid", "input": ["model_124/tf.math.add_192/Add"], "attr": {"T": {"type": "DT_FLOAT"}}}, {"name": "model_124/tf.math.multiply_526/Mul", "op": "Mul", "input": ["model_124/tf.math.add_192/Add", "model_124/tf.math.sigmoid_118/Sigmoid"], "attr": {"T": {"type": "DT_FLOAT"}}}, {"name": "model_124/tf.compat.v1.nn.pool_3/max_pool", "op": "MaxPool", "input": ["model_124/tf.math.multiply_526/Mul"], "attr": {"data_format": {"s": "TkhXQw=="}, "ksize": {"list": {"i": ["1", "5", "5", "1"]}}, "explicit_paddings": {"list": {}}, "strides": {"list": {"i": ["1", "1", "1", "1"]}}, "padding": {"s": "U0FNRQ=="}, "T": {"type": "DT_FLOAT"}}}, {"name": "model_124/tf.compat.v1.nn.pool_4/max_pool", "op": "MaxPool", "input": ["model_124/tf.compat.v1.nn.pool_3/max_pool"], "attr": {"strides": {"list": {"i": ["1", "1", "1", "1"]}}, "explicit_paddings": {"list": {}}, "padding": {"s": "U0FNRQ=="}, "T": {"type": "DT_FLOAT"}, "data_format": {"s": "TkhXQw=="}, "ksize": {"list": {"i": ["1", "5", "5", "1"]}}}}, {"name": "model_124/tf.compat.v1.nn.pool_5/max_pool", "op": "MaxPool", "input": ["model_124/tf.compat.v1.nn.pool_4/max_pool"], "attr": {"T": {"type": "DT_FLOAT"}, "ksize": {"list": {"i": ["1", "5", "5", "1"]}}, "padding": {"s": "U0FNRQ=="}, "data_format": {"s": "TkhXQw=="}, "explicit_paddings": {"list": {}}, "strides": {"list": {"i": ["1", "1", "1", "1"]}}}}, {"name": "model_124/tf.concat_36/concat", "op": "ConcatV2", "input": ["model_124/tf.math.multiply_526/Mul", "model_124/tf.compat.v1.nn.pool_3/max_pool", "model_124/tf.compat.v1.nn.pool_4/max_pool", "model_124/tf.compat.v1.nn.pool_5/max_pool", "model_124/tf.concat_36/concat/axis"], "attr": {"N": {"i": "4"}, "Tidx": {"type": "DT_INT32"}, "T": {"type": "DT_FLOAT"}}}, {"name": "model_124/tf.math.add_193/Add", "op": "_FusedConv2D", "input": ["model_124/tf.concat_36/concat", "model_124/tf.nn.convolution_270/convolution/filter", "model_124/tf.math.add_193/Add/y"], "device": "/device:CPU:0", "attr": {"T": {"type": "DT_FLOAT"}, "num_host_args": {"i": "0"}, "TArgs": {"list": {"type": ["DT_FLOAT"]}}, "num_args": {"i": "1"}, "strides": {"list": {"i": ["1", "1", "1", "1"]}}, "data_format": {"s": "TkhXQw=="}, "use_cudnn_on_gpu": {"b": true}, "dilations": {"list": {"i": ["1", "1", "1", "1"]}}, "leakyrelu_alpha": {"f": 0.2}, "padding": {"s": "U0FNRQ=="}, "fused_ops": {"list": {"s": ["Qmlhc0FkZA=="]}}, "filter_format": {"s": "SFdJTw=="}, "epsilon": {"f": 0.0}, "explicit_paddings": {"list": {}}}}, {"name": "model_124/tf.math.sigmoid_119/Sigmoid", "op": "Sigmoid", "input": ["model_124/tf.math.add_193/Add"], "attr": {"T": {"type": "DT_FLOAT"}}}, {"name": "model_124/tf.math.multiply_530/Mul", "op": "Mul", "input": ["model_124/tf.math.add_193/Add", "model_124/tf.math.sigmoid_119/Sigmoid"], "attr": {"T": {"type": "DT_FLOAT"}}}, {"name": "model_124/tf.math.add_194/Add", "op": "_FusedConv2D", "input": ["model_124/tf.math.multiply_530/Mul", "model_124/tf.nn.convolution_271/convolution/filter", "model_124/tf.math.add_194/Add/y"], "device": "/device:CPU:0", "attr": {"data_format": {"s": "TkhXQw=="}, "leakyrelu_alpha": {"f": 0.2}, "epsilon": {"f": 0.0}, "filter_format": {"s": "SFdJTw=="}, "fused_ops": {"list": {"s": ["Qmlhc0FkZA=="]}}, "padding": {"s": "U0FNRQ=="}, "explicit_paddings": {"list": {}}, "num_host_args": {"i": "0"}, "T": {"type": "DT_FLOAT"}, "num_args": {"i": "1"}, "dilations": {"list": {"i": ["1", "1", "1", "1"]}}, "TArgs": {"list": {"type": ["DT_FLOAT"]}}, "strides": {"list": {"i": ["1", "1", "1", "1"]}}, "use_cudnn_on_gpu": {"b": true}}}, {"name": "model_124/tf.math.sigmoid_120/Sigmoid", "op": "Sigmoid", "input": ["model_124/tf.math.add_194/Add"], "attr": {"T": {"type": "DT_FLOAT"}}}, {"name": "model_124/tf.math.multiply_534/Mul", "op": "Mul", "input": ["model_124/tf.math.add_194/Add", "model_124/tf.math.sigmoid_120/Sigmoid"], "attr": {"T": {"type": "DT_FLOAT"}}}, {"name": "model_124/tf.split_2/split", "op": "Split", "input": ["model_124/tf.split_2/split/split_dim", "model_124/tf.math.multiply_534/Mul"], "attr": {"T": {"type": "DT_FLOAT"}, "num_split": {"i": "2"}}}, {"name": "model_124/tf.math.add_195/Add", "op": "_FusedConv2D", "input": ["model_124/tf.split_2/split:1", "model_124/tf.nn.convolution_272/convolution/filter", "model_124/tf.math.add_195/Add/y"], "device": "/device:CPU:0", "attr": {"data_format": {"s": "TkhXQw=="}, "dilations": {"list": {"i": ["1", "1", "1", "1"]}}, "TArgs": {"list": {"type": ["DT_FLOAT"]}}, "epsilon": {"f": 0.0}, "use_cudnn_on_gpu": {"b": true}, "T": {"type": "DT_FLOAT"}, "filter_format": {"s": "SFdJTw=="}, "num_args": {"i": "1"}, "explicit_paddings": {"list": {}}, "strides": {"list": {"i": ["1", "1", "1", "1"]}}, "num_host_args": {"i": "0"}, "padding": {"s": "U0FNRQ=="}, "leakyrelu_alpha": {"f": 0.2}, "fused_ops": {"list": {"s": ["Qmlhc0FkZA=="]}}}}, {"name": "model_124/tf.compat.v1.transpose_80/transpose", "op": "Transpose", "input": ["model_124/tf.math.add_195/Add", "model_124/tf.compat.v1.transpose_80/transpose/perm"], "attr": {"Tperm": {"type": "DT_INT32"}, "T": {"type": "DT_FLOAT"}}}, {"name": "model_124/tf.reshape_35/Reshape", "op": "Reshape", "input": ["model_124/tf.compat.v1.transpose_80/transpose", "model_124/tf.reshape_35/Reshape/shape"], "attr": {"Tshape": {"type": "DT_INT32"}, "T": {"type": "DT_FLOAT"}}}, {"name": "model_124/tf.strided_slice_31/StridedSlice", "op": "StridedSlice", "input": ["model_124/tf.reshape_35/Reshape", "model_124/tf.strided_slice_31/StridedSlice/begin", "model_124/tf.strided_slice_31/StridedSlice/end", "model_124/tf.strided_slice_31/ones_like"], "attr": {"end_mask": {"i": "11"}, "T": {"type": "DT_FLOAT"}, "Index": {"type": "DT_INT32"}, "ellipsis_mask": {"i": "0"}, "shrink_axis_mask": {"i": "0"}, "begin_mask": {"i": "11"}, "new_axis_mask": {"i": "0"}}}, {"name": "model_124/tf.strided_slice_32/StridedSlice", "op": "StridedSlice", "input": ["model_124/tf.reshape_35/Reshape", "model_124/tf.strided_slice_32/StridedSlice/begin", "model_124/tf.strided_slice_32/StridedSlice/end", "model_124/tf.strided_slice_32/ones_like"], "attr": {"shrink_axis_mask": {"i": "0"}, "end_mask": {"i": "11"}, "Index": {"type": "DT_INT32"}, "ellipsis_mask": {"i": "0"}, "begin_mask": {"i": "11"}, "new_axis_mask": {"i": "0"}, "T": {"type": "DT_FLOAT"}}}, {"name": "model_124/tf.strided_slice_33/StridedSlice", "op": "StridedSlice", "input": ["model_124/tf.reshape_35/Reshape", "model_124/tf.strided_slice_33/StridedSlice/begin", "model_124/tf.strided_slice_33/StridedSlice/end", "model_124/tf.strided_slice_33/ones_like"], "attr": {"Index": {"type": "DT_INT32"}, "ellipsis_mask": {"i": "0"}, "end_mask": {"i": "11"}, "shrink_axis_mask": {"i": "0"}, "T": {"type": "DT_FLOAT"}, "new_axis_mask": {"i": "0"}, "begin_mask": {"i": "11"}}}, {"name": "model_124/tf.linalg.matmul_5/ArithmeticOptimizer/FoldTransposeIntoMatMul_MatMul", "op": "BatchMatMulV2", "input": ["model_124/tf.strided_slice_31/StridedSlice", "model_124/tf.strided_slice_32/StridedSlice"], "attr": {"grad_y": {"b": false}, "adj_x": {"b": true}, "adj_y": {"b": false}, "T": {"type": "DT_FLOAT"}, "grad_x": {"b": false}}}, {"name": "model_124/tf.reshape_38/Reshape", "op": "Reshape", "input": ["model_124/tf.strided_slice_33/StridedSlice", "model_124/tf.reshape_38/Reshape/shape"], "attr": {"T": {"type": "DT_FLOAT"}, "Tshape…
": "Sigmoid", "input": ["model_124/tf.strided_slice_43/StridedSlice"], "attr": {"T": {"type": "DT_FLOAT"}}}, {"name": "model_124/tf.compat.v1.transpose_157/transpose", "op": "Transpose", "input": ["model_124/tf.reshape_62/Reshape", "model_124/tf.compat.v1.transpose_157/transpose/perm"], "attr": {"Tperm": {"type": "DT_INT32"}, "T": {"type": "DT_FLOAT"}}}, {"name": "model_124/tf.compat.v1.transpose_158/transpose", "op": "Transpose", "input": ["model_124/tf.compat.v1.transpose_157/transpose", "model_124/tf.compat.v1.transpose_158/transpose/perm"], "attr": {"T": {"type": "DT_FLOAT"}, "Tperm": {"type": "DT_INT32"}}}, {"name": "model_124/tf.nn.softmax_5//model.23/dfl/Softmax", "op": "Softmax", "input": ["model_124/tf.compat.v1.transpose_158/transpose"], "attr": {"T": {"type": "DT_FLOAT"}}}, {"name": "model_124/tf.nn.convolution_467/convolution", "op": "Conv2D", "input": ["model_124/tf.nn.softmax_5//model.23/dfl/Softmax", "model_124/tf.nn.convolution_467/convolution/filter"], "device": "/device:CPU:0", "attr": {"explicit_paddings": {"list": {}}, "T": {"type": "DT_FLOAT"}, "strides": {"list": {"i": ["1", "1", "1", "1"]}}, "data_format": {"s": "TkhXQw=="}, "dilations": {"list": {"i": ["1", "1", "1", "1"]}}, "padding": {"s": "U0FNRQ=="}, "use_cudnn_on_gpu": {"b": true}}}, {"name": "model_124/tf.compat.v1.transpose_163/transpose", "op": "Transpose", "input": ["model_124/tf.nn.convolution_467/convolution", "model_124/tf.compat.v1.transpose_163/transpose/perm"], "attr": {"Tperm": {"type": "DT_INT32"}, "T": {"type": "DT_FLOAT"}}}, {"name": "model_124/tf.reshape_65/Reshape", "op": "Reshape", "input": ["model_124/tf.compat.v1.transpose_163/transpose", "model_124/tf.reshape_65/Reshape/shape"], "attr": {"Tshape": {"type": "DT_INT32"}, "T": {"type": "DT_FLOAT"}}}, {"name": "model_124/tf.split_4/split", "op": "Split", "input": ["model_124/tf.split_4/split/split_dim", "model_124/tf.reshape_65/Reshape"], "attr": {"num_split": {"i": "2"}, "T": {"type": "DT_FLOAT"}}}, {"name": "model_124/tf.math.subtract_3/Sub", "op": "Sub", "input": ["model_124/tf.split_4/split:1", "model_124/tf.split_4/split"], "attr": {"T": {"type": "DT_FLOAT"}}}, {"name": "model_124/tf.math.add_287/Add", "op": "AddV2", "input": ["model_124/tf.split_4/split", "model_124/tf.split_4/split:1"], "attr": {"T": {"type": "DT_FLOAT"}}}, {"name": "model_124/tf.math.divide_1/truediv", "op": "Mul", "input": ["model_124/tf.math.subtract_3/Sub", "ConstantFolding/model_124/tf.math.divide_1/truediv_recip"], "attr": {"T": {"type": "DT_FLOAT"}}}, {"name": "model_124/tf.strided_slice_44/StridedSlice", "op": "StridedSlice", "input": ["model_124/tf.math.divide_1/truediv", "model_124/tf.strided_slice_44/StridedSlice/begin", "model_124/tf.strided_slice_44/StridedSlice/end", "model_124/tf.strided_slice_44/ones_like"], "attr": {"begin_mask": {"i": "0"}, "T": {"type": "DT_FLOAT"}, "ellipsis_mask": {"i": "0"}, "new_axis_mask": {"i": "0"}, "Index": {"type": "DT_INT32"}, "end_mask": {"i": "0"}, "shrink_axis_mask": {"i": "0"}}}, {"name": "model_124/tf.strided_slice_45/StridedSlice", "op": "StridedSlice", "input": ["model_124/tf.math.divide_1/truediv", "model_124/tf.strided_slice_45/StridedSlice/begin", "model_124/tf.strided_slice_45/StridedSlice/end", "model_124/tf.strided_slice_45/ones_like"], "attr": {"shrink_axis_mask": {"i": "0"}, "begin_mask": {"i": "0"}, "end_mask": {"i": "0"}, "new_axis_mask": {"i": "0"}, "ellipsis_mask": {"i": "0"}, "T": {"type": "DT_FLOAT"}, "Index": {"type": "DT_INT32"}}}, {"name": "model_124/tf.math.multiply_762/Mul", "op": "Mul", "input": ["model_124/tf.strided_slice_44/StridedSlice", "model_124/tf.math.cos/Cos"], "attr": {"T": {"type": "DT_FLOAT"}}}, {"name": "model_124/tf.math.multiply_770/Mul", "op": "Mul", "input": ["model_124/tf.strided_slice_44/StridedSlice", "model_124/tf.math.sin/Sin"], "attr": {"T": {"type": "DT_FLOAT"}}}, {"name": "model_124/tf.math.multiply_774/Mul", "op": "Mul", "input": ["model_124/tf.strided_slice_45/StridedSlice", "model_124/tf.math.cos/Cos"], "attr": {"T": {"type": "DT_FLOAT"}}}, {"name": "model_124/tf.math.multiply_766/Mul", "op": "Mul", "input": ["model_124/tf.strided_slice_45/StridedSlice", "model_124/tf.math.sin/Sin"], "attr": {"T": {"type": "DT_FLOAT"}}}, {"name": "model_124/tf.math.add_288/Add", "op": "AddV2", "input": ["model_124/tf.math.multiply_770/Mul", "model_124/tf.math.multiply_774/Mul"], "attr": {"T": {"type": "DT_FLOAT"}}}, {"name": "model_124/tf.math.subtract_4/Sub", "op": "Sub", "input": ["model_124/tf.math.multiply_762/Mul", "model_124/tf.math.multiply_766/Mul"], "attr": {"T": {"type": "DT_FLOAT"}}}, {"name": "model_124/tf.concat_62/concat", "op": "ConcatV2", "input": ["model_124/tf.math.subtract_4/Sub", "model_124/tf.math.add_288/Add", "model_124/tf.concat_62/concat/axis"], "attr": {"Tidx": {"type": "DT_INT32"}, "N": {"i": "2"}, "T": {"type": "DT_FLOAT"}}}, {"name": "model_124/tf.math.add_289/Add", "op": "AddV2", "input": ["model_124/tf.concat_62/concat", "model_124/tf.math.add_289/Add/y"], "attr": {"T": {"type": "DT_FLOAT"}}}, {"name": "model_124/tf.concat_66/concat", "op": "ConcatV2", "input": ["model_124/tf.math.add_289/Add", "model_124/tf.math.add_287/Add", "model_124/tf.concat_66/concat/axis"], "attr": {"T": {"type": "DT_FLOAT"}, "N": {"i": "2"}, "Tidx": {"type": "DT_INT32"}}}, {"name": "model_124/tf.math.multiply_784/Mul", "op": "Mul", "input": ["model_124/tf.concat_66/concat", "model_124/tf.math.multiply_784/Mul/y"], "attr": {"T": {"type": "DT_FLOAT"}}}, {"name": "model_124/output0/concat", "op": "ConcatV2", "input": ["model_124/tf.math.multiply_784/Mul", "model_124/tf.math.sigmoid_171/Sigmoid", "model_124/tf.math.multiply_747/Mul", "model_124/output0/concat/axis"], "attr": {"N": {"i": "3"}, "Tidx": {"type": "DT_INT32"}, "T": {"type": "DT_FLOAT"}}}, {"name": "Identity", "op": "Identity", "input": ["model_124/output0/concat"], "attr": {"T": {"type": "DT_FLOAT"}}}], "library": {}, "versions": {"producer": 1994}}, "weightsManifest": [{"paths": ["group1-shard1of3.bin", "group1-shard2of3.bin", "group1-shard3of3.bin"], "weights": [{"name": "model_124/tf.strided_slice_44/StridedSlice/begin", "shape": [3], "dtype": "int32"}, {"name": "model_124/tf.strided_slice_44/StridedSlice/end", "shape": [3], "dtype": "int32"}, {"name": "model_124/tf.strided_slice_44/ones_like", "shape": [3], "dtype": "int32"}, {"name": "ConstantFolding/model_124/tf.math.divide_1/truediv_recip", "shape": [1, 1, 1], "dtype": "float32"}, {"name": "model_124/tf.strided_slice_45/StridedSlice/begin", "shape": [3], "dtype": "int32"}, {"name": "model_124/tf.strided_slice_45/StridedSlice/end", "shape": [3], "dtype": "int32"}, {"name": "model_124/tf.strided_slice_45/ones_like", "shape": [3], "dtype": "int32"}, {"name": "model_124/tf.concat_62/concat/axis", "shape": [], "dtype": "int32"}, {"name": "model_124/tf.math.add_289/Add/y", "shape": [1, 2, 21504], "dtype": "float32"}, {"name": "model_124/tf.split_4/split/split_dim", "shape": [], "dtype": "int32"}, {"name": "model_124/tf.strided_slice_42/StridedSlice/begin", "shape": [3], "dtype": "int32"}, {"name": "model_124/tf.strided_slice_42/StridedSlice/end", "shape": [3], "dtype": "int32"}, {"name": "model_124/tf.strided_slice_42/StridedSlice/strides", "shape": [3], "dtype": "int32"}, {"name": "model_124/tf.reshape_62/Reshape/shape", "shape": [4], "dtype": "int32"}, {"name": "model_124/tf.compat.v1.transpose_157/transpose/perm", "shape": [4], "dtype": "int32"}, {"name": "model_124/tf.compat.v1.transpose_158/transpose/perm", "shape": [4], "dtype": "int32"}, {"name": "model_124/tf.nn.convolution_467/convolution/filter", "shape": [1, 1, 16, 1], "dtype": "float32"}, {"name": "model_124/tf.compat.v1.transpose_163/transpose/perm", "shape": [4], "dtype": "int32"}, {"name": "model_124/tf.reshape_65/Reshape/shape", "shape": [3], "dtype": "int32"}, {"name": "model_124/tf.concat_66/concat/axis", "shape": [], "dtype": "int32"}, {"name": "model_124/tf.math.multiply_784/Mul/y", "shape": [1, 1, 21504], "dtype": "float32"}, {"name": "model_124/tf.nn.convolution_417/convolution/filter", "shape": [3, 3, 64, 64], "dtype": "float32"}, {"name": "model_124/tf.math.add_223/Add/y", "shape": [64], "dtype": "float32"}, {"name": "model_124/tf.nn.convolution_419/convolution/filter", "shape": [3, 3, 64, 64], "dtype": "float32"}, {"name": "model_124/tf.math.add_226/Add/y", "shape": [64], "dtype": "float32"}, {"name": "model_124/tf.nn.convolution_423/convolution/filter", "shape": [1, 1, 64, 64], "dtype": "float32"}, {"name": "model_124/tf.math.add_230/Add/y", "shape": [64], "dtype": "float32"}, {"name": "model_124/tf.compat.v1.nn.depthwise_conv2d_8/depthwise/filter_in", "shape": [3, 3, 64, 1], "dtype": "float32"}, {"name": "model_124/tf.math.add_224/Add/y", "shape": [64], "dtype": "float32"}, {"name": "model_124/tf.nn.convolution_420/convolution/filter", "shape": [1, 1, 64, 64], "dtype": "float32"}, {"name": "model_124/tf.math.add_227/Add/y", "shape": [64], "dtype": "float32"}, {"name": "model_124/tf.compat.v1.nn.depthwise_conv2d_9/depthwise/filter_in", "shape": [3, 3, 64, 1], "dtype": "float32"}, {"name": "model_124/tf.math.add_231/Add/y", "shape": [64], "dtype": "float32"}, {"name": "model_124/tf.nn.convolution_427/convolution/filter", "shape": [1, 1, 64, 64], "dtype": "float32"}, {"name": "model_124/tf.math.add_235/Add/y", "shape": [64], "dtype": "float32"}, {"name": "model_124/tf.nn.convolution_429/convolution/filter", "shape": [1, 1, 64, 15], "dtype": "float32"}, {"name": "model_124/tf.math.add_237/Add/y", "shape": [15], "dtype": "float32"}, {"name": "model_124/tf.concat_48/concat/axis", "shape": [], "dtype": "int32"}, {"name": "model_124/tf.compat.v1.transpose_113/transpose/perm", "shape": [4], "dtype": "int32"}, {"name": "model_124/tf.reshape_47/Reshape/shape", "shape": [3], "dtype": "int32"}, {"name": "model_124/tf.nn.convolution_433/convolution/filter", "shape": [3, 3, 128, 64], "dtype": "float32"}, {"name": "model_124/tf.math.add_243/Add/y", "shape": [64], "dtype": "float32"}, {"name": "model_124/tf.nn.convolution_437/convolution/filter", "shape": [3, 3, 64, 64], "dtype": "float32"}, {"name": "model_124/tf.math.add_248/Add/y", "shape": [64], "dtype": "float32"}, {"name": "model_124/tf.nn.convolution_443/convolution/filter", "shape": [1, 1, 64, 64], "dtype": "float32"}, {"name": "model_124/tf.math.add_254/Add/y", "shape": [64], "dtype": "float32"}, {"name": "model_124/tf.compat.v1.nn.depthwise_conv2d_10/depthwise/filter_in", "shape": [3, 3, 128, 1], "dtype": "float32"}, {"name": "model_124/tf.math.add_244/Add/y", "shape": [128], "dtype": "float32"}, {"name": "model_124/tf.nn.convolution_438/convolution/filter", "shape": [1, 1, 128, 64], "dtype": "float32"}, {"name": "model_124/tf.math.add_249/Add/y", "shape": [64], "dtype": "float32"}, {"name": "model_124/tf.compat.v1.nn.depthwise_conv2d_13/depthwise/filter_in", "shape": [3, 3, 64, 1], "dtype": "float32"}, {"name": "model_124/tf.math.add_257/Add/y", "shape": [64], "dtype": "float32"}, {"name": "model_124/tf.nn.convolution_448/convolution/filter", "shape": [1, 1, 64, 64], "dtype": "float32"}, {"name": "model_124/tf.math.add_262/Add/y", "shape": [64], "dtype": "float32"}, {"name": "model_124/tf.nn.convolution_452/convolution/filter", "shape": [1, 1, 64, 15], "dtype": "float32"}, {"name": "model_124/tf.math.add_266/Add/y", "shape": [15], "dtype": "float32"}, {"name": "model_124/tf.concat_53/concat/axis", "shape": [], "dtype": "int32"}, {"name": "model_124/tf.compat.v1.transpose_140/transpose/perm", "shape": [4], "dtype": "int32"}, {"name": "model_124/tf.reshape_53/Reshape/shape", "shape": [3], "dtype": "int32"}, {"name": "model_124/tf.nn.convolution_459/convolution/filter", "shape": [3, 3, 256, 64], "dtype": "float32"}, {"name": "model_124/tf.math.add_277/Add/y", "shape": [64], "dtype": "float32"}, {"name": "model_124/tf.nn.convolution_461/convolution/filter", "shape": [3, 3, 64, 64], "dtype": "float32"}, {"name": "model_124/tf.math.add_280/Add/y", "shape": [64], "dtype": "float32"}, {"name": "model_124/tf.nn.convolution_464/convolution/filter", "shape": [1, 1, 64, 64], "dtype": "float32"}, {"name": "model_124/tf.math.add_283/Add/y", "shape": [64], "dtype": "float32"}, {"name": "model_124/tf.compat.v1.nn.depthwise_conv2d_14/depthwise/filter_in", "shape": [3, 3, 256, 1], "dtype": "float32"}, {"name": "model_124/tf.math.add_278/Add/y", "shape": [256], "dtype": "float32"}, {"name": "model_124/tf.nn.convolution_462/convolution/filter", "shape": [1, 1, 256, 64], "dtype": "float32"}, {"name": "model_124/tf.math.add_281/Add/y", "shape": [64], "dtype": "float32"}, {"name": "model_124/tf.compat.v1.nn.depthwise_conv2d_15/depthwise/filter_in", "shape": [3, 3, 64, 1], "dtype": "float32"}, {"name": "model_124/tf.math.add_284/Add/y", "shape": [64], "dtype": "float32"}, {"name": "model_124/tf.nn.convolution_465/convolution/filter", "shape": [1, 1, 64, 64], "dtype": "float32"}, {"name": "model_124/tf.math.add_285/Add/y", "shape": [64], "dtype": "float32"}, {"name": "model_124/tf.nn.convolution_466/convolution/filter", "shape": [1, 1, 64, 15], "dtype": "float32"}, {"name": "model_124/tf.math.add_286/Add/y", "shape": [15], "dtype": "float32"}, {"name": "model_124/tf.concat_57/concat/axis", "shape": [], "dtype": "int32"}, {"name": "model_124/tf.compat.v1.transpose_150/transpose/perm", "shape": [4], "dtype": "int32"}, {"name": "model_124/tf.reshape_59/Reshape/shape", "shape": [3], "dtype": "int32"}, {"name": "model_124/tf.concat_58/concat/axis", "shape": [], "dtype": "int32"}, {"name": "model_124/tf.strided_slice_43/StridedSlice/begin", "shape": [3], "dtype": "int32"}, {"name": "model_124/tf.strided_slice_43/StridedSlice/end", "shape": [3], "dtype": "int32"}, {"name": "model_124/tf.strided_slice_43/StridedSlice/strides", "shape": [3], "dtype": "int32"}, {"name": "model_124/tf.nn.convolution_416/convolution/filter", "shape": [3, 3, 64, 16], "dtype": "float32"}, {"name": "model_124/tf.math.add_222/Add/y", "shape": [16], "dtype": "float32"}, {"name": "model_124/tf.nn.convolution_418/convolution/filter", "shape": [3, 3, 16, 16], "dtype": "float32"}, {"name": "model_124/tf.math.add_225/Add/y", "shape": [16], "dtype": "float32"}, {"name": "model_124/tf.nn.convolution_422/convolution/filter", "shape": [1, 1, 16, 1], "dtype": "float32"}, {"name": "model_124/tf.math.add_229/Add/y", "shape": [1], "dtype": "float32"}, {"name": "model_124/tf.compat.v1.transpose_105/transpose/perm", "shape": [4], "dtype": "int32"}, {"name": "model_124/tf.reshape_44/Reshape/shape", "shape": [3], "dtype": "int32"}, {"name": "model_124/tf.nn.convolution_432/convolution/filter", "shape": [3, 3, 128, 16], "dtype": "float32"}, {"name": "model_124/tf.math.add_242/Add/y", "shape": [16], "dtype": "float32"}, {"name": "model_124/tf.nn.convolution_434/convolution/filter", "shape": [3, 3, 16, 16], "dtype": "float32"}, {"name": "model_124/tf.math.add_245/Add/y", "shape": [16], "dtype": "float32"}, {"name": "model_124/tf.nn.convolution_440/convolution/filter", "shape": [1, 1, 16, 1], "dtype": "float32"}, {"name": "model_124/tf.math.add_251/Add/y", "shape": [1], "dtype": "float32"}, {"name": "model_124/tf.compat.v1.transpose_129/transpose/perm", "shape": [4], "dtype": "int32"}, {"name": "model_124/tf.reshape_50/Reshape/shape", "shape": [3], "dtype": "int32"}, {"name": "model_124/tf.strided_slice_40/ones_like/tensor", "shape": [4], "dtype": "int32"}, {"name": "model_124/tf.strided_slice_40/StridedSlice/end", "shape": [4], "dtype": "int32"}, {"name": "model_124/tf.strided_slice_40/ones_like", "shape": [4], "dtype": "int32"}, {"name": "model_124/tf.nn.convolution_444/convolution/filter", "shape": [1, 1, 128, 64], "dtype": "float32"}, {"name": "model_124/tf.math.add_258/Add/y", "shape": [64], "dtype": "float32"}, {"name": "model_124/tf.nn.convolution_449/convolution/filter", "shape": [3, 3, 64, 64], "dtype": "float32"}, {"name": "model_124/tf.math.add_263/Add/y", "shape": [64], "dtype": "float32"}, {"name": "model_124/tf.nn.convolution_453/convolution/filter", "shape": [3, 3, 64, 64], "dtype": "float32"}, {"name": "model_124/tf.math.add_267/Add/y", "shape": [64], "dtype": "float32"}, {"name": "model_124/tf.nn.convolution_454/convolution/filter", "shape": [3, 3, 64, 64], "dtype": "float32"}, {"name": "model_124/tf.math.add_270/Add/y", "shape": [64], "dtype": "float32"}, {"name": "model_124/tf.nn.convolution_455/convolution/filter", "shape": [3, 3, 64, 64], "dtype": "float32"}, {"name": "model_124/tf.math.add_271/Add/y", "shape": [64], "dtype": "float32"}, {"name": "model_124/tf.strided_slice_38/ones_like/tensor", "shape": [4], "dtype": "int32"}, {"name": "model_124/tf.strided_slice_38/StridedSlice/end", "shape": [4], "dtype": "int32"}, {"name": "model_124/tf.strided_slice_38/ones_like", "shape": [4], "dtype": "int32"}, {"name": "model_124/tf.strided_slice_36/ones_like/tensor", "shape": [4], "dtype": "int32"}, {"name": "model_124/tf.strided_slice_36/StridedSlice/end", "shape": [4], "dtype": "int32"}, {"name": "model_124/tf.strided_slice_36/ones_like", "shape": [4], "dtype": "int32"}, {"name": "model_124/tf.image.resize_3/resize/size", "shape": [2], "dtype": "int32"}, {"name": "model_124/tf.concat_43/concat/axis", "shape": [], "dtype": "int32"}, {"name": "model_124/tf.nn.convolution_411/convolution/filter", "shape": [1, 1, 256, 64], "dtype": "float32"}, {"name": "model_124/tf.math.add_215/Add/y", "shape": [64], "dtype": "float32"}, {"name": "model_124/tf.strided_slice_37/ones_like/tensor", "shape": [4], "dtype": "int32"}, {"name": "model_124/tf.strided_slice_37/StridedSlice/end", "shape": [4], "dtype": "int32"}, {"name": "model_124/tf.strided_slice_37/ones_like", "shape": [4], "dtype": "int32"}, {"name": "model_124/tf.nn.convolution_412/convolution/filter", "shape": [3, 3, 32, 16], "dtype": "float32"}, {"name": "model_124/tf.math.add_216/Add/y", "shape": [16], "dtype": "float32"}, {"name": "model_124/tf.nn.convolution_413/convolution/filter", "shape": [3, 3, 16, 32], "dtype": "float32"}, {"name": "model_124/tf.math.add_217/Add/y", "shape": [32], "dtype": "float32"}, {"name": "model_124/tf.concat_44/concat/axis", "shape": [], "dtype": "int32"}, {"name": "model_124/tf.nn.convolution_414/convolution/filter", "shape": [1, 1, 96, 64], "dtype": "float32"}, {"name": "model_124/tf.math.add_220/Add/y", "shape": [64], "dtype": "float32"}, {"name": "model_124/tf.compat.v1.pad_12/Pad/paddings", "shape": [4, 2], "dtype": "int32"}, {"name": "model_124/tf.nn.convolution_415/convolution/filter", "shape": [3, 3, 64, 64], "dtype": "float32"}, {"name": "model_124/tf.math.add_221/Add/y", "shape": [64], "dtype": "float32"}, {"name": "model_124/tf.strided_slice_34/ones_like/tensor", "shape": [4], "dtype": "int32"}, {"name": "model_124/tf.strided_slice_34/StridedSlice/end", "shape": [4], "dtype": "int32"}, {"name": "model_124/tf.strided_slice_34/ones_like", "shape": [4], "dtype": "int32"}, {"name": "model_124/tf.image.resize_2/resize/size", "shape": [2], "dtype": "int32"}, {"name": "model_124/tf.concat_39/concat/axis", "shape": [], "dtype": "int32"}, {"name": "model_124/tf.nn.convolution_405/convolution/filter", "shape": [1, 1, 384, 128], "dtype": "float32"}, {"name": "model_124/tf.math.add_207/Add/y", "shape": [128], "dtype": "float32"}, {"name": "model_124/tf.strided_slice_35/ones_like/tensor", "shape": [4], "dtype": "int32"}, {"name": "model_124/tf.strided_slice_35/StridedSlice/end", "shape": [4], "dtype": "int32"}, {"name": "model_124/tf.strided_slice_35/ones_like", "shape": [4], "dtype": "int32"}, {"name": "model_124/tf.nn.convolution_408/convolution/filter", "shape": [3, 3, 64, 32], "dtype": "float32"}, {"name": "model_124/tf.math.add_210/Add/y", "shape": [32], "dtype": "float32"}, {"name": "model_124/tf.nn.convolution_409/convolution/filter", "shape": [3, 3, 32, 64], "dtype": "float32"}, {"name": "model_124/tf.math.add_211/Add/y", "shape": [64], "dtype": "float32"}, {"name": "model_124/tf.concat_40/concat/axis", "shape": [], "dtype": "int32"}, {"name": "model_124/tf.nn.convolution_410/convolution/filter", "shape": [1, 1, 192, 128], "dtype": "float32"}, {"name": "model_124/tf.math.add_214/Add/y", "shape": [128], "dtype": "float32"}, {"name": "model_124/tf.concat_47/concat/axis", "shape": [], "dtype": "int32"}, {"name": "model_124/tf.nn.convolution_421/convolution/filter", "shape": [1, 1, 192, 128], "dtype": "float32"}, {"name": "model_124/tf.math.add_228/Add/y", "shape": [128], "dtype": "float32"}, {"name": "model_124/tf.strided_slice_39/ones_like/tensor", "shape": [4], "dtype": "int32"}, {"name": "model_124/tf.strided_slice_39/StridedSlice/end", "shape": [4], "dtype": "int32"}, {"name": "model_124/tf.strided_slice_39/ones_like", "shape": [4], "dtype": "int32"}, {"name": "model_124/tf.nn.convolution_426/convolution/filter", "shape": [3, 3, 64, 32], "dtype": "float32"}, {"name": "model_124/tf.math.add_234/Add/y", "shape": [32], "dtype": "float32"}, {"name": "model_124/tf.nn.convolution_428/convolution/filter", "shape": [3, 3, 32, 64], "dtype": "float32"}, {"name": "model_124/tf.math.add_236/Add/y", "shape": [64], "dtype": "float32"}, {"name": "model_124/tf.concat_49/concat/axis", "shape": [], "dtype": "int32"}, {"name": "model_124/tf.nn.convolution_430/convolution/filter", "shape": [1, 1, 192, 128], "dtype": "float32"}, {"name": "model_124/tf.math.add_240/Add/y", "shape": [128], "dtype": "float32"}, {"name": "model_124/tf.compat.v1.pad_13/Pad/paddings", "shape": [4, 2], "dtype": "int32"}, {"name": "model_124/tf.nn.convolution_431/convolution/filter", "shape": [3, 3, 128, 128], "dtype": "float32"}, {"name": "model_124/tf.math.add_241/Add/y", "shape": [128], "dtype": "float32"}, {"name": "model_124/tf.math.add_203/Add/y", "shape": [128], "dtype": "float32"}, {"name": "model_124/tf.math.add_199/Add/y", "shape": [128], "dtype": "float32"}, {"name": "model_124/tf.math.add_196/Add/y", "shape": [128], "dtype": "float32"}, {"name": "model_124/tf.strided_slice_31/StridedSlice/begin", "shape": [4], "dtype": "int32"}, {"name": "model_124/tf.strided_slice_31/StridedSlice/end", "shape": [4], "dtype": "int32"}, {"name": "model_124/tf.strided_slice_31/ones_like", "shape": [4], "dtype": "int32"}, {"name": "model_124/tf.strided_slice_32/StridedSlice/begin", "shape": [4], "dtype": "int32"}, {"name": "model_124/tf.strided_slice_32/StridedSlice/end", "shape": [4], "dtype": "int32"}, {"name": "model_124/tf.strided_slice_32/ones_like", "shape": [4], "dtype": "int32"}, {"name": "model_124/tf.math.multiply_536/Mul/y", "shape": [1, 1, 1, 1], "dtype": "float32"}, {"name": "model_124/tf.reshape_41/Reshape/shape", "shape": [4], "dtype": "int32"}, {"name": "model_124/tf.compat.v1.transpose_95/transpose/perm", "shape": [4], "dtype": "int32"}, {"name": "model_124/tf.nn.convolution_273/convolution/filter", "shape": [3, 3, 1, 1], "dtype": "float32"}, {"name": "model_124/tf.nn.convolution_274/convolution/filter", "shape": [3, 3, 1, 1], "dtype": "float32"}, {"name": "model_124/tf.nn.convolution_275/convolution/filter", "shape": [3, 3, 1, 1], "dtype": "float32"}, {"name": "model_124/tf.nn.convolution_276/convolution/filter", "shape": [3, 3, 1, 1], "dtype": "float32"}, {"name": "model_124/tf.nn.convolution_277/convolution/filter", "shape": [3, 3, 1, 1], "dtype": "float32"}, {"name": "model_124/tf.nn.convolution_278/convolution/filter", "shape": [3, 3, 1, 1], "dtype": "float32"}, {"name": "model_124/tf.nn.convolution_279/convolution/filter", "shape": [3, 3, 1, 1], "dtype": "float32"}, {"name": "model_124/tf.nn.convolution_280/convolution/filter", "shape": [3, 3, 1, 1], "dtype": "float32"}, {"name": "model_124/tf.nn.convolution_281/convolution/filter", "shape": [3, 3, 1, 1], "dtype": "float32"}, {"name": "model_124/tf.nn.convolution_282/convolution/filter", "shape": [3, 3, 1, 1], "dtype": "float32"}, {"name": "model_124/tf.nn.convolution_283/convolution/filter", "shape": [3, 3, 1, 1], "dtype": "float32"}, {"name": "model_124/tf.nn.convolution_284/convolution/filter", "shape": [3, 3, 1, 1], "dtype": "float32"}, {"name": "model_124/tf.nn.convolution_285/convolution/filter", "shape": [3, 3, 1, 1], "dtype": "float32"}, {"name": "model_124/tf.nn.convolution_286/convolution/filter", "shape": [3, 3, 1, 1], "dtype": "float32"}, {"name": "model_124/tf.nn.convolution_287/convolution/filter", "shape": [3, 3, 1, 1], "dtype": "float32"}, {"name": "model_124/tf.nn.convolution_288/convolution/filter", "shape": [3, 3, 1, 1], "dtype": "float32"}, {"name": "model_124/tf.nn.convolution_289/convolution/filter", "shape": [3, 3, 1, 1], "dtype": "float32"}, {"name": "model_124/tf.nn.convolution_290/convolution/filter", "shape": [3, 3, 1, 1], "dtype": "float32"}, {"name": "model_124/tf.nn.convolution_291/convolution/filter", "shape": [3, 3, 1, 1], "dtype": "float32"}, {"name": "model_124/tf.nn.convolution_292/convolution/filter", "shape": [3, 3, 1, 1], "dtype": "float32"}, {"name": "model_124/tf.nn.convolution_293/convolution/filter", "shape": [3, 3, 1, 1], "dtype": "float32"}, {"name": "model_124/tf.nn.convolution_294/convolution/filter", "shape": [3, 3, 1, 1], "dtype": "float32"}, {"name": "model_124/tf.nn.convolution_295/convolution/filter", "shape": [3, 3, 1, 1], "dtype": "float32"}, {"name": "model_124/tf.nn.convolution_296/convolution/filter", "shape": [3, 3, 1, 1], "dtype": "float32"}, {"name": "model_124/tf.nn.convolution_297/convolution/filter", "shape": [3, 3, 1, 1], "dtype": "float32"}, {"name": "model_124/tf.nn.convolution_298/convolution/filter", "shape": [3, 3, 1, 1], "dtype": "float32"}, {"name": "model_124/tf.nn.convolution_299/convolution/filter", "shape": [3, 3, 1, 1], "dtype": "float32"}, {"name": "model_124/tf.nn.convolution_300/convolution/filter", "shape": [3, 3, 1, 1], "dtype": "float32"}, {"name": "model_124/tf.nn.convolution_301/convolution/filter", "shape": [3, 3, 1, 1], "dtype": "float32"}, {"name": "model_124/tf.nn.convolution_302/convolution/filter", "shape": [3, 3, 1, 1], "dtype": "float32"}, {"name": "model_124/tf.nn.convolution_303/convolution/filter", "shape": [3, 3, 1, 1], "dtype": "float32"}, {"name": "model_124/tf.nn.convolution_304/convolution/filter", "shape": [3, 3, 1, 1], "dtype": "float32"}, {"name": "model_124/tf.nn.convolution_305/convolution/filter", "shape": [3, 3, 1, 1], "dtype": "float32"}, {"name": "model_124/tf.nn.convolution_306/convolution/filter", "shape": [3, 3, 1, 1], "dtype": "float32"}, {"name": "model_124/tf.nn.convolution_307/convolution/filter", "shape": [3, 3, 1, 1], "dtype": "float32"}, {"name": "model_124/tf.nn.convolution_308/convolution/filter", "shape": [3, 3, 1, 1], "dtype": "float32"}, {"name": "model_124/tf.nn.convolution_309/convolution/filter", "shape": [3, 3, 1, 1], "dtype": "float32"}, {"name": "model_124/tf.nn.convolution_310/convolution/filter", "shape": [3, 3, 1, 1], "dtype": "float32"}, {"name": "model_124/tf.nn.convolution_311/convolution/filter", "shape": [3, 3, 1, 1], "dtype": "float32"}, {"name": "model_124/tf.nn.convolution_312/convolution/filter", "shape": [3, 3, 1, 1], "dtype": "float32"}, {"name": "model_124/tf.nn.convolution_313/convolution/filter", "shape": [3, 3, 1, 1], "dtype": "float32"}, {"name": "model_124/tf.nn.convolution_314/convolution/filter", "shape": [3, 3, 1, 1], "dtype": "float32"}, {"name": "model_124/tf.nn.convolution_315/convolution/filter", "shape": [3, 3, 1, 1], "dtype": "float32"}, {"name": "model_124/tf.nn.convolution_316/convolution/filter", "shape": [3, 3, 1, 1], "dtype": "float32"}, {"name": "model_124/tf.nn.convolution_317/convolution/filter", "shape": [3, 3, 1, 1], "dtype": "float32"}, {"name": "model_124/tf.nn.convolution_318/convolution/filter", "shape": [3, 3, 1, 1], "dtype": "float32"}, {"name": "model_124/tf.nn.convolution_319/convolution/filter", "shape": [3, 3, 1, 1], "dtype": "float32"}, {"name": "model_124/tf.nn.convolution_320/convolution/filter", "shape": [3, 3, 1, 1], "dtype": "float32"}, {"name": "model_124/tf.nn.convolution_321/convolution/filter", "shape": [3, 3, 1, 1], "dtype": "float32"}, {"name": "model_124/tf.nn.convolution_322/convolution/filter", "shape": [3, 3, 1, 1], "dtype": "float32"}, {"name": "model_124/tf.nn.convolution_323/convolution/filter", "shape": [3, 3, 1, 1], "dtype": "float32"}, {"name": "model_124/tf.nn.convolution_324/convolution/filter", "shape": [3, 3, 1, 1], "dtype": "float32"}, {"name": "model_124/tf.nn.convolution_325/convolution/filter", "shape": [3, 3, 1, 1], "dtype": "float32"}, {"name": "model_124/tf.nn.convolution_326/convolution/filter", "shape": [3, 3, 1, 1], "dtype": "float32"}, {"name": "model_124/tf.nn.convolution_327/convolution/filter", "shape": [3, 3, 1, 1], "dtype": "float32"}, {"name": "model_124/tf.nn.convolution_328/convolution/filter", "shape": [3, 3, 1, 1], "dtype": "float32"}, {"name": "model_124/tf.nn.convolution_329/convolution/filter", "shape": [3, 3, 1, 1], "dtype": "float32"}, {"name": "model_124/tf.nn.convolution_330/convolution/filter", "shape": [3, 3, 1, 1], "dtype": "float32"}, {"name": "model_124/tf.nn.convolution_331/convolution/filter", "shape": [3, 3, 1, 1], "dtype": "float32"}, {"name": "model_124/tf.nn.convolution_332/convolution/filter", "shape": [3, 3, 1, 1], "dtype": "float32"}, {"name": "model_124/tf.nn.convolution_333/convolution/filter", "shape": [3, 3, 1, 1], "dtype": "float32"}, {"name": "model_124/tf.nn.convolution_334/convolution/filter", "shape": [3, 3, 1, 1], "dtype": "float32"}, {"name": "model_124/tf.nn.convolution_335/convolution/filter", "shape": [3, 3, 1, 1], "dtype": "float32"}, {"name": "model_124/tf.nn.convolution_336/convolution/filter", "shape": [3, 3, 1, 1], "dtype": "float32"}, {"name": "model_124/tf.nn.convolution_337/convolution/filter", "shape": [3, 3, 1, 1], "dtype": "float32"}, {"name": "model_124/tf.nn.convolution_338/convolution/filter", "shape": [3, 3, 1, 1], "dtype": "float32"}, {"name": "model_124/tf.nn.convolution_339/convolution/filter", "shape": [3, 3, 1, 1], "dtype": "float32"}, {"name": "model_124/tf.nn.convolution_340/convolution/filter", "shape": [3, 3, 1, 1], "dtype": "float32"}, {"name": "model_124/tf.nn.convolution_341/convolution/filter", "shape": [3, 3, 1, 1], "dtype": "float32"}, {"name": "model_124/tf.nn.convolution_342/convolution/filter", "shape": [3, 3, 1, 1], "dtype": "float32"}, {"name": "model_124/tf.nn.convolution_343/convolution/filter", "shape": [3, 3, 1, 1], "dtype": "float32"}, {"name": "model_124/tf.nn.convolution_344/convolution/filter", "shape": [3, 3, 1, 1], "dtype": "float32"}, {"name": "model_124/tf.nn.convolution_345/convolution/filter", "shape": [3, 3, 1, 1], "dtype": "float32"}, {"name": "model_124/tf.nn.convolution_346/convolution/filter", "shape": [3, 3, 1, 1], "dtype": "float32"}, {"name": "model_124/tf.nn.convolution_347/convolution/filter", "shape": [3, 3, 1, 1], "dtype": "float32"}, {"name": "model_124/tf.nn.convolution_348/convolution/filter", "shape": [3, 3, 1, 1], "dtype": "float32"}, {"name": "model_124/tf.nn.convolution_349/convolution/filter", "shape": [3, 3, 1, 1], "dtype": "float32"}, {"name": "model_124/tf.nn.convolution_350/convolution/filter", "shape": [3, 3, 1, 1], "dtype": "float32"}, {"name": "model_124/tf.nn.convolution_351/convolution/filter", "shape": [3, 3, 1, 1], "dtype": "float32"}, {"name": "model_124/tf.nn.convolution_352/convolution/filter", "shape": [3, 3, 1, 1], "dtype": "float32"}, {"name": "model_124/tf.nn.convolution_353/convolution/filter", "shape": [3, 3, 1, 1], "dtype": "float32"}, {"name": "model_124/tf.nn.convolution_354/convolution/filter", "shape": [3, 3, 1, 1], "dtype": "float32"}, {"name": "model_124/tf.nn.convolution_355/convolution/filter", "shape": [3, 3, 1, 1], "dtype": "float32"}, {"name": "model_124/tf.nn.convolution_356/convolution/filter", "shape": [3, 3, 1, 1], "dtype": "float32"}, {"name": "model_124/tf.nn.convolution_357/convolution/filter", "shape": [3, 3, 1, 1], "dtype": "float32"}, {"name": "model_124/tf.nn.convolution_358/convolution/filter", "shape": [3, 3, 1, 1], "dtype": "float32"}, {"name": "model_124/tf.nn.convolution_359/convolution/filter", "shape": [3, 3, 1, 1], "dtype": "float32"}, {"name": "model_124/tf.nn.convolution_360/convolution/filter", "shape": [3, 3, 1, 1], "dtype": "float32"}, {"name": "model_124/tf.nn.convolution_361/convolution/filter", "shape": [3, 3, 1, 1], "dtype": "float32"}, {"name": "model_124/tf.nn.convolution_362/convolution/filter", "shape": [3, 3, 1, 1], "dtype": "float32"}, {"name": "model_124/tf.nn.convolution_363/convolution/filter", "shape": [3, 3, 1, 1], "dtype": "float32"}, {"name": "model_124/tf.nn.convolution_364/convolution/filter", "shape": [3, 3, 1, 1], "dtype": "float32"}, {"name": "model_124/tf.nn.convolution_365/convolution/filter", "shape": [3, 3, 1, 1], "dtype": "float32"}, {"name": "model_124/tf.nn.convolution_366/convolution/filter", "shape": [3, 3, 1, 1], "dtype": "float32"}, {"name": "model_124/tf.nn.convolution_367/convolution/filter", "shape": [3, 3, 1, 1], "dtype": "float32"}, {"name": "model_124/tf.nn.convolution_368/convolution/filter", "shape": [3, 3, 1, 1], "dtype": "float32"}, {"name": "model_124/tf.nn.convolution_369/convolution/filter", "shape": [3, 3, 1, 1], "dtype": "float32"}, {"name": "model_124/tf.nn.convolution_370/convolution/filter", "shape": [3, 3, 1, 1], "dtype": "float32"}, {"name": "model_124/tf.nn.convolution_371/convolution/filter", "shape": [3, 3, 1, 1], "dtype": "float32"}, {"name": "model_124/tf.nn.convolution_372/convolution/filter", "shape": [3, 3, 1, 1], "dtype": "float32"}, {"name": "model_124/tf.nn.convolution_373/convolution/filter", "shape": [3, 3, 1, 1], "dtype": "float32"}, {"name": "model_124/tf.nn.convolution_374/convolution/filter", "shape": [3, 3, 1, 1], "dtype": "float32"}, {"name": "model_124/tf.nn.convolution_375/convolution/filter", "shape": [3, 3, 1, 1], "dtype": "float32"}, {"name": "model_124/tf.nn.convolution_376/convolution/filter", "shape": [3, 3, 1, 1], "dtype": "float32"}, {"name": "model_124/tf.nn.convolution_377/convolution/filter", "shape": [3, 3, 1, 1], "dtype": "float32"}, {"name": "model_124/tf.nn.convolution_378/convolution/filter", "shape": [3, 3, 1, 1], "dtype": "float32"}, {"name": "model_124/tf.nn.convolution_379/convolution/filter", "shape": [3, 3, 1, 1], "dtype": "float32"}, {"name": "model_124/tf.nn.convolution_380/convolution/filter", "shape": [3, 3, 1, 1], "dtype": "float32"}, {"name": "model_124/tf.nn.convolution_381/convolution/filter", "shape": [3, 3, 1, 1], "dtype": "float32"}, {"name": "model_124/tf.nn.convolution_382/convolution/filter", "shape": [3, 3, 1, 1], "dtype": "float32"}, {"name": "model_124/tf.nn.convolution_383/convolution/filter", "shape": [3, 3, 1, 1], "dtype": "float32"}, {"name": "model_124/tf.nn.convolution_384/convolution/filter", "shape": [3, 3, 1, 1], "dtype": "float32"}, {"name": "model_124/tf.nn.convolution_385/convolution/filter", "shape": [3, 3, 1, 1], "dtype": "float32"}, {"name": "model_124/tf.nn.convolution_386/convolution/filter", "shape": [3, 3, 1, 1], "dtype": "float32"}, {"name": "model_124/tf.nn.convolution_387/convolution/filter", "shape": [3, 3, 1, 1], "dtype": "float32"}, {"name": "model_124/tf.nn.convolution_388/convolution/filter", "shape": [3, 3, 1, 1], "dtype": "float32"}, {"name": "model_124/tf.nn.convolution_389/convolution/filter", "shape": [3, 3, 1, 1], "dtype": "float32"}, {"name": "model_124/tf.nn.convolution_390/convolution/filter", "shape": [3, 3, 1, 1], "dtype": "float32"}, {"name": "model_124/tf.nn.convolution_391/convolution/filter", "shape": [3, 3, 1, 1], "dtype": "float32"}, {"name": "model_124/tf.nn.convolution_392/convolution/filter", "shape": [3, 3, 1, 1], "dtype": "float32"}, {"name": "model_124/tf.nn.convolution_393/convolution/filter", "shape": [3, 3, 1, 1], "dtype": "float32"}, {"name": "model_124/tf.nn.convolution_394/convolution/filter", "shape": [3, 3, 1, 1], "dtype": "float32"}, {"name": "model_124/tf.nn.convolution_395/convolution/filter", "shape": [3, 3, 1, 1], "dtype": "float32"}, {"name": "model_124/tf.nn.convolution_396/convolution/filter", "shape": [3, 3, 1, 1], "dtype": "float32"}, {"name": "model_124/tf.nn.convolution_397/convolution/filter", "shape": [3, 3, 1, 1], "dtype": "float32"}, {"name": "model_124/tf.nn.convolution_398/convolution/filter", "shape": [3, 3, 1, 1], "dtype": "float32"}, {"name": "model_124/tf.nn.convolution_399/convolution/filter", "shape": [3, 3, 1, 1], "dtype": "float32"}, {"name": "model_124/tf.split_3/split/split_dim", "shape": [], "dtype": "int32"}, {"name": "model_124/tf.split_2/split/split_dim", "shape": [], "dtype": "int32"}, {"name": "model_124/tf.strided_slice_29/ones_like/tensor", "shape": [4], "dtype": "int32"}, {"name": "model_124/tf.strided_slice_29/StridedSlice/end", "shape": [4], "dtype": "int32"}, {"name": "model_124/tf.strided_slice_29/ones_like", "shape": [4], "dtype": "int32"}, {"name": "model_124/tf.nn.convolution_261/convolution/filter", "shape": [1, 1, 128, 64], "dtype": "float32"}, {"name": "model_124/tf.math.add_180/Add/y", "shape": [64], "dtype": "float32"}, {"name": "model_124/tf.nn.convolution_263/convolution/filter", "shape": [3, 3, 64, 64], "dtype": "float32"}, {"name": "model_124/tf.math.add_182/Add/y", "shape": [64], "dtype": "float32"}, {"name": "model_124/tf.nn.convolution_264/convolution/filter", "shape": [3, 3, 64, 64], "dtype": "float32"}, {"name": "model_124/tf.math.add_183/Add/y", "shape": [64], "dtype": "float32"}, {"name": "model_124/tf.nn.convolution_265/convolution/filter", "shape": [3, 3, 64, 64], "dtype": "float32"}, {"name": "model_124/tf.math.add_186/Add/y", "shape": [64], "dtype": "float32"}, {"name": "model_124/tf.nn.convolution_266/convolution/filter", "shape": [3, 3, 64, 64], "dtype": "float32"}, {"name": "model_124/tf.math.add_187/Add/y", "shape": [64], "dtype": "float32"}, {"name": "model_124/tf.strided_slice_27/ones_like/tensor", "shape": [4], "dtype": "int32"}, {"name": "model_124/tf.strided_slice_27/StridedSlice/end", "shape": [4], "dtype": "int32"}, {"name": "model_124/tf.strided_slice_27/ones_like", "shape": [4], "dtype": "int32"}, {"name": "model_124/tf.nn.convolution_247/convolution/filter", "shape": [1, 1, 64, 32], "dtype": "float32"}, {"name": "model_124/tf.math.add_162/Add/y", "shape": [32], "dtype": "float32"}, {"name": "model_124/tf.nn.convolution_251/convolution/filter", "shape": [3, 3, 32, 32], "dtype": "float32"}, {"name": "model_124/tf.math.add_166/Add/y", "shape": [32], "dtype": "float32"}, {"name": "model_124/tf.nn.convolution_252/convolution/filter", "shape": [3, 3, 32, 32], "dtype": "float32"}, {"name": "model_124/tf.math.add_167/Add/y", "shape": [32], "dtype": "float32"}, {"name": "model_124/tf.nn.convolution_253/convolution/filter", "shape": [3, 3, 32, 32], "dtype": "float32"}, {"name": "model_124/tf.math.add_170/Add/y", "shape": [32], "dtype": "float32"}, {"name": "model_124/tf.nn.convolution_254/convolution/filter", "shape": [3, 3, 32, 32], "dtype": "float32"}, {"name": "model_124/tf.math.add_171/Add/y", "shape": [32], "dtype": "float32"}, {"name": "model_124/tf.strided_slice_25/ones_like/tensor", "shape": [4], "dtype": "int32"}, {"name": "model_124/tf.strided_slice_25/StridedSlice/end", "shape": [4], "dtype": "int32"}, {"name": "model_124/tf.strided_slice_25/ones_like", "shape": [4], "dtype": "int32"}, {"name": "model_124/tf.strided_slice_23/ones_like/tensor", "shape": [4], "dtype": "int32"}, {"name": "model_124/tf.strided_slice_23/StridedSlice/end", "shape": [4], "dtype": "int32"}, {"name": "model_124/tf.strided_slice_23/ones_like", "shape": [4], "dtype": "int32"}, {"name": "model_124/tf.compat.v1.pad_7/Pad/paddings", "shape": [4, 2], "dtype": "int32"}, {"name": "model_124/tf.nn.convolution_225/convolution/filter", "shape": [3, 3, 3, 16], "dtype": "float32"}, {"name": "model_124/tf.math.add_136/Add/y", "shape": [16], "dtype": "float32"}, {"name": "model_124/tf.compat.v1.pad_8/Pad/paddings", "shape": [4, 2], "dtype": "int32"}, {"name": "model_124/tf.nn.convolution_226/convolution/filter", "shape": [3, 3, 16, 32], "dtype": "float32"}, {"name": "model_124/tf.math.add_137/Add/y", "shape": [32], "dtype": "float32"}, {"name": "model_124/tf.nn.convolution_227/convolution/filter", "shape": [1, 1, 32, 32], "dtype": "float32"}, {"name": "model_124/tf.math.add_138/Add/y", "shape": [32], "dtype": "float32"}, {"name": "model_124/tf.strided_slice_24/ones_like/tensor", "shape": [4], "dtype": "int32"}, {"name": "model_124/tf.strided_slice_24/StridedSlice/end", "shape": [4], "dtype": "int32"}, {"name": "model_124/tf.strided_slice_24/ones_like", "shape": [4], "dtype": "int32"}, {"name": "model_124/tf.nn.convolution_228/convolution/filter", "shape": [3, 3, 16, 8], "dtype": "float32"}, {"name": "model_124/tf.math.add_139/Add/y", "shape": [8], "dtype": "float32"}, {"name": "model_124/tf.nn.convolution_229/convolution/filter", "shape": [3, 3, 8, 16], "dtype": "float32"}, {"name": "model_124/tf.math.add_140/Add/y", "shape": [16], "dtype": "float32"}, {"name": "model_124/tf.concat_30/concat/axis", "shape": [], "dtype": "int32"}, {"name": "model_124/tf.nn.convolution_230/convolution/filter", "shape": [1, 1, 48, 64], "dtype": "float32"}, {"name": "model_124/tf.math.add_143/Add/y", "shape": [64], "dtype": "float32"}, {"name": "model_124/tf.compat.v1.pad_9/Pad/paddings", "shape": [4, 2], "dtype": "int32"}, {"name": "model_124/tf.nn.convolution_231/convolution/filter", "shape": [3, 3, 64, 64], "dtype": "float32"}, {"name": "model_124/tf.math.add_144/Add/y", "shape": [64], "dtype": "float32"}, {"name": "model_124/tf.nn.convolution_232/convolution/filter", "shape": [1, 1, 64, 64], "dtype": "float32"}, {"name": "model_124/tf.math.add_145/Add/y", "shape": [64], "dtype": "float32"}, {"name": "model_124/tf.strided_slice_26/ones_like/tensor", "shape": [4], "dtype": "int32"}, {"name": "model_124/tf.strided_slice_26/StridedSlice/end", "shape": [4], "dtype": "int32"}, {"name": "model_124/tf.strided_slice_26/ones_like", "shape": [4], "dtype": "int32"}, {"name": "model_124/tf.nn.convolution_233/convolution/filter", "shape": [3, 3, 32, 16], "dtype": "float32"}, {"name": "model_124/tf.math.add_146/Add/y", "shape": [16], "dtype": "float32"}, {"name": "model_124/tf.nn.convolution_234/convolution/filter", "shape": [3, 3, 16, 32], "dtype": "float32"}, {"name": "model_124/tf.math.add_147/Add/y", "shape": [32], "dtype": "float32"}, {"name": "model_124/tf.concat_31/concat/axis", "shape": [], "dtype": "int32"}, {"name": "model_124/tf.nn.convolution_235/convolution/filter", "shape": [1, 1, 96, 128], "dtype": "float32"}, {"name": "model_124/tf.math.add_150/Add/y", "shape": [128], "dtype": "float32"}, {"name": "model_124/tf.compat.v1.pad_10/Pad/paddings", "shape": [4, 2], "dtype": "int32"}, {"name": "model_124/tf.nn.convolution_243/convolution/filter", "shape": [3, 3, 128, 128], "dtype": "float32"}, {"name": "model_124/tf.math.add_158/Add/y", "shape": [128], "dtype": "float32"}, {"name": "model_124/tf.nn.convolution_244/convolution/filter", "shape": [1, 1, 128, 128], "dtype": "float32"}, {"name": "model_124/tf.math.add_159/Add/y", "shape": [128], "dtype": "float32"}, {"name": "model_124/tf.strided_slice_28/ones_like/tensor", "shape": [4], "dtype": "int32"}, {"name": "model_124/tf.strided_slice_28/StridedSlice/end", "shape": [4], "dtype": "int32"}, {"name": "model_124/tf.strided_slice_28/ones_like", "shape": [4], "dtype": "int32"}, {"name": "model_124/tf.nn.convolution_250/convolution/filter", "shape": [1, 1, 64, 32], "dtype": "float32"}, {"name": "model_124/tf.math.add_165/Add/y", "shape": [32], "dtype": "float32"}, {"name": "model_124/tf.concat_32/concat/axis", "shape": [], "dtype": "int32"}, {"name": "model_124/tf.nn.convolution_257/convolution/filter", "shape": [1, 1, 64, 64], "dtype": "float32"}, {"name": "model_124/tf.math.add_176/Add/y", "shape": [64], "dtype": "float32"}, {"name": "model_124/tf.concat_33/concat/axis", "shape": [], "dtype": "int32"}, {"name": "model_124/tf.nn.convolution_258/convolution/filter", "shape": [1, 1, 192, 128], "dtype": "float32"}, {"name": "model_124/tf.math.add_177/Add/y", "shape": [128], "dtype": "float32"}, {"name": "model_124/tf.compat.v1.pad_11/Pad/paddings", "shape": [4, 2], "dtype": "int32"}, {"name": "model_124/tf.nn.convolution_259/convolution/filter", "shape": [3, 3, 128, 256], "dtype": "float32"}, {"name": "model_124/tf.math.add_178/Add/y", "shape": [256], "dtype": "float32"}, {"name": "model_124/tf.nn.convolution_260/convolution/filter", "shape": [1, 1, 256, 256], "dtype": "float32"}, {"name": "model_124/tf.math.add_179/Add/y", "shape": [256], "dtype": "float32"}, {"name": "model_124/tf.strided_slice_30/ones_like/tensor", "shape": [4], "dtype": "int32"}, {"name": "model_124/tf.strided_slice_30/StridedSlice/end", "shape": [4], "dtype": "int32"}, {"name": "model_124/tf.strided_slice_30/ones_like", "shape": [4], "dtype": "int32"}, {"name": "model_124/tf.nn.convolution_262/convolution/filter", "shape": [1, 1, 128, 64], "dtype": "float32"}, {"name": "model_124/tf.math.add_181/Add/y", "shape": [64], "dtype": "float32"}, {"name": "model_124/tf.concat_34/concat/axis", "shape": [], "dtype": "int32"}, {"name": "model_124/tf.nn.convolution_267/convolution/filter", "shape": [1, 1, 128, 128], "dtype": "float32"}, {"name": "model_124/tf.math.add_190/Add/y", "shape": [128], "dtype": "float32"}, {"name": "model_124/tf.concat_35/concat/axis", "shape": [], "dtype": "int32"}, {"name": "model_124/tf.nn.convolution_268/convolution/filter", "shape": [1, 1, 384, 256], "dtype": "float32"}, {"name": "model_124/tf.math.add_191/Add/y", "shape": [256], "dtype": "float32"}, {"name": "model_124/tf.nn.convolution_269/convolution/filter", "shape": [1, 1, 256, 128], "dtype": "float32"}, {"name": "model_124/tf.math.add_192/Add/y", "shape": [128], "dtype": "float32"}, {"name": "model_124/tf.concat_36/concat/axis", "shape": [], "dtype": "int32"}, {"name": "model_124/tf.nn.convolution_270/convolution/filter", "shape": [1, 1, 512, 256], "dtype": "float32"}, {"name": "model_124/tf.math.add_193/Add/y", "shape": [256], "dtype": "float32"}, {"name": "model_124/tf.nn.convolution_271/convolution/filter", "shape": [1, 1, 256, 256], "dtype": "float32"}, {"name": "model_124/tf.math.add_194/Add/y", "shape": [256], "dtype": "float32"}, {"name": "model_124/tf.nn.convolution_272/convolution/filter", "shape": [1, 1, 128, 256], "dtype": "float32"}, {"name": "model_124/tf.math.add_195/Add/y", "shape": [256], "dtype": "float32"}, {"name": "model_124/tf.compat.v1.transpose_80/transpose/perm", "shape": [4], "dtype": "int32"}, {"name": "model_124/tf.reshape_35/Reshape/shape", "shape": [4], "dtype": "int32"}, {"name": "model_124/tf.strided_slice_33/StridedSlice/begin", "shape": [4], "dtype": "int32"}, {"name": "model_124/tf.strided_slice_33/StridedSlice/end", "shape": [4], "dtype": "int32"}, {"name": "model_124/tf.strided_slice_33/ones_like", "shape": [4], "dtype": "int32"}, {"name": "model_124/tf.reshape_38/Reshape/shape", "shape": [4], "dtype": "int32"}, {"name": "model_124/tf.compat.v1.transpose_88/transpose/perm", "shape": [4], "dtype": "int32"}, {"name": "model_124/tf.nn.convolution_400/convolution/filter", "shape": [3, 3, 1, 1], "dtype": "float32"}, {"name": "model_124/tf.concat_37/concat/axis", "shape": [], "dtype": "int32"}, {"name": "model_124/tf.nn.convolution_401/convolution/filter", "shape": [1, 1, 128, 128], "dtype": "float32"}, {"name": "model_124/tf.nn.convolution_402/convolution/filter", "shape": [1, 1, 128, 256], "dtype": "float32"}, {"name": "model_124/tf.math.add_202/Add/y", "shape": [256], "dtype": "float32"}, {"name": "model_124/tf.nn.convolution_403/convolution/filter", "shape": [1, 1, 256, 128], "dtype": "float32"}, {"name": "model_124/tf.concat_38/concat/axis", "shape": [], "dtype": "int32"}, {"name": "model_124/tf.nn.convolution_404/convolution/filter", "shape": [1, 1, 256, 256], "dtype": "float32"}, {"name": "model_124/tf.math.add_206/Add/y", "shape": [256], "dtype": "float32"}, {"name": "model_124/tf.concat_50/concat/axis", "shape": [], "dtype": "int32"}, {"name": "model_124/tf.nn.convolution_439/convolution/filter", "shape": [1, 1, 384, 256], "dtype": "float32"}, {"name": "model_124/tf.math.add_250/Add/y", "shape": [256], "dtype": "float32"}, {"name": "model_124/tf.strided_slice_41/ones_like/tensor", "shape": [4], "dtype": "int32"}, {"name": "model_124/tf.strided_slice_41/StridedSlice/end", "shape": [4], "dtype": "int32"}, {"name": "model_124/tf.strided_slice_41/ones_like", "shape": [4], "dtype": "int32"}, {"name": "model_124/tf.nn.convolution_445/convolution/filter", "shape": [1, 1, 128, 64], "dtype": "float32"}, {"name": "model_124/tf.math.add_259/Add/y", "shape": [64], "dtype": "float32"}, {"name": "model_124/tf.concat_54/concat/axis", "shape": [], "dtype": "int32"}, {"name": "model_124/tf.nn.convolution_456/convolution/filter", "shape": [1, 1, 128, 128], "dtype": "float32"}, {"name": "model_124/tf.math.add_274/Add/y", "shape": [128], "dtype": "float32"}, {"name": "model_124/tf.concat_55/concat/axis", "shape": [], "dtype": "int32"}, {"name": "model_124/tf.nn.convolution_457/convolution/filter", "shape": [1, 1, 384, 256], "dtype": "float32"}, {"name": "model_124/tf.math.add_275/Add/y", "shape": [256], "dtype": "float32"}, {"name": "model_124/tf.nn.convolution_458/convolution/filter", "shape": [3, 3, 256, 16], "dtype": "float32"}, {"name": "model_124/tf.math.add_276/Add/y", "shape": [16], "dtype": "float32"}, {"name": "model_124/tf.nn.convolution_460/convolution/filter", "shape": [3, 3, 16, 16], "dtype": "float32"}, {"name": "model_124/tf.math.add_279/Add/y", "shape": [16], "dtype": "float32"}, {"name": "model_124/tf.nn.convolution_463/convolution/filter", "shape": [1, 1, 16, 1], "dtype": "float32"}, {"name": "model_124/tf.math.add_282/Add/y", "shape": [1], "dtype": "float32"}, {"name": "model_124/tf.compat.v1.transpose_145/transpose/perm", "shape": [4], "dtype": "int32"}, {"name": "model_124/tf.reshape_56/Reshape/shape", "shape": [3], "dtype": "int32"}, {"name": "model_124/tf.concat_56/concat/axis", "shape": [], "dtype": "int32"}, {"name": "model_124/tf.math.subtract_2/Sub/y", "shape": [1, 1, 1], "dtype": "float32"}, {"name": "model_124/tf.math.multiply_747/Mul/y", "shape": [1, 1, 1], "dtype": "float32"}, {"name": "model_124/output0/concat/axis", "shape": [], "dtype": "int32"}]}]}