{"format": "graph-model", "generatedBy": "2.19.0", "convertedBy": "TensorFlow.js Converter v4.22.0", "signature": {"outputs": {"Identity:0": {"name": "Identity:0"}, "model_205/tf.math.top_k_4/TopKV2:0": {"name": "model_205/tf.math.top_k_4/TopKV2:0"}, "Identity_1:0": {"name": "Identity_1:0"}}}, "modelTopology": {"node": [{"name": "model_205/193167", "op": "Const", "attr": {"dtype": {"type": "DT_FLOAT"}, "value": {"tensor": {"dtype": "DT_FLOAT", "tensorShape": {"dim": [{"size": "1"}, {"size": "300"}, {"size": "38"}]}}}}}, {"name": "model_205/tf.tensor_scatter_nd_update_6/TensorScatterUpdate/indices", "op": "Const", "attr": {"dtype": {"type": "DT_INT64"}, "value": {"tensor": {"dtype": "DT_INT64", "tensorShape": {"dim": [{"size": "1"}, {"size": "1"}]}}}}}, {"name": "model_205/tf.math.less_22/Less/y", "op": "Const", "attr": {"value": {"tensor": {"dtype": "DT_INT64", "tensorShape": {}}}, "dtype": {"type": "DT_INT64"}}}, {"name": "model_205/tf.__operators__.getitem_39/strided_slice", "op": "Const", "attr": {"dtype": {"type": "DT_INT64"}, "value": {"tensor": {"dtype": "DT_INT64", "tensorShape": {}}}}}, {"name": "model_205/tf.compat.v1.gather_37/GatherV2/axis", "op": "Const", "attr": {"dtype": {"type": "DT_INT32"}, "value": {"tensor": {"dtype": "DT_INT32", "tensorShape": {}}}}}, {"name": "model_205/tf.math.less_23/Less/y", "op": "Const", "attr": {"dtype": {"type": "DT_INT64"}, "value": {"tensor": {"dtype": "DT_INT64", "tensorShape": {}}}}}, {"name": "model_205/tf.__operators__.getitem_40/strided_slice", "op": "Const", "attr": {"value": {"tensor": {"dtype": "DT_INT64", "tensorShape": {}}}, "dtype": {"type": "DT_INT64"}}}, {"name": "model_205/tf.compat.v1.gather_38/GatherV2/axis", "op": "Const", "attr": {"dtype": {"type": "DT_INT32"}, "value": {"tensor": {"dtype": "DT_INT32", "tensorShape": {}}}}}, {"name": "model_205/tf.reshape_112/Reshape/shape", "op": "Const", "attr": {"value": {"tensor": {"dtype": "DT_INT32", "tensorShape": {"dim": [{"size": "2"}]}}}, "dtype": {"type": "DT_INT32"}}}, {"name": "model_205/tf.math.less_24/Less/y", "op": "Const", "attr": {"value": {"tensor": {"dtype": "DT_INT64", "tensorShape": {}}}, "dtype": {"type": "DT_INT64"}}}, {"name": "model_205/tf.__operators__.getitem_41/strided_slice", "op": "Const", "attr": {"value": {"tensor": {"dtype": "DT_INT64", "tensorShape": {}}}, "dtype": {"type": "DT_INT64"}}}, {"name": "model_205/tf.compat.v1.gather_39/GatherV2/axis", "op": "Const", "attr": {"dtype": {"type": "DT_INT32"}, "value": {"tensor": {"dtype": "DT_INT32", "tensorShape": {}}}}}, {"name": "model_205/tf.reshape_113/Reshape/shape", "op": "Const", "attr": {"value": {"tensor": {"dtype": "DT_INT32", "tensorShape": {"dim": [{"size": "2"}]}}}, "dtype": {"type": "DT_INT32"}}}, {"name": "model_205/tf.strided_slice_99/ones_like/tensor", "op": "Const", "attr": {"value": {"tensor": {"dtype": "DT_INT64", "tensorShape": {"dim": [{"size": "3"}]}}}, "dtype": {"type": "DT_INT64"}}}, {"name": "model_205/tf.strided_slice_99/StridedSlice/end", "op": "Const", "attr": {"value": {"tensor": {"dtype": "DT_INT64", "tensorShape": {"dim": [{"size": "3"}]}}}, "dtype": {"type": "DT_INT64"}}}, {"name": "model_205/tf.strided_slice_99/ones_like", "op": "Const", "attr": {"value": {"tensor": {"dtype": "DT_INT64", "tensorShape": {"dim": [{"size": "3"}]}}}, "dtype": {"type": "DT_INT64"}}}, {"name": "model_205/tf.compat.v1.gather_29/GatherV2/indices", "op": "Const", "attr": {"value": {"tensor": {"dtype": "DT_INT32", "tensorShape": {}}}, "dtype": {"type": "DT_INT32"}}}, {"name": "model_205/tf.compat.v1.gather_29/GatherV2/axis", "op": "Const", "attr": {"value": {"tensor": {"dtype": "DT_INT32", "tensorShape": {}}}, "dtype": {"type": "DT_INT32"}}}, {"name": "model_205/tf.math.less_21/Less/y", "op": "Const", "attr": {"value": {"tensor": {"dtype": "DT_INT64", "tensorShape": {}}}, "dtype": {"type": "DT_INT64"}}}, {"name": "model_205/tf.__operators__.getitem_36/strided_slice", "op": "Const", "attr": {"value": {"tensor": {"dtype": "DT_INT64", "tensorShape": {}}}, "dtype": {"type": "DT_INT64"}}}, {"name": "model_205/tf.compat.v1.gather_35/GatherV2/axis", "op": "Const", "attr": {"dtype": {"type": "DT_INT32"}, "value": {"tensor": {"dtype": "DT_INT32", "tensorShape": {}}}}}, {"name": "model_205/tf.math.argmax_2/ArgMax/dimension", "op": "Const", "attr": {"value": {"tensor": {"dtype": "DT_INT32", "tensorShape": {}}}, "dtype": {"type": "DT_INT32"}}}, {"name": "model_205/tf.compat.v1.gather_30/GatherV2/indices", "op": "Const", "attr": {"value": {"tensor": {"dtype": "DT_INT32", "tensorShape": {}}}, "dtype": {"type": "DT_INT32"}}}, {"name": "model_205/tf.compat.v1.gather_30/GatherV2/axis", "op": "Const", "attr": {"value": {"tensor": {"dtype": "DT_INT32", "tensorShape": {}}}, "dtype": {"type": "DT_INT32"}}}, {"name": "model_205/tf.math.less_20/Less/y", "op": "Const", "attr": {"dtype": {"type": "DT_INT64"}, "value": {"tensor": {"dtype": "DT_INT64", "tensorShape": {}}}}}, {"name": "model_205/tf.__operators__.getitem_35/strided_slice", "op": "Const", "attr": {"dtype": {"type": "DT_INT64"}, "value": {"tensor": {"dtype": "DT_INT64", "tensorShape": {}}}}}, {"name": "model_205/tf.compat.v1.gather_34/GatherV2/axis", "op": "Const", "attr": {"dtype": {"type": "DT_INT32"}, "value": {"tensor": {"dtype": "DT_INT32", "tensorShape": {}}}}}, {"name": "model_205/tf.reshape_109/Reshape/shape", "op": "Const", "attr": {"dtype": {"type": "DT_INT32"}, "value": {"tensor": {"dtype": "DT_INT32", "tensorShape": {"dim": [{"size": "2"}]}}}}}, {"name": "ConstantFolding/model_205/tf.math.multiply_1366/Mul-broadcastto_shape-0", "op": "Const", "attr": {"dtype": {"type": "DT_INT32"}, "value": {"tensor": {"dtype": "DT_INT32", "tensorShape": {"dim": [{"size": "2"}]}}}}}, {"name": "model_205/192924", "op": "Const", "attr": {"value": {"tensor": {"dtype": "DT_FLOAT", "tensorShape": {"dim": [{"size": "1500"}, {"size": "4"}]}}}, "dtype": {"type": "DT_FLOAT"}}}, {"name": "model_205/tf.tensor_scatter_nd_update_4/TensorScatterUpdate/indices", "op": "Const", "attr": {"dtype": {"type": "DT_INT64"}, "value": {"tensor": {"dtype": "DT_INT64", "tensorShape": {"dim": [{"size": "1500"}, {"size": "2"}, {"size": "2"}]}}}}}, {"name": "model_205/tf.tensor_scatter_nd_update_5/TensorScatterUpdate/indices", "op": "Const", "attr": {"value": {"tensor": {"dtype": "DT_INT64", "tensorShape": {"dim": [{"size": "1500"}, {"size": "2"}, {"size": "2"}]}}}, "dtype": {"type": "DT_INT64"}}}, {"name": "model_205/tf.strided_slice_100/StridedSlice/begin", "op": "Const", "attr": {"dtype": {"type": "DT_INT64"}, "value": {"tensor": {"dtype": "DT_INT64", "tensorShape": {"dim": [{"size": "2"}]}}}}}, {"name": "model_205/tf.strided_slice_100/StridedSlice/end", "op": "Const", "attr": {"dtype": {"type": "DT_INT64"}, "value": {"tensor": {"dtype": "DT_INT64", "tensorShape": {"dim": [{"size": "2"}]}}}}}, {"name": "model_205/tf.strided_slice_100/StridedSlice/strides", "op": "Const", "attr": {"dtype": {"type": "DT_INT64"}, "value": {"tensor": {"dtype": "DT_INT64", "tensorShape": {"dim": [{"size": "2"}]}}}}}, {"name": "model_205/tf.strided_slice_97/ones_like/tensor", "op": "Const", "attr": {"dtype": {"type": "DT_INT64"}, "value": {"tensor": {"dtype": "DT_INT64", "tensorShape": {"dim": [{"size": "3"}]}}}}}, {"name": "model_205/tf.strided_slice_97/StridedSlice/end", "op": "Const", "attr": {"dtype": {"type": "DT_INT64"}, "value": {"tensor": {"dtype": "DT_INT64", "tensorShape": {"dim": [{"size": "3"}]}}}}}, {"name": "model_205/tf.strided_slice_97/ones_like", "op": "Const", "attr": {"dtype": {"type": "DT_INT64"}, "value": {"tensor": {"dtype": "DT_INT64", "tensorShape": {"dim": [{"size": "3"}]}}}}}, {"name": "model_205/tf.compat.v1.gather_28/GatherV2/indices", "op": "Const", "attr": {"dtype": {"type": "DT_INT32"}, "value": {"tensor": {"dtype": "DT_INT32", "tensorShape": {}}}}}, {"name": "model_205/tf.compat.v1.gather_28/GatherV2/axis", "op": "Const", "attr": {"value": {"tensor": {"dtype": "DT_INT32", "tensorShape": {}}}, "dtype": {"type": "DT_INT32"}}}, {"name": "model_205/tf.math.less_18/Less/y", "op": "Const", "attr": {"value": {"tensor": {"dtype": "DT_INT64", "tensorShape": {}}}, "dtype": {"type": "DT_INT64"}}}, {"name": "model_205/tf.__operators__.getitem_33/strided_slice", "op": "Const", "attr": {"value": {"tensor": {"dtype": "DT_INT64", "tensorShape": {}}}, "dtype": {"type": "DT_INT64"}}}, {"name": "model_205/tf.compat.v1.gather_32/GatherV2/axis", "op": "Const", "attr": {"value": {"tensor": {"dtype": "DT_INT32", "tensorShape": {}}}, "dtype": {"type": "DT_INT32"}}}, {"name": "model_205/tf.strided_slice_101/StridedSlice/begin", "op": "Const", "attr": {"value": {"tensor": {"dtype": "DT_INT64", "tensorShape": {"dim": [{"size": "2"}]}}}, "dtype": {"type": "DT_INT64"}}}, {"name": "model_205/tf.strided_slice_101/StridedSlice/end", "op": "Const", "attr": {"value": {"tensor": {"dtype": "DT_INT64", "tensorShape": {"dim": [{"size": "2"}]}}}, "dtype": {"type": "DT_INT64"}}}, {"name": "model_205/tf.strided_slice_101/StridedSlice/strides", "op": "Const", "attr": {"value": {"tensor": {"dtype": "DT_INT64", "tensorShape": {"dim": [{"size": "2"}]}}}, "dtype": {"type": "DT_INT64"}}}, {"name": "ConstantFolding/model_205/tf.math.divide_10/truediv_recip", "op": "Const", "attr": {"value": {"tensor": {"dtype": "DT_FLOAT", "tensorShape": {}}}, "dtype": {"type": "DT_FLOAT"}}}, {"name": "ConstantFolding/model_205/tf.math.divide_11/truediv_recip", "op": "Const", "attr": {"value": {"tensor": {"dtype": "DT_FLOAT", "tensorShape": {}}}, "dtype": {"type": "DT_FLOAT"}}}, {"name": "model_205/tf.strided_slice_103/StridedSlice/begin", "op": "Const", "attr": {"dtype": {"type": "DT_INT64"}, "value": {"tensor": {"dtype": "DT_INT64", "tensorShape": {"dim": [{"size": "2"}]}}}}}, {"name": "model_205/tf.strided_slice_103/StridedSlice/end", "op": "Const", "attr": {"value": {"tensor": {"dtype": "DT_INT64", "tensorShape": {"dim": [{"size": "2"}]}}}, "dtype": {"type": "DT_INT64"}}}, {"name": "model_205/tf.strided_slice_103/StridedSlice/strides", "op": "Const", "attr": {"dtype": {"type": "DT_INT64"}, "value": {"tensor": {"dtype": "DT_INT64", "tensorShape": {"dim": [{"size": "2"}]}}}}}, {"name": "model_205/tf.concat_104/concat/axis", "op": "Const", "attr": {"value": {"tensor": {"dtype": "DT_INT32", "tensorShape": {}}}, "dtype": {"type": "DT_INT32"}}}, {"name": "model_205/tf.reshape_111/Reshape/shape", "op": "Const", "attr": {"value": {"tensor": {"dtype": "DT_INT32", "tensorShape": {"dim": [{"size": "3"}]}}}, "dtype": {"type": "DT_INT32"}}}, {"name": "model_205/tf.math.less_19/Less/y", "op": "Const", "attr": {"dtype": {"type": "DT_INT64"}, "value": {"tensor": {"dtype": "DT_INT64", "tensorShape": {}}}}}, {"name": "model_205/tf.__operators__.getitem_34/strided_slice", "op": "Const", "attr": {"dtype": {"type": "DT_INT64"}, "value": {"tensor": {"dtype": "DT_INT64", "tensorShape": {}}}}}, {"name": "model_205/tf.compat.v1.gather_33/GatherV2/axis", "op": "Const", "attr": {"value": {"tensor": {"dtype": "DT_INT32", "tensorShape": {}}}, "dtype": {"type": "DT_INT32"}}}, {"name": "model_205/tf.reshape_110/Reshape/shape", "op": "Const", "attr": {"value": {"tensor": {"dtype": "DT_INT32", "tensorShape": {"dim": [{"size": "3"}]}}}, "dtype": {"type": "DT_INT32"}}}, {"name": "model_205/tf.compat.v1.squeeze_58/Squeeze", "op": "Const", "attr": {"dtype": {"type": "DT_INT32"}, "value": {"tensor": {"dtype": "DT_INT32", "tensorShape": {}}}}}, {"name": "model_205/nms_layer_1/non_max_suppression/NonMaxSuppressionV4/iou_threshold", "op": "Const", "attr": {"value": {"tensor": {"dtype": "DT_FLOAT", "tensorShape": {}}}, "dtype": {"type": "DT_FLOAT"}}}, {"name": "model_205/nms_layer_1/non_max_suppression/NonMaxSuppressionV4/score_threshold", "op": "Const", "attr": {"value": {"tensor": {"dtype": "DT_FLOAT", "tensorShape": {}}}, "dtype": {"type": "DT_FLOAT"}}}, {"name": "model_205/tf.compat.v1.transpose_606/transpose/perm", "op": "Const", "attr": {"dtype": {"type": "DT_INT32"}, "value": {"tensor": {"dtype": "DT_INT32", "tensorShape": {"dim": [{"size": "2"}]}}}}}, {"name": "model_205/tf.compat.v1.pad_24/PadV2/constant_values", "op": "Const", "attr": {"dtype": {"type": "DT_INT64"}, "value": {"tensor": {"dtype": "DT_INT64", "tensorShape": {}}}}}, {"name": "model_205/tf.compat.v1.pad_24/PadV2/paddings", "op": "Const", "attr": {"value": {"tensor": {"dtype": "DT_INT32", "tensorShape": {"dim": [{"size": "2"}, {"size": "2"}]}}}, "dtype": {"type": "DT_INT32"}}}, {"name": "model_205/tf.compat.v1.pad_25/PadV2/constant_values", "op": "Const", "attr": {"dtype": {"type": "DT_INT64"}, "value": {"tensor": {"dtype": "DT_INT64", "tensorShape": {}}}}}, {"name": "model_205/tf.compat.v1.gather_36/GatherV2/indices", "op": "Const", "attr": {"value": {"tensor": {"dtype": "DT_INT64", "tensorShape": {"dim": [{"size": "1"}]}}}, "dtype": {"type": "DT_INT64"}}}, {"name": "model_205/tf.compat.v1.gather_36/GatherV2/axis", "op": "Const", "attr": {"value": {"tensor": {"dtype": "DT_INT32", "tensorShape": {}}}, "dtype": {"type": "DT_INT32"}}}, {"name": "model_205/tf.strided_slice_107/StridedSlice/begin", "op": "Const", "attr": {"value": {"tensor": {"dtype": "DT_INT64", "tensorShape": {"dim": [{"size": "1"}]}}}, "dtype": {"type": "DT_INT64"}}}, {"name": "model_205/tf.strided_slice_107/StridedSlice/end", "op": "Const", "attr": {"value": {"tensor": {"dtype": "DT_INT64", "tensorShape": {"dim": [{"size": "1"}]}}}, "dtype": {"type": "DT_INT64"}}}, {"name": "model_205/tf.strided_slice_107/StridedSlice/strides", "op": "Const", "attr": {"dtype": {"type": "DT_INT64"}, "value": {"tensor": {"dtype": "DT_INT64", "tensorShape": {"dim": [{"size": "1"}]}}}}}, {"name": "model_205/tf.math.less_25/Less/y", "op": "Const", "attr": {"value": {"tensor": {"dtype": "DT_INT64", "tensorShape": {}}}, "dtype": {"type": "DT_INT64"}}}, {"name": "model_205/tf.__operators__.getitem_42/strided_slice", "op": "Const", "attr": {"value": {"tensor": {"dtype": "DT_INT64", "tensorShape": {}}}, "dtype": {"type": "DT_INT64"}}}, {"name": "model_205/tf.compat.v1.gather_40/GatherV2/axis", "op": "Const", "attr": {"value": {"tensor": {"dtype": "DT_INT32", "tensorShape": {}}}, "dtype": {"type": "DT_INT32"}}}, {"name": "model_205/tf.concat_105/concat/axis", "op": "Const", "attr": {"dtype": {"type": "DT_INT32"}, "value": {"tensor": {"dtype": "DT_INT32", "tensorShape": {}}}}}, {"name": "model_205/tf.reshape_118/Reshape/shape", "op": "Const", "attr": {"value": {"tensor": {"dtype": "DT_INT32", "tensorShape": {"dim": [{"size": "3"}]}}}, "dtype": {"type": "DT_INT32"}}}, {"name": "model_205/tf.nn.conv2d_transpose/conv2d_transpose/input_sizes", "op": "Const", "attr": {"dtype": {"type": "DT_INT32"}, "value": {"tensor": {"dtype": "DT_INT32", "tensorShape": {"dim": [{"size": "4"}]}}}}}, {"name": "model_205/tf.nn.conv2d_transpose/conv2d_transpose/filter", "op": "Const", "attr": {"value": {"tensor": {"dtype": "DT_FLOAT", "tensorShape": {"dim": [{"size": "2"}, {"size": "2"}, {"size": "64"}, {"size": "64"}]}}}, "dtype": {"type": "DT_FLOAT"}}}, {"name": "model_205/tf.nn.convolution_632/convolution/filter", "op": "Const", "attr": {"dtype": {"type": "DT_FLOAT"}, "value": {"tensor": {"dtype": "DT_FLOAT", "tensorShape": {"dim": [{"size": "3"}, {"size": "3"}, {"size": "64"}, {"size": "64"}]}}}}}, {"name": "model_205/tf.math.add_377/Add/y", "op": "Const", "attr": {"value": {"tensor": {"dtype": "DT_FLOAT", "tensorShape": {"dim": [{"size": "64"}]}}}, "dtype": {"type": "DT_FLOAT"}}}, {"name": "model_205/tf.math.add_381/Add/y", "op": "Const", "attr": {"value": {"tensor": {"dtype": "DT_FLOAT", "tensorShape": {"dim": [{"size": "64"}]}}}, "dtype": {"type": "DT_FLOAT"}}}, {"name": "model_205/tf.nn.convolution_639/convolution/filter", "op": "Const", "attr": {"value": {"tensor": {"dtype": "DT_FLOAT", "tensorShape": {"dim": [{"size": "3"}, {"size": "3"}, {"size": "64"}, {"size": "64"}]}}}, "dtype": {"type": "DT_FLOAT"}}}, {"name": "model_205/tf.math.add_386/Add/y", "op": "Const", "attr": {"value": {"tensor": {"dtype": "DT_FLOAT", "tensorShape": {"dim": [{"size": "64"}]}}}, "dtype": {"type": "DT_FLOAT"}}}, {"name": "model_205/tf.nn.convolution_642/convolution/filter", "op": "Const", "attr": {"dtype": {"type": "DT_FLOAT"}, "value": {"tensor": {"dtype": "DT_FLOAT", "tensorShape": {"dim": [{"size": "1"}, {"size": "1"}, {"size": "64"}, {"size": "32"}]}}}}}, {"name": "model_205/tf.math.add_392/Add/y", "op": "Const", "attr": {"value": {"tensor": {"dtype": "DT_FLOAT", "tensorShape": {"dim": [{"size": "32"}]}}}, "dtype": {"type": "DT_FLOAT"}}}, {"name": "ConstantFolding/model_205/tf.math.divide_9/truediv_recip", "op": "Const", "attr": {"value": {"tensor": {"dtype": "DT_FLOAT", "tensorShape": {}}}, "dtype": {"type": "DT_FLOAT"}}}, {"name": "model_205/tf.strided_slice_96/ones_like/tensor", "op": "Const", "attr": {"value": {"tensor": {"dtype": "DT_INT64", "tensorShape": {"dim": [{"size": "3"}]}}}, "dtype": {"type": "DT_INT64"}}}, {"name": "model_205/tf.strided_slice_96/StridedSlice/end", "op": "Const", "attr": {"dtype": {"type": "DT_INT64"}, "value": {"tensor": {"dtype": "DT_INT64", "tensorShape": {"dim": [{"size": "3"}]}}}}}, {"name": "model_205/tf.strided_slice_96/ones_like", "op": "Const", "attr": {"dtype": {"type": "DT_INT64"}, "value": {"tensor": {"dtype": "DT_INT64", "tensorShape": {"dim": [{"size": "3"}]}}}}}, {"name": "model_205/tf.math.add_440/Add/y", "op": "Const", "attr": {"value": {"tensor": {"dtype": "DT_FLOAT", "tensorShape": {"dim": [{"size": "1"}, {"size": "2"}, {"size": "8400"}]}}}, "dtype": {"type": "DT_FLOAT"}}}, {"name": "model_205/192816", "op": "Const", "attr": {"value": {"tensor": {"dtype": "DT_FLOAT", "tensorShape": {"dim": [{"size": "1"}, {"size": "2"}, {"size": "8400"}]}}}, "dtype": {"type": "DT_FLOAT"}}}, {"name": "model_205/tf.strided_slice_93/StridedSlice/begin", "op": "Const", "attr": {"value": {"tensor": {"dtype": "DT_INT64", "tensorShape": {"dim": [{"size": "3"}]}}}, "dtype": {"type": "DT_INT64"}}}, {"name": "model_205/tf.strided_slice_93/StridedSlice/end", "op": "Const", "attr": {"dtype": {"type": "DT_INT64"}, "value": {"tensor": {"dtype": "DT_INT64", "tensorShape": {"dim": [{"size": "3"}]}}}}}, {"name": "model_205/tf.strided_slice_93/StridedSlice/strides", "op": "Const", "attr": {"dtype": {"type": "DT_INT64"}, "value": {"tensor": {"dtype": "DT_INT64", "tensorShape": {"dim": [{"size": "3"}]}}}}}, {"name": "model_205/tf.reshape_105/Reshape/shape", "op": "Const", "attr": {"dtype": {"type": "DT_INT32"}, "value": {"tensor": {"dtype": "DT_INT32", "tensorShape": {"dim": [{"size": "4"}]}}}}}, {"name": "model_205/tf.compat.v1.transpose_594/transpose/perm", "op": "Const", "attr": {"value": {"tensor": {"dtype": "DT_INT32", "tensorShape": {"dim": [{"size": "4"}]}}}, "dtype": {"type": "DT_INT32"}}}, {"name": "model_205/tf.compat.v1.transpose_595/transpose/perm", "op": "Const", "attr": {"value": {"tensor": {"dtype": "DT_INT32", "tensorShape": {"dim": [{"size": "4"}]}}}, "dtype": {"type": "DT_INT32"}}}, {"name": "model_205/tf.nn.convolution_680/convolution/filter", "op": "Const", "attr": {"value": {"tensor": {"dtype": "DT_FLOAT", "tensorShape": {"dim": [{"size": "1"}, {"size": "1"}, {"size": "16"}, {"size": "1"}]}}}, "dtype": {"type": "DT_FLOAT"}}}, {"name": "model_205/tf.compat.v1.transpose_600/transpose/perm", "op": "Const", "attr": {"dtype": {"type": "DT_INT32"}, "value": {"tensor": {"dtype": "DT_INT32", "tensorShape": {"dim": [{"size": "4"}]}}}}}, {"name": "model_205/tf.reshape_108/Reshape/shape", "op": "Const", "attr": {"value": {"tensor": {"dtype": "DT_INT32", "tensorShape": {"dim": [{"size": "3"}]}}}, "dtype": {"type": "DT_INT32"}}}, {"name": "model_205/tf.strided_slice_95/ones_like/tensor", "op": "Const", "attr": {"dtype": {"type": "DT_INT64"}, "value": {"tensor": {"dtype": "DT_INT64", "tensorShape": {"dim": [{"size": "3"}]}}}}}, {"name": "model_205/tf.strided_slice_95/StridedSlice/end", "op": "Const", "attr": {"value": {"tensor": {"dtype": "DT_INT64", "tensorShape": {"dim": [{"size": "3"}]}}}, "dtype": {"type": "DT_INT64"}}}, {"name": "model_205/tf.strided_slice_95/ones_like", "op": "Const", "attr": {"value": {"tensor": {"dtype": "DT_INT64", "tensorShape": {"dim": [{"size": "3"}]}}}, "dtype": {"type": "DT_INT64"}}}, {"name": "model_205/tf.concat_102/concat/axis", "op": "Const", "attr": {"value": {"tensor": {"dtype": "DT_INT32", "tensorShape": {}}}, "dtype": {"type": "DT_INT32"}}}, {"name": "model_205/tf.math.multiply_1352/Mul/y", "op": "Const", "attr": {"dtype": {"type": "DT_FLOAT"}, "value": {"tensor": {"dtype": "DT_FLOAT", "tensorShape": {"dim": [{"size": "1"}, {"size": "1"}, {"size": "8400"}]}}}}}, {"name": "model_205/tf.nn.convolution_634/convolution/filter", "op": "Const", "attr": {"dtype": {"type": "DT_FLOAT"}, "value": {"tensor": {"dtype": "DT_FLOAT", "tensorShape": {"dim": [{"size": "3"}, {"size": "3"}, {"size": "64"}, {"size": "64"}]}}}}}, {"name": "model_205/tf.math.add_379/Add/y", "op": "Const", "attr": {"dtype": {"type": "DT_FLOAT"}, "value": {"tensor": {"dtype": "DT_FLOAT", "tensorShape": {"dim": [{"size": "64"}]}}}}}, {"name": "model_205/tf.nn.convolution_636/convolution/filter", "op": "Const", "attr": {"dtype": {"type": "DT_FLOAT"}, "value": {"tensor": {"dtype": "DT_FLOAT", "tensorShape": {"dim": [{"size": "3"}, {"size": "3"}, {"size": "64"}, {"size": "64"}]}}}}}, {"name": "model_205/tf.math.add_383/Add/y", "op": "Const", "attr": {"value": {"tensor": {"dtype": "DT_FLOAT", "tensorShape": {"dim": [{"size": "64"}]}}}, "dtype": {"type": "DT_FLOAT"}}}, {"name": "model_205/tf.nn.convolution_641/convolution/filter", "op": "Const", "attr": {"value": {"tensor": {"dtype": "DT_FLOAT", "tensorShape": {"dim": [{"size": "1"}, {"size": "1"}, {"size": "64"}, {"size": "64"}]}}}, "dtype": {"type": "DT_FLOAT"}}}, {"name": "model_205/tf.math.add_388/Add/y", "op": "Const", "attr": {"value": {"tensor": {"dtype": "DT_FLOAT", "tensorShape": {"dim": [{"size": "64"}]}}}, "dtype": {"type": "DT_FLOAT"}}}, {"name": "model_205/tf.compat.v1.nn.depthwise_conv2d_16/depthwise/filter_in", "op": "Const", "attr": {"value": {"tensor": {"dtype": "DT_FLOAT", "tensorShape": {"dim": [{"size": "3"}, {"size": "3"}, {"size": "64"}, {"size": "1"}]}}}, "dtype": {"type": "DT_FLOAT"}}}, {"name": "model_205/tf.math.add_380/Add/y", "op": "Const", "attr": {"dtype": {"type": "DT_FLOAT"}, "value": {"tensor": {"dtype": "DT_FLOAT", "tensorShape": {"dim": [{"size": "64"}]}}}}}, {"name": "model_205/tf.nn.convolution_637/convolution/filter", "op": "Const", "attr": {"value": {"tensor": {"dtype": "DT_FLOAT", "tensorShape": {"dim": [{"size": "1"}, {"size": "1"}, {"size": "64"}, {"size": "80"}]}}}, "dtype": {"type": "DT_FLOAT"}}}, {"name": "model_205/tf.math.add_384/Add/y", "op": "Const", "attr": {"value": {"tensor": {"dtype": "DT_FLOAT", "tensorShape": {"dim": [{"size": "80"}]}}}, "dtype": {"type": "DT_FLOAT"}}}, {"name": "model_205/tf.compat.v1.nn.depthwise_conv2d_19/depthwise/filter_in", "op": "Const", "attr": {"dtype": {"type": "DT_FLOAT"}, "value": {"tensor": {"dtype": "DT_FLOAT", "tensorShape": {"dim": [{"size": "3"}, {"size": "3"}, {"size": "80"}, {"size": "1"}]}}}}}, {"name": "model_205/tf.math.add_391/Add/y", "op": "Const", "attr": {"value": {"tensor": {"dtype": "DT_FLOAT", "tensorShape": {"dim": [{"size": "80"}]}}}, "dtype": {"type": "DT_FLOAT"}}}, {"name": "model_205/tf.nn.convolution_646/convolution/filter", "op": "Const", "attr": {"value": {"tensor": {"dtype": "DT_FLOAT", "tensorShape": {"dim": [{"size": "1"}, {"size": "1"}, {"size": "80"}, {"size": "80"}]}}}, "dtype": {"type": "DT_FLOAT"}}}, {"name": "model_205/tf.math.add_396/Add/y", "op": "Const", "attr": {"value": {"tensor": {"dtype": "DT_FLOAT", "tensorShape": {"dim": [{"size": "80"}]}}}, "dtype": {"type": "DT_FLOAT"}}}, {"name": "model_205/tf.nn.convolution_650/convolution/filter", "op": "Const", "attr": {"value": {"tensor": {"dtype": "DT_FLOAT", "tensorShape": {"dim": [{"size": "1"}, {"size": "1"}, {"size": "80"}, {"size": "80"}]}}}, "dtype": {"type": "DT_FLOAT"}}}, {"name": "model_205/tf.math.add_400/Add/y", "op": "Const", "attr": {"value": {"tensor": {"dtype": "DT_FLOAT", "tensorShape": {"dim": [{"size": "80"}]}}}, "dtype": {"type": "DT_FLOAT"}}}, {"name": "model_205/tf.concat_90/concat/axis", "op": "Const", "attr": {"value": {"tensor": {"dtype": "DT_INT32", "tensorShape": {}}}, "dtype": {"type": "DT_INT32"}}}, {"name": "model_205/tf.compat.v1.transpose_537/transpose/perm", "op": "Const", "attr": {"dtype": {"type": "DT_INT32"}, "value": {"tensor": {"dtype": "DT_INT32", "tensorShape": {"dim": [{"size": "4"}]}}}}}, {"name": "model_205/tf.reshape_90/Reshape/shape", "op": "Const", "attr": {"dtype": {"type": "DT_INT32"}, "value": {"tensor": {"dtype": "DT_INT32", "tensorShape": {"dim": [{"size": "3"}]}}}}}, {"name": "model_205/tf.nn.convolution_654/convolution/filter", "op": "Const", "attr": {"value": {"tensor": {"dtype": "DT_FLOAT", "tensorShape": {"dim": [{"size": "3"}, {"size": "3"}, {"size": "128"}, {"size": "64"}]}}}, "dtype": {"type": "DT_FLOAT"}}}, {"name": "model_205/tf.math.add_406/Add/y", "op": "Const", "attr": {"dtype": {"type": "DT_FLOAT"}, "value": {"tensor": {"dtype": "DT_FLOAT", "tensorShape": {"dim": [{"size": "64"}]}}}}}, {"name": "model_205/tf.nn.convolution_656/convolution/filter", "op": "Const", "attr": {"value": {"tensor": {"dtype": "DT_FLOAT", "tensorShape": {"dim": [{"size": "3"}, {"size": "3"}, {"size": "64"}, {"size": "64"}]}}}, "dtype": {"type": "DT_FLOAT"}}}, {"name": "model_205/tf.math.add_409/Add/y", "op": "Const", "attr": {"dtype": {"type": "DT_FLOAT"}, "value": {"tensor": {"dtype": "DT_FLOAT", "tensorShape": {"dim": [{"size": "64"}]}}}}}, {"name": "model_205/tf.nn.convolution_660/convolution/filter", "op": "Const", "attr": {"value": {"tensor": {"dtype": "DT_FLOAT", "tensorShape": {"dim": [{"size": "1"}, {"size": "1"}, {"size": "64"}, {"size": "64"}]}}}, "dtype": {"type": "DT_FLOAT"}}}, {"name": "model_205/tf.math.add_413/Add/y", "op": "Const", "attr": {"value": {"tensor": {"dtype": "DT_FLOAT", "tensorShape": {"dim": [{"size": "64"}]}}}, "dtype": {"type": "DT_FLOAT"}}}, {"name": "model_205/tf.compat.v1.nn.depthwise_conv2d_20/depthwise/filter_in", "op": "Const", "attr": {"dtype": {"type": "DT_FLOAT"}, "value": {"tensor": {"dtype": "DT_FLOAT", "tensorShape": {"dim": [{"size": "3"}, {"size": "3"}, {"size": "128"}, {"size": "1"}]}}}}}, {"name": "model_205/tf.math.add_407/Add/y", "op": "Const", "attr": {"value": {"tensor": {"dtype": "DT_FLOAT", "tensorShape": {"dim": [{"size": "128"}]}}}, "dtype": {"type": "DT_FLOAT"}}}, {"name": "model_205/tf.nn.convolution_657/convolution/filter", "op": "Const", "attr": {"value": {"tensor": {"dtype": "DT_FLOAT", "tensorShape": {"dim": [{"size": "1"}, {"size": "1"}, {"size": "128"}, {"size": "80"}]}}}, "dtype": {"type": "DT_FLOAT"}}}, {"name": "model_205/tf.math.add_410/Add/y", "op": "Const", "attr": {"value": {"tensor": {"dtype": "DT_FLOAT", "tensorShape": {"dim": [{"size": "80"}]}}}, "dtype": {"type": "DT_FLOAT"}}}, {"name": "model_205/tf.compat.v1.nn.depthwise_conv2d_21/depthwise/filter_in", "op": "Const", "attr": {"value": {"tensor": {"dtype": "DT_FLOAT", "tensorShape": {"dim": [{"size": "3"}, {"size": "3"}, {"size": "80"}, {"size": "1"}]}}}, "dtype": {"type": "DT_FLOAT"}}}, {"name": "model_205/tf.math.add_414/Add/y", "op": "Const", "attr": {"value": {"tensor": {"dtype": "DT_FLOAT", "tensorShape": {"dim": [{"size": "80"}]}}}, "dtype": {"type": "DT_FLOAT"}}}, {"name": "model_205/tf.nn.convolution_663/convolution/filter", "op": "Const", "attr": {"value": {"tensor": {"dtype": "DT_FLOAT", "tensorShape": {"dim": [{"size": "1"}, {"size": "1"}, {"size": "80"}, {"size": "80"}]}}}, "dtype": {"type": "DT_FLOAT"}}}, {"name": "model_205/tf.math.add_417/Add/y", "op": "Const", "attr": {"dtype": {"type": "DT_FLOAT"}, "value": {"tensor": {"dtype": "DT_FLOAT", "tensorShape": {"dim": [{"size": "80"}]}}}}}, {"name": "model_205/tf.nn.convolution_665/convolution/filter", "op": "Const", "attr": {"dtype": {"type": "DT_FLOAT"}, "value": {"tensor": {"dtype": "DT_FLOAT", "tensorShape": {"dim": [{"size": "1"}, {"size": "1"}, {"size": "80"}, {"size": "80"}]}}}}}, {"name": "model_205/tf.math.add_419/Add/y", "op": "Const", "attr": {"dtype": {"type": "DT_FLOAT"}, "value": {"tensor": {"dtype": "DT_FLOAT", "tensorShape": {"dim": [{"size": "80"}]}}}}}, {"name": "model_205/tf.concat_93/concat/axis", "op": "Const", "attr": {"dtype": {"type": "DT_INT32"}, "value": {"tensor": {"dtype": "DT_INT32", "tensorShape": {}}}}}, {"name": "model_205/tf.compat.v1.transpose_562/transpose/perm", "op": "Const", "attr": {"value": {"tensor": {"dtype": "DT_INT32", "tensorShape": {"dim": [{"size": "4"}]}}}, "dtype": {"type": "DT_INT32"}}}, {"name": "model_205/tf.reshape_96/Reshape/shape", "op": "Const", "attr": {"dtype": {"type": "DT_INT32"}, "value": {"tensor": {"dtype": "DT_INT32", "tensorShape": {"dim": [{"size": "3"}]}}}}}, {"name": "model_205/tf.nn.convolution_672/convolution/filter", "op": "Const", "attr": {"value": {"tensor": {"dtype": "DT_FLOAT", "tensorShape": {"dim": [{"size": "3"}, {"size": "3"}, {"size": "256"}, {"size": "64"}]}}}, "dtype": {"type": "DT_FLOAT"}}}, {"name": "model_205/tf.math.add_430/Add/y", "op": "Const", "attr": {"dtype": {"type": "DT_FLOAT"}, "value": {"tensor": {"dtype": "DT_FLOAT", "tensorShape": {"dim": [{"size": "64"}]}}}}}, {"name": "model_205/tf.nn.convolution_674/convolution/filter", "op": "Const", "attr": {"value": {"tensor": {"dtype": "DT_FLOAT", "tensorShape": {"dim": [{"size": "3"}, {"size": "3"}, {"size": "64"}, {"size": "64"}]}}}, "dtype": {"type": "DT_FLOAT"}}}, {"name": "model_205/tf.math.add_433/Add/y", "op": "Const", "attr": {"dtype": {"type": "DT_FLOAT"}, "value": {"tensor": {"dtype": "DT_FLOAT", "tensorShape": {"dim": [{"size": "64"}]}}}}}, {"name": "model_205/tf.nn.convolution_677/convolution/filter", "op": "Const", "attr": {"value": {"tensor": {"dtype": "DT_FLOAT", "tensorShape": {"dim": [{"size": "1"}, {"size": "1"}, {"size": "64"}, {"size": "64"}]}}}, "dtype": {"type": "DT_FLOAT"}}}, {"name": "model_205/tf.math.add_436/Add/y", "op": "Const", "attr": {"dtype": {"type": "DT_FLOAT"}, "value": {"tensor": {"dtype": "DT_FLOAT", "tensorShape": {"dim": [{"size": "64"}]}}}}}, {"name": "model_205/tf.compat.v1.nn.depthwise_conv2d_22/depthwise/filter_in", "op": "Const", "attr": {"value": {"tensor": {"dtype": "DT_FLOAT", "tensorShape": {"dim": [{"size": "3"}, {"size": "3"}, {"size": "256"}, {"size": "1"}]}}}, "dtype": {"type": "DT_FLOAT"}}}, {"name": "model_205/tf.math.add_431/Add/y", "op": "Const", "attr": {"value": {"tensor": {"dtype": "DT_FLOAT", "tensorShape": {"dim": [{"size": "256"}]}}}, "dtype": {"type": "DT_FLOAT"}}}, {"name": "model_205/tf.nn.convolution_675/convolution/filter", "op": "Const", "attr": {"dtype": {"type": "DT_FLOAT"}, "value": {"tensor": {"dtype": "DT_FLOAT", "tensorShape": {"dim": [{"size": "1"}, {"size": "1"}, {"size": "256"}, {"size": "80"}]}}}}}, {"name": "model_205/tf.math.add_434/Add/y", "op": "Const", "attr": {"value": {"tensor": {"dtype": "DT_FLOAT", "tensorShape": {"dim": [{"size": "80"}]}}}, "dtype": {"type": "DT_FLOAT"}}}, {"name": "model_205/tf.compat.v1.nn.depthwise_conv2d_23/depthwise/filter_in", "op": "Const", "attr": {"value": {"tensor": {"dtype": "DT_FLOAT", "tensorShape": {"dim": [{"size": "3"}, {"size": "3"}, {"size": "80"}, {"size": "1"}]}}}, "dtype": {"type": "DT_FLOAT"}}}, {"name": "model_205/tf.math.add_437/Add/y", "op": "Const", "attr": {"dtype": {"type": "DT_FLOAT"}, "value": {"tensor": {"dtype": "DT_FLOAT", "tensorShape": {"dim": [{"size": "80"}]}}}}}, {"name": "model_205/tf.nn.convolution_678/convolution/filter", "op": "Const", "attr": {"value": {"tensor": {"dtype": "DT_FLOAT", "tensorShape": {"dim": [{"size": "1"}, {"size": "1"}, {"size": "80"}, {"size": "80"}]}}}, "dtype": {"type": "DT_FLOAT"}}}, {"name": "model_205/tf.math.add_438/Add/y", "op": "Const", "attr": {"dtype": {"type": "DT_FLOAT"}, "value": {"tensor": {"dtype": "DT_FLOAT", "tensorShape": {"dim": [{"size": "80"}]}}}}}, {"name": "model_205/tf.nn.convolution_679/convolution/filter", "op": "Const", "attr": {"value": {"tensor": {"dtype": "DT_FLOAT", "tensorShape": {"dim": [{"size": "1"}, {"size": "1"}, {"size": "80"}, {"size": "80"}]}}}, "dtype": {"type": "DT_FLOAT"}}}, {"name": "model_205/tf.math.add_439/Add/y", "op": "Const", "attr": {"dtype": {"type": "DT_FLOAT"}, "value": {"tensor": {"dtype": "DT_FLOAT", "tensorShape": {"dim": [{"size": "80"}]}}}}}, {"name": "model_205/tf.concat_97/concat/axis", "op": "Const", "attr": {"dtype": {"type": "DT_INT32"}, "value": {"tensor": {"dtype": "DT_INT32", "tensorShape": {}}}}}, {"name": "model_205/tf.compat.v1.transpose_587/transpose/perm", "op": "Const", "attr": {"value": {"tensor": {"dtype": "DT_INT32", "tensorShape": {"dim": [{"size": "4"}]}}}, "dtype": {"type": "DT_INT32"}}}, {"name": "model_205/tf.reshape_102/Reshape/shape", "op": "Const", "attr": {"dtype": {"type": "DT_INT32"}, "value": {"tensor": {"dtype": "DT_INT32", "tensorShape": {"dim": [{"size": "3"}]}}}}}, {"name": "model_205/tf.concat_98/concat/axis", "op": "Const", "attr": {"value": {"tensor": {"dtype": "DT_INT32", "tensorShape": {}}}, "dtype": {"type": "DT_INT32"}}}, {"name": "model_205/tf.strided_slice_94/StridedSlice/begin", "op": "Const", "attr": {"dtype": {"type": "DT_INT64"}, "value": {"tensor": {"dtype": "DT_INT64", "tensorShape": {"dim": [{"size": "3"}]}}}}}, {"name": "model_205/tf.strided_slice_94/StridedSlice/end", "op": "Const", "attr": {"value": {"tensor": {"dtype": "DT_INT64", "tensorShape": {"dim": [{"size": "3"}]}}}, "dtype": {"type": "DT_INT64"}}}, {"name": "model_205/tf.strided_slice_94/StridedSlice/strides", "op": "Const", "attr": {"value": {"tensor": {"dtype": "DT_INT64", "tensorShape": {"dim": [{"size": "3"}]}}}, "dtype": {"type": "DT_INT64"}}}, {"name": "model_205/tf.nn.convolution_633/convolution/filter", "op": "Const", "attr": {"dtype": {"type": "DT_FLOAT"}, "value": {"tensor": {"dtype": "DT_FLOAT", "tensorShape": {"dim": [{"size": "3"}, {"size": "3"}, {"size": "64"}, {"size": "32"}]}}}}}, {"name": "model_205/tf.math.add_378/Add/y", "op": "Const", "attr": {"dtype": {"type": "DT_FLOAT"}, "value": {"tensor": {"dtype": "DT_FLOAT", "tensorShape": {"dim": [{"size": "32"}]}}}}}, {"name": "model_205/tf.nn.convolution_635/convolution/filter", "op": "Const", "attr": {"dtype": {"type": "DT_FLOAT"}, "value": {"tensor": {"dtype": "DT_FLOAT", "tensorShape": {"dim": [{"size": "3"}, {"size": "3"}, {"size": "32"}, {"size": "32"}]}}}}}, {"name": "model_205/tf.math.add_382/Add/y", "op": "Const", "attr": {"value": {"tensor": {"dtype": "DT_FLOAT", "tensorShape": {"dim": [{"size": "32"}]}}}, "dtype": {"type": "DT_FLOAT"}}}, {"name": "model_205/tf.nn.convolution_640/convolution/filter", "op": "Const", "attr": {"value": {"tensor": {"dtype": "DT_FLOAT", "tensorShape": {"dim": [{"size": "1"}, {"size": "1"}, {"size": "32"}, {"size": "32"}]}}}, "dtype": {"type": "DT_FLOAT"}}}, {"name": "model_205/tf.math.add_387/Add/y", "op": "Const", "attr": {"dtype": {"type": "DT_FLOAT"}, "value": {"tensor": {"dtype": "DT_FLOAT", "tensorShape": {"dim": [{"size": "32"}]}}}}}, {"name": "model_205/tf.compat.v1.transpose_521/transpose/perm", "op": "Const", "attr": {"value": {"tensor": {"dtype": "DT_INT32", "tensorShape": {"dim": [{"size": "4"}]}}}, "dtype": {"type": "DT_INT32"}}}, {"name": "model_205/tf.reshape_87/Reshape/shape", "op": "Const", "attr": {"value": {"tensor": {"dtype": "DT_INT32", "tensorShape": {"dim": [{"size": "3"}]}}}, "dtype": {"type": "DT_INT32"}}}, {"name": "model_205/tf.nn.convolution_653/convolution/filter", "op": "Const", "attr": {"dtype": {"type": "DT_FLOAT"}, "value": {"tensor": {"dtype": "DT_FLOAT", "tensorShape": {"dim": [{"size": "3"}, {"size": "3"}, {"size": "128"}, {"size": "32"}]}}}}}, {"name": "model_205/tf.math.add_405/Add/y", "op": "Const", "attr": {"value": {"tensor": {"dtype": "DT_FLOAT", "tensorShape": {"dim": [{"size": "32"}]}}}, "dtype": {"type": "DT_FLOAT"}}}, {"name": "model_205/tf.nn.convolution_655/convolution/filter", "op": "Const", "attr": {"value": {"tensor": {"dtype": "DT_FLOAT", "tensorShape": {"dim": [{"size": "3"}, {"size": "3"}, {"size": "32"}, {"size": "32"}]}}}, "dtype": {"type": "DT_FLOAT"}}}, {"name": "model_205/tf.math.add_408/Add/y", "op": "Const", "attr": {"value": {"tensor": {"dtype": "DT_FLOAT", "tensorShape": {"dim": [{"size": "32"}]}}}, "dtype": {"type": "DT_FLOAT"}}}, {"name": "model_205/tf.nn.convolution_659/convolution/filter", "op": "Const", "attr": {"value": {"tensor": {"dtype": "DT_FLOAT", "tensorShape": {"dim": [{"size": "1"}, {"size": "1"}, {"size": "32"}, {"size": "32"}]}}}, "dtype": {"type": "DT_FLOAT"}}}, {"name": "model_205/tf.math.add_412/Add/y", "op": "Const", "attr": {"dtype": {"type": "DT_FLOAT"}, "value": {"tensor": {"dtype": "DT_FLOAT", "tensorShape": {"dim": [{"size": "32"}]}}}}}, {"name": "model_205/tf.compat.v1.transpose_552/transpose/perm", "op": "Const", "attr": {"dtype": {"type": "DT_INT32"}, "value": {"tensor": {"dtype": "DT_INT32", "tensorShape": {"dim": [{"size": "4"}]}}}}}, {"name": "model_205/tf.reshape_93/Reshape/shape", "op": "Const", "attr": {"value": {"tensor": {"dtype": "DT_INT32", "tensorShape": {"dim": [{"size": "3"}]}}}, "dtype": {"type": "DT_INT32"}}}, {"name": "model_205/tf.strided_slice_91/ones_like/tensor", "op": "Const", "attr": {"dtype": {"type": "DT_INT64"}, "value": {"tensor": {"dtype": "DT_INT64", "tensorShape": {"dim": [{"size": "4"}]}}}}}, {"name": "model_205/tf.strided_slice_91/StridedSlice/end", "op": "Const", "attr": {"dtype": {"type": "DT_INT64"}, "value": {"tensor": {"dtype": "DT_INT64", "tensorShape": {"dim": [{"size": "4"}]}}}}}, {"name": "model_205/tf.strided_slice_91/ones_like", "op": "Const", "attr": {"value": {"tensor": {"dtype": "DT_INT64", "tensorShape": {"dim": [{"size": "4"}]}}}, "dtype": {"type": "DT_INT64"}}}, {"name": "model_205/tf.nn.convolution_661/convolution/filter", "op": "Const", "attr": {"value": {"tensor": {"dtype": "DT_FLOAT", "tensorShape": {"dim": [{"size": "1"}, {"size": "1"}, {"size": "128"}, {"size": "64"}]}}}, "dtype": {"type": "DT_FLOAT"}}}, {"name": "model_205/tf.math.add_415/Add/y", "op": "Const", "attr": {"value": {"tensor": {"dtype": "DT_FLOAT", "tensorShape": {"dim": [{"size": "64"}]}}}, "dtype": {"type": "DT_FLOAT"}}}, {"name": "model_205/tf.nn.convolution_664/convolution/filter", "op": "Const", "attr": {"dtype": {"type": "DT_FLOAT"}, "value": {"tensor": {"dtype": "DT_FLOAT", "tensorShape": {"dim": [{"size": "3"}, {"size": "3"}, {"size": "64"}, {"size": "64"}]}}}}}, {"name": "model_205/tf.math.add_418/Add/y", "op": "Const", "attr": {"value": {"tensor": {"dtype": "DT_FLOAT", "tensorShape": {"dim": [{"size": "64"}]}}}, "dtype": {"type": "DT_FLOAT"}}}, {"name": "model_205/tf.nn.convolution_666/convolution/filter", "op": "Const", "attr": {"dtype": {"type": "DT_FLOAT"}, "value": {"tensor": {"dtype": "DT_FLOAT", "tensorShape": {"dim": [{"size": "3"}, {"size": "3"}, {"size": "64"}, {"size": "64"}]}}}}}, {"name": "model_205/tf.math.add_420/Add/y", "op": "Const", "attr": {"dtype": {"type": "DT_FLOAT"}, "value": {"tensor": {"dtype": "DT_FLOAT", "tensorShape": {"dim": [{"size": "64"}]}}}}}, {"name": "model_205/tf.nn.convolution_667/convolution/filter", "op": "Const", "attr": {"dtype": {"type": "DT_FLOAT"}, "value": {"tensor": {"dtype": "DT_FLOAT", "tensorShape": {"dim": [{"size": "3"}, {"size": "3"}, {"size": "64"}, {"size": "64"}]}}}}}, {"name": "model_205/tf.math.add_423/Add/y", "op": "Const", "attr": {"dtype": {"type": "DT_FLOAT"}, "value": {"tensor": {"dtype": "DT_FLOAT", "tensorShape": {"dim": [{"size": "64"}]}}}}}, {"name": "model_205/tf.nn.convolution_668/convolution/filter", "op": "Const", "attr": {"dtype": {"type": "DT_FLOAT"}, "value": {"tensor": {"dtype": "DT_FLOAT", "tensorShape": {"dim": [{"size": "3"}, {"size": "3"}, {"size": "64"}, {"size": "64"}]}}}}}, {"name": "model_205/tf.math.add_424/Add/y", "op": "Const", "attr": {"dtype": {"type": "DT_FLOAT"}, "value": {"tensor": {"dtype": "DT_FLOAT", "tensorShape": {"dim": [{"size": "64"}]}}}}}, {"name": "model_205/tf.strided_slice_89/ones_like/tensor", "op": "Const", "attr": {"value": {"tensor": {"dtype": "DT_INT64", "tensorShape": {"dim": [{"size": "4"}]}}}, "dtype": {"type": "DT_INT64"}}}, {"name": "model_205/tf.strided_slice_89/StridedSlice/end", "op": "Const", "attr": {"dtype": {"type": "DT_INT64"}, "value": {"tensor": {"dtype": "DT_INT64", "tensorShape": {"dim": [{"size": "4"}]}}}}}, {"name": "model_205/tf.strided_slice_89/ones_like", "op": "Const", "attr": {"dtype": {"type": "DT_INT64"}, "value": {"tensor": {"dtype": "DT_INT64", "tensorShape": {"dim": [{"size": "4"}]}}}}}, {"name": "model_205/tf.strided_slice_87/ones_like/tensor", "op": "Const", "attr": {"value": {"tensor": {"dtype": "DT_INT64", "tensorShape": {"dim": [{"size": "4"}]}}}, "dtype": {"type": "DT_INT64"}}}, {"name": "model_205/tf.strided_slice_87/StridedSlice/end", "op": "Const", "attr": {"value": {"tensor": {"dtype": "DT_INT64", "tensorShape": {"dim": [{"size": "4"}]}}}, "dtype": {"type": "DT_INT64"}}}, {"name": "model_205/tf.strided_slice_87/ones_like", "op": "Const", "attr": {"value": {"tensor": {"dtype": "DT_INT64", "tensorShape": {"dim": [{"size": "4"}]}}}, "dtype": {"type": "DT_INT64"}}}, {"name": "model_205/tf.image.resize_5/resize/size", "op": "Const", "attr": {"value": {"tensor": {"dtype": "DT_INT32", "tensorShape": {"dim": [{"size": "2"}]}}}, "dtype": {"type": "DT_INT32"}}}, {"name": "model_205/tf.concat_85/concat/axis", "op": "Const", "attr": {"value": {"tensor": {"dtype": "DT_INT32", "tensorShape": {}}}, "dtype": {"type": "DT_INT32"}}}, {"name": "model_205/tf.nn.convolution_627/convolution/filter", "op": "Const", "attr": {"dtype": {"type": "DT_FLOAT"}, "value": {"tensor": {"dtype": "DT_FLOAT", "tensorShape": {"dim": [{"size": "1"}, {"size": "1"}, {"size": "256"}, {"size": "64"}]}}}}}, {"name": "model_205/tf.math.add_370/Add/y", "op": "Const", "attr": {"value": {"tensor": {"dtype": "DT_FLOAT", "tensorShape": {"dim": [{"size": "64"}]}}}, "dtype": {"type": "DT_FLOAT"}}}, {"name": "model_205/tf.strided_slice_88/ones_like/tensor", "op": "Const", "attr": {"value": {"tensor": {"dtype": "DT_INT64", "tensorShape": {"dim": [{"size": "4"}]}}}, "dtype": {"type": "DT_INT64"}}}, {"name": "model_205/tf.strided_slice_88/StridedSlice/end", "op": "Const", "attr": {"value": {"tensor": {"dtype": "DT_INT64", "tensorShape": {"dim": [{"size": "4"}]}}}, "dtype": {"type": "DT_INT64"}}}, {"name": "model_205/tf.strided_slice_88/ones_like", "op": "Const", "attr": {"value": {"tensor": {"dtype": "DT_INT64", "tensorShape": {"dim": [{"size": "4"}]}}}, "dtype": {"type": "DT_INT64"}}}, {"name": "model_205/tf.nn.convolution_628/convolution/filter", "op": "Const", "attr": {"dtype": {"type": "DT_FLOAT"}, "value": {"tensor": {"dtype": "DT_FLOAT", "tensorShape": {"dim": [{"size": "3"}, {"size": "3"}, {"size": "32"}, {"size": "16"}]}}}}}, {"name": "model_205/tf.math.add_371/Add/y", "op": "Const", "attr": {"value": {"tensor": {"dtype": "DT_FLOAT", "tensorShape": {"dim": [{"size": "16"}]}}}, "dtype": {"type": "DT_FLOAT"}}}, {"name": "model_205/tf.nn.convolution_629/convolution/filter", "op": "Const", "attr": {"value": {"tensor": {"dtype": "DT_FLOAT", "tensorShape": {"dim": [{"size": "3"}, {"size": "3"}, {"size": "16"}, {"size": "32"}]}}}, "dtype": {"type": "DT_FLOAT"}}}, {"name": "model_205/tf.math.add_372/Add/y", "op": "Const", "attr": {"value": {"tensor": {"dtype": "DT_FLOAT", "tensorShape": {"dim": [{"size": "32"}]}}}, "dtype": {"type": "DT_FLOAT"}}}, {"name": "model_205/tf.concat_86/concat/axis", "op": "Const", "attr": {"dtype": {"type": "DT_INT32"}, "value": {"tensor": {"dtype": "DT_INT32", "tensorShape": {}}}}}, {"name": "model_205/tf.nn.convolution_630/convolution/filter", "op": "Const", "attr": {"dtype": {"type": "DT_FLOAT"}, "value": {"tensor": {"dtype": "DT_FLOAT", "tensorShape": {"dim": [{"size": "1"}, {"size": "1"}, {"size": "96"}, {"size": "64"}]}}}}}, {"name": "model_205/tf.math.add_375/Add/y", "op": "Const", "attr": {"dtype": {"type": "DT_FLOAT"}, "value": {"tensor": {"dtype": "DT_FLOAT", "tensorShape": {"dim": [{"size": "64"}]}}}}}, {"name": "model_205/tf.compat.v1.pad_22/Pad/paddings", "op": "Const", "attr": {"value": {"tensor": {"dtype": "DT_INT32", "tensorShape": {"dim": [{"size": "4"}, {"size": "2"}]}}}, "dtype": {"type": "DT_INT32"}}}, {"name": "model_205/tf.nn.convolution_631/convolution/filter", "op": "Const", "attr": {"dtype": {"type": "DT_FLOAT"}, "value": {"tensor": {"dtype": "DT_FLOAT", "tensorShape": {"dim": [{"size": "3"}, {"size": "3"}, {"size": "64"}, {"size": "64"}]}}}}}, {"name": "model_205/tf.math.add_376/Add/y", "op": "Const", "attr": {"value": {"tensor": {"dtype": "DT_FLOAT", "tensorShape": {"dim": [{"size": "64"}]}}}, "dtype": {"type": "DT_FLOAT"}}}, {"name": "model_205/tf.strided_slice_85/ones_like/tensor", "op": "Const", "attr": {"dtype": {"type": "DT_INT64"}, "value": {"tensor": {"dtype": "DT_INT64", "tensorShape": {"dim": [{"size": "4"}]}}}}}, {"name": "model_205/tf.strided_slice_85/StridedSlice/end", "op": "Const", "attr": {"dtype": {"type": "DT_INT64"}, "value": {"tensor": {"dtype": "DT_INT64", "tensorShape": {"dim": [{"size": "4"}]}}}}}, {"name": "model_205/tf.strided_slice_85/ones_like", "op": "Const", "attr": {"dtype": {"type": "DT_INT64"}, "value": {"tensor": {"dtype": "DT_INT64", "tensorShape": {"dim": [{"size": "4"}]}}}}}, {"name": "model_205/tf.image.resize_4/resize/size", "op": "Const", "attr": {"value": {"tensor": {"dtype": "DT_INT32", "tensorShape": {"dim": [{"size": "2"}]}}}, "dtype": {"type": "DT_INT32"}}}, {"name": "model_205/tf.concat_83/concat/axis", "op": "Const", "attr": {"dtype": {"type": "DT_INT32"}, "value": {"tensor": {"dtype": "DT_INT32", "tensorShape": {}}}}}, {"name": "model_205/tf.nn.convolution_623/convolution/filter", "op": "Const", "attr": {"value": {"tensor": {"dtype": "DT_FLOAT", "tensorShape": {"dim": [{"size": "1"}, {"size": "1"}, {"size": "384"}, {"size": "128"}]}}}, "dtype": {"type": "DT_FLOAT"}}}, {"name": "model_205/tf.math.add_364/Add/y", "op": "Const", "attr": {"value": {"tensor": {"dtype": "DT_FLOAT", "tensorShape": {"dim": [{"size": "128"}]}}}, "dtype": {"type": "DT_FLOAT"}}}, {"name": "model_205/tf.strided_slice_86/ones_like/tensor", "op": "Const", "attr": {"value": {"tensor": {"dtype": "DT_INT64", "tensorShape": {"dim": [{"size": "4"}]}}}, "dtype": {"type": "DT_INT64"}}}, {"name": "model_205/tf.strided_slice_86/StridedSlice/end", "op": "Const", "attr": {"value": {"tensor": {"dtype": "DT_INT64", "tensorShape": {"dim": [{"size": "4"}]}}}, "dtype": {"type": "DT_INT64"}}}, {"name": "model_205/tf.strided_slice_86/ones_like", "op": "Const", "attr": {"value": {"tensor": {"dtype": "DT_INT64", "tensorShape": {"dim": [{"size": "4"}]}}}, "dtype": {"type": "DT_INT64"}}}, {"name": "model_205/tf.nn.convolution_624/convolution/filter", "op": "Const", "attr": {"value": {"tensor": {"dtype": "DT_FLOAT", "tensorShape": {"dim": [{"size": "3"}, {"size": "3"}, {"size": "64"}, {"size": "32"}]}}}, "dtype": {"type": "DT_FLOAT"}}}, {"name": "model_205/tf.math.add_365/Add/y", "op": "Const", "attr": {"dtype": {"type": "DT_FLOAT"}, "value": {"tensor": {"dtype": "DT_FLOAT", "tensorShape": {"dim": [{"size": "32"}]}}}}}, {"name": "model_205/tf.nn.convolution_625/convolution/filter", "op": "Const", "attr": {"dtype": {"type": "DT_FLOAT"}, "value": {"tensor": {"dtype": "DT_FLOAT", "tensorShape": {"dim": [{"size": "3"}, {"size": "3"}, {"size": "32"}, {"size": "64"}]}}}}}, {"name": "model_205/tf.math.add_366/Add/y", "op": "Const", "attr": {"dtype": {"type": "DT_FLOAT"}, "value": {"tensor": {"dtype": "DT_FLOAT", "tensorShape": {"dim": [{"size": "64"}]}}}}}, {"name": "model_205/tf.concat_84/concat/axis", "op": "Const", "attr": {"dtype": {"type": "DT_INT32"}, "value": {"tensor": {"dtype": "DT_INT32", "tensorShape": {}}}}}, {"name": "model_205/tf.nn.convolution_626/convolution/filter", "op": "Const", "attr": {"dtype": {"type": "DT_FLOAT"}, "value": {"tensor": {"dtype": "DT_FLOAT", "tensorShape": {"dim": [{"size": "1"}, {"size": "1"}, {"size": "192"}, {"size": "128"}]}}}}}, {"name": "model_205/tf.math.add_369/Add/y", "op": "Const", "attr": {"value": {"tensor": {"dtype": "DT_FLOAT", "tensorShape": {"dim": [{"size": "128"}]}}}, "dtype": {"type": "DT_FLOAT"}}}, {"name": "model_205/tf.concat_87/concat/axis", "op": "Const", "attr": {"value": {"tensor": {"dtype": "DT_INT32", "tensorShape": {}}}, "dtype": {"type": "DT_INT32"}}}, {"name": "model_205/tf.nn.convolution_638/convolution/filter", "op": "Const", "attr": {"dtype": {"type": "DT_FLOAT"}, "value": {"tensor": {"dtype": "DT_FLOAT", "tensorShape": {"dim": [{"size": "1"}, {"size": "1"}, {"size": "192"}, {"size": "128"}]}}}}}, {"name": "model_205/tf.math.add_385/Add/y", "op": "Const", "attr": {"value": {"tensor": {"dtype": "DT_FLOAT", "tensorShape": {"dim": [{"size": "128"}]}}}, "dtype": {"type": "DT_FLOAT"}}}, {"name": "model_205/tf.strided_slice_90/ones_like/tensor", "op": "Const", "attr": {"dtype": {"type": "DT_INT64"}, "value": {"tensor": {"dtype": "DT_INT64", "tensorShape": {"dim": [{"size": "4"}]}}}}}, {"name": "model_205/tf.strided_slice_90/StridedSlice/end", "op": "Const", "attr": {"value": {"tensor": {"dtype": "DT_INT64", "tensorShape": {"dim": [{"size": "4"}]}}}, "dtype": {"type": "DT_INT64"}}}, {"name": "model_205/tf.strided_slice_90/ones_like", "op": "Const", "attr": {"value": {"tensor": {"dtype": "DT_INT64", "tensorShape": {"dim": [{"size": "4"}]}}}, "dtype": {"type": "DT_INT64"}}}, {"name": "model_205/tf.nn.convolution_643/convolution/filter", "op": "Const", "attr": {"dtype": {"type": "DT_FLOAT"}, "value": {"tensor": {"dtype": "DT_FLOAT", "tensorShape": {"dim": [{"size": "3"}, {"size": "3"}, {"size": "64"}, {"size": "32"}]}}}}}, {"name": "model_205/tf.math.add_393/Add/y", "op": "Const", "attr": {"dtype": {"type": "DT_FLOAT"}, "value": {"tensor": {"dtype": "DT_FLOAT", "tensorShape": {"dim": [{"size": "32"}]}}}}}, {"name": "model_205/tf.nn.convolution_647/convolution/filter", "op": "Const", "attr": {"value": {"tensor": {"dtype": "DT_FLOAT", "tensorShape": {"dim": [{"size": "3"}, {"size": "3"}, {"size": "32"}, {"size": "64"}]}}}, "dtype": {"type": "DT_FLOAT"}}}, {"name": "model_205/tf.math.add_397/Add/y", "op": "Const", "attr": {"value": {"tensor": {"dtype": "DT_FLOAT", "tensorShape": {"dim": [{"size": "64"}]}}}, "dtype": {"type": "DT_FLOAT"}}}, {"name": "model_205/tf.concat_91/concat/axis", "op": "Const", "attr": {"dtype": {"type": "DT_INT32"}, "value": {"tensor": {"dtype": "DT_INT32", "tensorShape": {}}}}}, {"name": "model_205/tf.nn.convolution_651/convolution/filter", "op": "Const", "attr": {"value": {"tensor": {"dtype": "DT_FLOAT", "tensorShape": {"dim": [{"size": "1"}, {"size": "1"}, {"size": "192"}, {"size": "128"}]}}}, "dtype": {"type": "DT_FLOAT"}}}, {"name": "model_205/tf.math.add_403/Add/y", "op": "Const", "attr": {"dtype": {"type": "DT_FLOAT"}, "value": {"tensor": {"dtype": "DT_FLOAT", "tensorShape": {"dim": [{"size": "128"}]}}}}}, {"name": "model_205/tf.compat.v1.pad_23/Pad/paddings", "op": "Const", "attr": {"value": {"tensor": {"dtype": "DT_INT32", "tensorShape": {"dim": [{"size": "4"}, {"size": "2"}]}}}, "dtype": {"type": "DT_INT32"}}}, {"name": "model_205/tf.nn.convolution_652/convolution/filter", "op": "Const", "attr": {"dtype": {"type": "DT_FLOAT"}, "value": {"tensor": {"dtype": "DT_FLOAT", "tensorShape": {"dim": [{"size": "3"}, {"size": "3"}, {"size": "128"}, {"size": "128"}]}}}}}, {"name": "model_205/tf.math.add_404/Add/y", "op": "Const", "attr": {"dtype": {"type": "DT_FLOAT"}, "value": {"tensor": {"dtype": "DT_FLOAT", "tensorShape": {"dim": [{"size": "128"}]}}}}}, {"name": "model_205/tf.math.add_360/Add/y", "op": "Const", "attr": {"dtype": {"type": "DT_FLOAT"}, "value": {"tensor": {"dtype": "DT_FLOAT", "tensorShape": {"dim": [{"size": "128"}]}}}}}, {"name": "model_205/tf.math.add_356/Add/y", "op": "Const", "attr": {"value": {"tensor": {"dtype": "DT_FLOAT", "tensorShape": {"dim": [{"size": "128"}]}}}, "dtype": {"type": "DT_FLOAT"}}}, {"name": "model_205/tf.math.add_353/Add/y", "op": "Const", "attr": {"value": {"tensor": {"dtype": "DT_FLOAT", "tensorShape": {"dim": [{"size": "128"}]}}}, "dtype": {"type": "DT_FLOAT"}}}, {"name": "model_205/tf.strided_slice_82/StridedSlice/begin", "op": "Const", "attr": {"dtype": {"type": "DT_INT32"}, "value": {"tensor": {"dtype": "DT_INT32", "tensorShape": {"dim": [{"size": "4"}]}}}}}, {"name": "model_205/tf.strided_slice_82/StridedSlice/end", "op": "Const", "attr": {"value": {"tensor": {"dtype": "DT_INT32", "tensorShape": {"dim": [{"size": "4"}]}}}, "dtype": {"type": "DT_INT32"}}}, {"name": "model_205/tf.strided_slice_82/ones_like", "op": "Const", "attr": {"value": {"tensor": {"dtype": "DT_INT32", "tensorShape": {"dim": [{"size": "4"}]}}}, "dtype": {"type": "DT_INT32"}}}, {"name": "model_205/tf.strided_slice_83/StridedSlice/begin", "op": "Const", "attr": {"value": {"tensor": {"dtype": "DT_INT32", "tensorShape": {"dim": [{"size": "4"}]}}}, "dtype": {"type": "DT_INT32"}}}, {"name": "model_205/tf.strided_slice_83/StridedSlice/end", "op": "Const", "attr": {"value": {"tensor": {"dtype": "DT_INT32", "tensorShape": {"dim": [{"size": "4"}]}}}, "dtype": {"type": "DT_INT32"}}}, {"name": "model_205/tf.strided_slice_83/ones_like", "op": "Const", "attr": {"value": {"tensor": {"dtype": "DT_INT32", "tensorShape": {"dim": [{"size": "4"}]}}}, "dtype": {"type": "DT_INT32"}}}, {"name": "model_205/tf.math.multiply_1115/Mul/y", "op": "Const", "attr": {"value": {"tensor": {"dtype": "DT_FLOAT", "tensorShape": {}}}, "dtype": {"type": "DT_FLOAT"}}}, {"name": "model_205/tf.reshape_84/Reshape/shape", "op": "Const", "attr": {"value": {"tensor": {"dtype": "DT_INT32", "tensorShape": {"dim": [{"size": "4"}]}}}, "dtype": {"type": "DT_INT32"}}}, {"name": "model_205/tf.compat.v1.transpose_490/transpose/perm", "op": "Const", "attr": {"dtype": {"type": "DT_INT32"}, "value": {"tensor": {"dtype": "DT_INT32", "tensorShape": {"dim": [{"size": "4"}]}}}}}, {"name": "model_205/tf.nn.convolution_491/convolution/filter", "op": "Const", "attr": {"dtype": {"type": "DT_FLOAT"}, "value": {"tensor": {"dtype": "DT_FLOAT", "tensorShape": {"dim": [{"size": "3"}, {"size": "3"}, {"size": "1"}, {"size": "1"}]}}}}}, {"name": "model_205/tf.nn.convolution_492/convolution/filter", "op": "Const", "attr": {"dtype": {"type": "DT_FLOAT"}, "value": {"tensor": {"dtype": "DT_FLOAT", "tensorShape": {"dim": [{"size": "3"}, {"size": "3"}, {"size": "1"}, {"size": "1"}]}}}}}, {"name": "model_205/tf.nn.convolution_493/convolution/filter", "op": "Const", "attr": {"dtype": {"type": "DT_FLOAT"}, "value": {"tensor": {"dtype": "DT_FLOAT", "tensorShape": {"dim": [{"size": "3"}, {"size": "3"}, {"size": "1"}, {"size": "1"}]}}}}}, {"name": "model_205/tf.nn.convolution_494/convolution/filter", "op": "Const", "attr": {"value": {"tensor": {"dtype": "DT_FLOAT", "tensorShape": {"dim": [{"size": "3"}, {"size": "3"}, {"size": "1"}, {"size": "1"}]}}}, "dtype": {"type": "DT_FLOAT"}}}, {"name": "model_205/tf.nn.convolution_495/convolution/filter", "op": "Const", "attr": {"dtype": {"type": "DT_FLOAT"}, "value": {"tensor": {"dtype": "DT_FLOAT", "tensorShape": {"dim": [{"size": "3"}, {"size": "3"}, {"size": "1"}, {"size": "1"}]}}}}}, {"name": "model_205/tf.nn.convolution_496/convolution/filter", "op": "Const", "attr": {"value": {"tensor": {"dtype": "DT_FLOAT", "tensorShape": {"dim": [{"size": "3"}, {"size": "3"}, {"size": "1"}, {"size": "1"}]}}}, "dtype": {"type": "DT_FLOAT"}}}, {"name": "model_205/tf.nn.convolution_497/convolution/filter", "op": "Const", "attr": {"dtype": {"type": "DT_FLOAT"}, "value": {"tensor": {"dtype": "DT_FLOAT", "tensorShape": {"dim": [{"size": "3"}, {"size": "3"}, {"size": "1"}, {"size": "1"}]}}}}}, {"name": "model_205/tf.nn.convolution_498/convolution/filter", "op": "Const", "attr": {"value": {"tensor": {"dtype": "DT_FLOAT", "tensorShape": {"dim": [{"size": "3"}, {"size": "3"}, {"size": "1"}, {"size": "1"}]}}}, "dtype": {"type": "DT_FLOAT"}}}, {"name": "model_205/tf.nn.convolution_499/convolution/filter", "op": "Const", "attr": {"value": {"tensor": {"dtype": "DT_FLOAT", "tensorShape": {"dim": [{"size": "3"}, {"size": "3"}, {"size": "1"}, {"size": "1"}]}}}, "dtype": {"type": "DT_FLOAT"}}}, {"name": "model_205/tf.nn.convolution_500/convolution/filter", "op": "Const", "attr": {"value": {"tensor": {"dtype": "DT_FLOAT", "tensorShape": {"dim": [{"size": "3"}, {"size": "3"}, {"size": "1"}, {"size": "1"}]}}}, "dtype": {"type": "DT_FLOAT"}}}, {"name": "model_205/tf.nn.convolution_501/convolution/filter", "op": "Const", "attr": {"value": {"tensor": {"dtype": "DT_FLOAT", "tensorShape": {"dim": [{"size": "3"}, {"size": "3"}, {"size": "1"}, {"size": "1"}]}}}, "dtype": {"type": "DT_FLOAT"}}}, {"name": "model_205/tf.nn.convolution_502/convolution/filter", "op": "Const", "attr": {"value": {"tensor": {"dtype": "DT_FLOAT", "tensorShape": {"dim": [{"size": "3"}, {"size": "3"}, {"size": "1"}, {"size": "1"}]}}}, "dtype": {"type": "DT_FLOAT"}}}, {"name": "model_205/tf.nn.convolution_503/convolution/filter", "op": "Const", "attr": {"value": {"tensor": {"dtype": "DT_FLOAT", "tensorShape": {"dim": [{"size": "3"}, {"size": "3"}, {"size": "1"}, {"size": "1"}]}}}, "dtype": {"type": "DT_FLOAT"}}}, {"name": "model_205/tf.nn.convolution_504/convolution/filter", "op": "Const", "attr": {"value": {"tensor": {"dtype": "DT_FLOAT", "tensorShape": {"dim": [{"size": "3"}, {"size": "3"}, {"size": "1"}, {"size": "1"}]}}}, "dtype": {"type": "DT_FLOAT"}}}, {"name": "model_205/tf.nn.convolution_505/convolution/filter", "op": "Const", "attr": {"dtype": {"type": "DT_FLOAT"}, "value": {"tensor": {"dtype": "DT_FLOAT", "tensorShape": {"dim": [{"size": "3"}, {"size": "3"}, {"size": "1"}, {"size": "1"}]}}}}}, {"name": "model_205/tf.nn.convolution_506/convolution/filter", "op": "Const", "attr": {"value": {"tensor": {"dtype": "DT_FLOAT", "tensorShape": {"dim": [{"size": "3"}, {"size": "3"}, {"size": "1"}, {"size": "1"}]}}}, "dtype": {"type": "DT_FLOAT"}}}, {"name": "model_205/tf.nn.convolution_507/convolution/filter", "op": "Const", "attr": {"value": {"tensor": {"dtype": "DT_FLOAT", "tensorShape": {"dim": [{"size": "3"}, {"size": "3"}, {"size": "1"}, {"size": "1"}]}}}, "dtype": {"type": "DT_FLOAT"}}}, {"name": "model_205/tf.nn.convolution_508/convolution/filter", "op": "Const", "attr": {"value": {"tensor": {"dtype": "DT_FLOAT", "tensorShape": {"dim": [{"size": "3"}, {"size": "3"}, {"size": "1"}, {"size": "1"}]}}}, "dtype": {"type": "DT_FLOAT"}}}, {"name": "model_205/tf.nn.convolution_509/convolution/filter", "op": "Const", "attr": {"dtype": {"type": "DT_FLOAT"}, "value": {"tensor": {"dtype": "DT_FLOAT", "tensorShape": {"dim": [{"size": "3"}, {"size": "3"}, {"size": "1"}, {"size": "1"}]}}}}}, {"name": "model_205/tf.nn.convolution_510/convolution/filter", "op": "Const", "attr": {"dtype": {"type": "DT_FLOAT"}, "value": {"tensor": {"dtype": "DT_FLOAT", "tensorShape": {"dim": [{"size": "3"}, {"size": "3"}, {"size": "1"}, {"size": "1"}]}}}}}, {"name": "model_205/tf.nn.convolution_511/convolution/filter", "op": "Const", "attr": {"value": {"tensor": {"dtype": "DT_FLOAT", "tensorShape": {"dim": [{"size": "3"}, {"size": "3"}, {"size": "1"}, {"size": "1"}]}}}, "dtype": {"type": "DT_FLOAT"}}}, {"name": "model_205/tf.nn.convolution_512/convolution/filter", "op": "Const", "attr": {"value": {"tensor": {"dtype": "DT_FLOAT", "tensorShape": {"dim": [{"size": "3"}, {"size": "3"}, {"size": "1"}, {"size": "1"}]}}}, "dtype": {"type": "DT_FLOAT"}}}, {"name": "model_205/tf.nn.convolution_513/convolution/filter", "op": "Const", "attr": {"dtype": {"type": "DT_FLOAT"}, "value": {"tensor": {"dtype": "DT_FLOAT", "tensorShape": {"dim": [{"size": "3"}, {"size": "3"}, {"size": "1"}, {"size": "1"}]}}}}}, {"name": "model_205/tf.nn.convolution_514/convolution/filter", "op": "Const", "attr": {"value": {"tensor": {"dtype": "DT_FLOAT", "tensorShape": {"dim": [{"size": "3"}, {"size": "3"}, {"size": "1"}, {"size": "1"}]}}}, "dtype": {"type": "DT_FLOAT"}}}, {"name": "model_205/tf.nn.convolution_515/convolution/filter", "op": "Const", "attr": {"value": {"tensor": {"dtype": "DT_FLOAT", "tensorShape": {"dim": [{"size": "3"}, {"size": "3"}, {"size": "1"}, {"size": "1"}]}}}, "dtype": {"type": "DT_FLOAT"}}}, {"name": "model_205/tf.nn.convolution_516/convolution/filter", "op": "Const", "attr": {"dtype": {"type": "DT_FLOAT"}, "value": {"tensor": {"dtype": "DT_FLOAT", "tensorShape": {"dim": [{"size": "3"}, {"size": "3"}, {"size": "1"}, {"size": "1"}]}}}}}, {"name": "model_205/tf.nn.convolution_517/convolution/filter", "op": "Const", "attr": {"dtype": {"type": "DT_FLOAT"}, "value": {"tensor": {"dtype": "DT_FLOAT", "tensorShape": {"dim": [{"size": "3"}, {"size": "3"}, {"size": "1"}, {"size": "1"}]}}}}}, {"name": "model_205/tf.nn.convolution_518/convolution/filter", "op": "Const", "attr": {"value": {"tensor": {"dtype": "DT_FLOAT", "tensorShape": {"dim": [{"size": "3"}, {"size": "3"}, {"size": "1"}, {"size": "1"}]}}}, "dtype": {"type": "DT_FLOAT"}}}, {"name": "model_205/tf.nn.convolution_519/convolution/filter", "op": "Const", "attr": {"value": {"tensor": {"dtype": "DT_FLOAT", "tensorShape": {"dim": [{"size": "3"}, {"size": "3"}, {"size": "1"}, {"size": "1"}]}}}, "dtype": {"type": "DT_FLOAT"}}}, {"name": "model_205/tf.nn.convolution_520/convolution/filter", "op": "Const", "attr": {"dtype": {"type": "DT_FLOAT"}, "value": {"tensor": {"dtype": "DT_FLOAT", "tensorShape": {"dim": [{"size": "3"}, {"size": "3"}, {"size": "1"}, {"size": "1"}]}}}}}, {"name": "model_205/tf.nn.convolution_521/convolution/filter", "op": "Const", "attr": {"value": {"tensor": {"dtype": "DT_FLOAT", "tensorShape": {"dim": [{"size": "3"}, {"size": "3"}, {"size": "1"}, {"size": "1"}]}}}, "dtype": {"type": "DT_FLOAT"}}}, {"name": "model_205/tf.nn.convolution_522/convolution/filter", "op": "Const", "attr": {"dtype": {"type": "DT_FLOAT"}, "value": {"tensor": {"dtype": "DT_FLOAT", "tensorShape": {"dim": [{"size": "3"}, {"size": "3"}, {"size": "1"}, {"size": "1"}]}}}}}, {"name": "model_205/tf.nn.convolution_523/convolution/filter", "op": "Const", "attr": {"value": {"tensor": {"dtype": "DT_FLOAT", "tensorShape": {"dim": [{"size": "3"}, {"size": "3"}, {"size": "1"}, {"size": "1"}]}}}, "dtype": {"type": "DT_FLOAT"}}}, {"name": "model_205/tf.nn.convolution_524/convolution/filter", "op": "Const", "attr": {"value": {"tensor": {"dtype": "DT_FLOAT", "tensorShape": {"dim": [{"size": "3"}, {"size": "3"}, {"size": "1"}, {"size": "1"}]}}}, "dtype": {"type": "DT_FLOAT"}}}, {"name": "model_205/tf.nn.convolution_525/convolution/filter", "op": "Const", "attr": {"dtype": {"type": "DT_FLOAT"}, "value": {"tensor": {"dtype": "DT_FLOAT", "tensorShape": {"dim": [{"size": "3"}, {"size": "3"}, {"size": "1"}, {"size": "1"}]}}}}}, {"name": "model_205/tf.nn.convolution_526/convolution/filter", "op": "Const", "attr": {"value": {"tensor": {"dtype": "DT_FLOAT", "tensorShape": {"dim": [{"size": "3"}, {"size": "3"}, {"size": "1"}, {"size": "1"}]}}}, "dtype": {"type": "DT_FLOAT"}}}, {"name": "model_205/tf.nn.convolution_527/convolution/filter", "op": "Const", "attr": {"dtype": {"type": "DT_FLOAT"}, "value": {"tensor": {"dtype": "DT_FLOAT", "tensorShape": {"dim": [{"size": "3"}, {"size": "3"}, {"size": "1"}, {"size": "1"}]}}}}}, {"name": "model_205/tf.nn.convolution_528/convolution/filter", "op": "Const", "attr": {"dtype": {"type": "DT_FLOAT"}, "value": {"tensor": {"dtype": "DT_FLOAT", "tensorShape": {"dim": [{"size": "3"}, {"size": "3"}, {"size": "1"}, {"size": "1"}]}}}}}, {"name": "model_205/tf.nn.convolution_529/convolution/filter", "op": "Const", "attr": {"dtype": {"type": "DT_FLOAT"}, "value": {"tensor": {"dtype": "DT_FLOAT", "tensorShape": {"dim": [{"size": "3"}, {"size": "3"}, {"size": "1"}, {"size": "1"}]}}}}}, {"name": "model_205/tf.nn.convolution_530/convolution/filter", "op": "Const", "attr": {"value": {"tensor": {"dtype": "DT_FLOAT", "tensorShape": {"dim": [{"size": "3"}, {"size": "3"}, {"size": "1"}, {"size": "1"}]}}}, "dtype": {"type": "DT_FLOAT"}}}, {"name": "model_205/tf.nn.convolution_531/convolution/filter", "op": "Const", "attr": {"value": {"tensor": {"dtype": "DT_FLOAT", "tensorShape": {"dim": [{"size": "3"}, {"size": "3"}, {"size": "1"}, {"size": "1"}]}}}, "dtype": {"type": "DT_FLOAT"}}}, {"name": "model_205/tf.nn.convolution_532/convolution/filter", "op": "Const", "attr": {"value": {"tensor": {"dtype": "DT_FLOAT", "tensorShape": {"dim": [{"size": "3"}, {"size": "3"}, {"size": "1"}, {"size": "1"}]}}}, "dtype": {"type": "DT_FLOAT"}}}, {"name": "model_205/tf.nn.convolution_533/convolution/filter", "op": "Const", "attr": {"value": {"tensor": {"dtype": "DT_FLOAT", "tensorShape": {"dim": [{"size": "3"}, {"size": "3"}, {"size": "1"}, {"size": "1"}]}}}, "dtype": {"type": "DT_FLOAT"}}}, {"name": "model_205/tf.nn.convolution_534/convolution/filter", "op": "Const", "attr": {"dtype": {"type": "DT_FLOAT"}, "value": {"tensor": {"dtype": "DT_FLOAT", "tensorShape": {"dim": [{"size": "3"}, {"size": "3"}, {"size": "1"}, {"size": "1"}]}}}}}, {"name": "model_205/tf.nn.convolution_535/convolution/filter", "op": "Const", "attr": {"dtype": {"type": "DT_FLOAT"}, "value": {"tensor": {"dtype": "DT_FLOAT", "tensorShape": {"dim": [{"size": "3"}, {"size": "3"}, {"size": "1"}, {"size": "1"}]}}}}}, {"name": "model_205/tf.nn.convolution_536/convolution/filter", "op": "Const", "attr": {"value": {"tensor": {"dtype": "DT_FLOAT", "tensorShape": {"dim": [{"size": "3"}, {"size": "3"}, {"size": "1"}, {"size": "1"}]}}}, "dtype": {"type": "DT_FLOAT"}}}, {"name": "model_205/tf.nn.convolution_537/convolution/filter", "op": "Const", "attr": {"dtype": {"type": "DT_FLOAT"}, "value": {"tensor": {"dtype": "DT_FLOAT", "tensorShape": {"dim": [{"size": "3"}, {"size": "3"}, {"size": "1"}, {"size": "1"}]}}}}}, {"name": "model_205/tf.nn.convolution_538/convolution/filter", "op": "Const", "attr": {"dtype": {"type": "DT_FLOAT"}, "value": {"tensor": {"dtype": "DT_FLOAT", "tensorShape": {"dim": [{"size": "3"}, {"size": "3"}, {"size": "1"}, {"size": "1"}]}}}}}, {"name": "model_205/tf.nn.convolution_539/convolution/filter", "op": "Const", "attr": {"value": {"tensor": {"dtype": "DT_FLOAT", "tensorShape": {"dim": [{"size": "3"}, {"size": "3"}, {"size": "1"}, {"size": "1"}]}}}, "dtype": {"type": "DT_FLOAT"}}}, {"name": "model_205/tf.nn.convolution_540/convolution/filter", "op": "Const", "attr": {"dtype": {"type": "DT_FLOAT"}, "value": {"tensor": {"dtype": "DT_FLOAT", "tensorShape": {"dim": [{"size": "3"}, {"size": "3"}, {"size": "1"}, {"size": "1"}]}}}}}, {"name": "model_205/tf.nn.convolution_541/convolution/filter", "op": "Const", "attr": {"dtype": {"type": "DT_FLOAT"}, "value": {"tensor": {"dtype": "DT_FLOAT", "tensorShape": {"dim": [{"size": "3"}, {"size": "3"}, {"size": "1"}, {"size": "1"}]}}}}}, {"name": "model_205/tf.nn.convolution_542/convolution/filter", "op": "Const", "attr": {"value": {"tensor": {"dtype": "DT_FLOAT", "tensorShape": {"dim": [{"size": "3"}, {"size": "3"}, {"size": "1"}, {"size": "1"}]}}}, "dtype": {"type": "DT_FLOAT"}}}, {"name": "model_205/tf.nn.convolution_543/convolution/filter", "op": "Const", "attr": {"dtype": {"type": "DT_FLOAT"}, "value": {"tensor": {"dtype": "DT_FLOAT", "tensorShape": {"dim": [{"size": "3"}, {"size": "3"}, {"size": "1"}, {"size": "1"}]}}}}}, {"name": "model_205/tf.nn.convolution_544/convolution/filter", "op": "Const", "attr": {"dtype": {"type": "DT_FLOAT"}, "value": {"tensor": {"dtype": "DT_FLOAT", "tensorShape": {"dim": [{"size": "3"}, {"size": "3"}, {"size": "1"}, {"size": "1"}]}}}}}, {"name": "model_205/tf.nn.convolution_545/convolution/filter", "op": "Const", "attr": {"dtype": {"type": "DT_FLOAT"}, "value": {"tensor": {"dtype": "DT_FLOAT", "tensorShape": {"dim": [{"size": "3"}, {"size": "3"}, {"size": "1"}, {"size": "1"}]}}}}}, {"name": "model_205/tf.nn.convolution_546/convolution/filter", "op": "Const", "attr": {"dtype": {"type": "DT_FLOAT"}, "value": {"tensor": {"dtype": "DT_FLOAT", "tensorShape": {"dim": [{"size": "3"}, {"size": "3"}, {"size": "1"}, {"size": "1"}]}}}}}, {"name": "model_205/tf.nn.convolution_547/convolution/filter", "op": "Const", "attr": {"value": {"tensor": {"dtype": "DT_FLOAT", "tensorShape": {"dim": [{"size": "3"}, {"size": "3"}, {"size": "1"}, {"size": "1"}]}}}, "dtype": {"type": "DT_FLOAT"}}}, {"name": "model_205/tf.nn.convolution_548/convolution/filter", "op": "Const", "attr": {"value": {"tensor": {"dtype": "DT_FLOAT", "tensorShape": {"dim": [{"size": "3"}, {"size": "3"}, {"size": "1"}, {"size": "1"}]}}}, "dtype": {"type": "DT_FLOAT"}}}, {"name": "model_205/tf.nn.convolution_549/convolution/filter", "op": "Const", "attr": {"value": {"tensor": {"dtype": "DT_FLOAT", "tensorShape": {"dim": [{"size": "3"}, {"size": "3"}, {"size": "1"}, {"size": "1"}]}}}, "dtype": {"type": "DT_FLOAT"}}}, {"name": "model_205/tf.nn.convolution_550/convolution/filter", "op": "Const", "attr": {"dtype": {"type": "DT_FLOAT"}, "value": {"tensor": {"dtype": "DT_FLOAT", "tensorShape": {"dim": [{"size": "3"}, {"size": "3"}, {"size": "1"}, {"size": "1"}]}}}}}, {"name": "model_205/tf.nn.convolution_551/convolution/filter", "op": "Const", "attr": {"value": {"tensor": {"dtype": "DT_FLOAT", "tensorShape": {"dim": [{"size": "3"}, {"size": "3"}, {"size": "1"}, {"size": "1"}]}}}, "dtype": {"type": "DT_FLOAT"}}}, {"name": "model_205/tf.nn.convolution_552/convolution/filter", "op": "Const", "attr": {"value": {"tensor": {"dtype": "DT_FLOAT", "tensorShape": {"dim": [{"size": "3"}, {"size": "3"}, {"size": "1"}, {"size": "1"}]}}}, "dtype": {"type": "DT_FLOAT"}}}, {"name": "model_205/tf.nn.convolution_553/convolution/filter", "op": "Const", "attr": {"value": {"tensor": {"dtype": "DT_FLOAT", "tensorShape": {"dim": [{"size": "3"}, {"size": "3"}, {"size": "1"}, {"size": "1"}]}}}, "dtype": {"type": "DT_FLOAT"}}}, {"name": "model_205/tf.nn.convolution_554/convolution/filter", "op": "Const", "attr": {"value": {"tensor": {"dtype": "DT_FLOAT", "tensorShape": {"dim": [{"size": "3"}, {"size": "3"}, {"size": "1"}, {"size": "1"}]}}}, "dtype": {"type": "DT_FLOAT"}}}, {"name": "model_205/tf.nn.convolution_555/convolution/filter", "op": "Const", "attr": {"value": {"tensor": {"dtype": "DT_FLOAT", "tensorShape": {"dim": [{"size": "3"}, {"size": "3"}, {"size": "1"}, {"size": "1"}]}}}, "dtype": {"type": "DT_FLOAT"}}}, {"name": "model_205/tf.nn.convolution_556/convolution/filter", "op": "Const", "attr": {"value": {"tensor": {"dtype": "DT_FLOAT", "tensorShape": {"dim": [{"size": "3"}, {"size": "3"}, {"size": "1"}, {"size": "1"}]}}}, "dtype": {"type": "DT_FLOAT"}}}, {"name": "model_205/tf.nn.convolution_557/convolution/filter", "op": "Const", "attr": {"dtype": {"type": "DT_FLOAT"}, "value": {"tensor": {"dtype": "DT_FLOAT", "tensorShape": {"dim": [{"size": "3"}, {"size": "3"}, {"size": "1"}, {"size": "1"}]}}}}}, {"name": "model_205/tf.nn.convolution_558/convolution/filter", "op": "Const", "attr": {"dtype": {"type": "DT_FLOAT"}, "value": {"tensor": {"dtype": "DT_FLOAT", "tensorShape": {"dim": [{"size": "3"}, {"size": "3"}, {"size": "1"}, {"size": "1"}]}}}}}, {"name": "model_205/tf.nn.convolution_559/convolution/filter", "op": "Const", "attr": {"value": {"tensor": {"dtype": "DT_FLOAT", "tensorShape": {"dim": [{"size": "3"}, {"size": "3"}, {"size": "1"}, {"size": "1"}]}}}, "dtype": {"type": "DT_FLOAT"}}}, {"name": "model_205/tf.nn.convolution_560/convolution/filter", "op": "Const", "attr": {"value": {"tensor": {"dtype": "DT_FLOAT", "tensorShape": {"dim": [{"size": "3"}, {"size": "3"}, {"size": "1"}, {"size": "1"}]}}}, "dtype": {"type": "DT_FLOAT"}}}, {"name": "model_205/tf.nn.convolution_561/convolution/filter", "op": "Const", "attr": {"value": {"tensor": {"dtype": "DT_FLOAT", "tensorShape": {"dim": [{"size": "3"}, {"size": "3"}, {"size": "1"}, {"size": "1"}]}}}, "dtype": {"type": "DT_FLOAT"}}}, {"name": "model_205/tf.nn.convolution_562/convolution/filter", "op": "Const", "attr": {"value": {"tensor": {"dtype": "DT_FLOAT", "tensorShape": {"dim": [{"size": "3"}, {"size": "3"}, {"size": "1"}, {"size": "1"}]}}}, "dtype": {"type": "DT_FLOAT"}}}, {"name": "model_205/tf.nn.convolution_563/convolution/filter", "op": "Const", "attr": {"value": {"tensor": {"dtype": "DT_FLOAT", "tensorShape": {"dim": [{"size": "3"}, {"size": "3"}, {"size": "1"}, {"size": "1"}]}}}, "dtype": {"type": "DT_FLOAT"}}}, {"name": "model_205/tf.nn.convolution_564/convolution/filter", "op": "Const", "attr": {"value": {"tensor": {"dtype": "DT_FLOAT", "tensorShape": {"dim": [{"size": "3"}, {"size": "3"}, {"size": "1"}, {"size": "1"}]}}}, "dtype": {"type": "DT_FLOAT"}}}, {"name": "model_205/tf.nn.convolution_565/convolution/filter", "op": "Const", "attr": {"dtype": {"type": "DT_FLOAT"}, "value": {"tensor": {"dtype": "DT_FLOAT", "tensorShape": {"dim": [{"size": "3"}, {"size": "3"}, {"size": "1"}, {"size": "1"}]}}}}}, {"name": "model_205/tf.nn.convolution_566/convolution/filter", "op": "Const", "attr": {"value": {"tensor": {"dtype": "DT_FLOAT", "tensorShape": {"dim": [{"size": "3"}, {"size": "3"}, {"size": "1"}, {"size": "1"}]}}}, "dtype": {"type": "DT_FLOAT"}}}, {"name": "model_205/tf.nn.convolution_567/convolution/filter", "op": "Const", "attr": {"dtype": {"type": "DT_FLOAT"}, "value": {"tensor": {"dtype": "DT_FLOAT", "tensorShape": {"dim": [{"size": "3"}, {"size": "3"}, {"size": "1"}, {"size": "1"}]}}}}}, {"name": "model_205/tf.nn.convolution_568/convolution/filter", "op": "Const", "attr": {"value": {"tensor": {"dtype": "DT_FLOAT", "tensorShape": {"dim": [{"size": "3"}, {"size": "3"}, {"size": "1"}, {"size": "1"}]}}}, "dtype": {"type": "DT_FLOAT"}}}, {"name": "model_205/tf.nn.convolution_569/convolution/filter", "op": "Const", "attr": {"value": {"tensor": {"dtype": "DT_FLOAT", "tensorShape": {"dim": [{"size": "3"}, {"size": "3"}, {"size": "1"}, {"size": "1"}]}}}, "dtype": {"type": "DT_FLOAT"}}}, {"name": "model_205/tf.nn.convolution_570/convolution/filter", "op": "Const", "attr": {"value": {"tensor": {"dtype": "DT_FLOAT", "tensorShape": {"dim": [{"size": "3"}, {"size": "3"}, {"size": "1"}, {"size": "1"}]}}}, "dtype": {"type": "DT_FLOAT"}}}, {"name": "model_205/tf.nn.convolution_571/convolution/filter", "op": "Const", "attr": {"value": {"tensor": {"dtype": "DT_FLOAT", "tensorShape": {"dim": [{"size": "3"}, {"size": "3"}, {"size": "1"}, {"size": "1"}]}}}, "dtype": {"type": "DT_FLOAT"}}}, {"name": "model_205/tf.nn.convolution_572/convolution/filter", "op": "Const", "attr": {"dtype": {"type": "DT_FLOAT"}, "value": {"tensor": {"dtype": "DT_FLOAT", "tensorShape": {"dim": [{"size": "3"}, {"size": "3"}, {"size": "1"}, {"size": "1"}]}}}}}, {"name": "model_205/tf.nn.convolution_573/convolution/filter", "op": "Const", "attr": {"value": {"tensor": {"dtype": "DT_FLOAT", "tensorShape": {"dim": [{"size": "3"}, {"size": "3"}, {"size": "1"}, {"size": "1"}]}}}, "dtype": {"type": "DT_FLOAT"}}}, {"name": "model_205/tf.nn.convolution_574/convolution/filter", "op": "Const", "attr": {"dtype": {"type": "DT_FLOAT"}, "value": {"tensor": {"dtype": "DT_FLOAT", "tensorShape": {"dim": [{"size": "3"}, {"size": "3"}, {"size": "1"}, {"size": "1"}]}}}}}, {"name": "model_205/tf.nn.convolution_575/convolution/filter", "op": "Const", "attr": {"value": {"tensor": {"dtype": "DT_FLOAT", "tensorShape": {"dim": [{"size": "3"}, {"size": "3"}, {"size": "1"}, {"size": "1"}]}}}, "dtype": {"type": "DT_FLOAT"}}}, {"name": "model_205/tf.nn.convolution_576/convolution/filter", "op": "Const", "attr": {"value": {"tensor": {"dtype": "DT_FLOAT", "tensorShape": {"dim": [{"size": "3"}, {"size": "3"}, {"size": "1"}, {"size": "1"}]}}}, "dtype": {"type": "DT_FLOAT"}}}, {"name": "model_205/tf.nn.convolution_577/convolution/filter", "op": "Const", "attr": {"value": {"tensor": {"dtype": "DT_FLOAT", "tensorShape": {"dim": [{"size": "3"}, {"size": "3"}, {"size": "1"}, {"size": "1"}]}}}, "dtype": {"type": "DT_FLOAT"}}}, {"name": "model_205/tf.nn.convolution_578/convolution/filter", "op": "Const", "attr": {"value": {"tensor": {"dtype": "DT_FLOAT", "tensorShape": {"dim": [{"size": "3"}, {"size": "3"}, {"size": "1"}, {"size": "1"}]}}}, "dtype": {"type": "DT_FLOAT"}}}, {"name": "model_205/tf.nn.convolution_579/convolution/filter", "op": "Const", "attr": {"dtype": {"type": "DT_FLOAT"}, "value": {"tensor": {"dtype": "DT_FLOAT", "tensorShape": {"dim": [{"size": "3"}, {"size": "3"}, {"size": "1"}, {"size": "1"}]}}}}}, {"name": "model_205/tf.nn.convolution_580/convolution/filter", "op": "Const", "attr": {"dtype": {"type": "DT_FLOAT"}, "value": {"tensor": {"dtype": "DT_FLOAT", "tensorShape": {"dim": [{"size": "3"}, {"size": "3"}, {"size": "1"}, {"size": "1"}]}}}}}, {"name": "model_205/tf.nn.convolution_581/convolution/filter", "op": "Const", "attr": {"value": {"tensor": {"dtype": "DT_FLOAT", "tensorShape": {"dim": [{"size": "3"}, {"size": "3"}, {"size": "1"}, {"size": "1"}]}}}, "dtype": {"type": "DT_FLOAT"}}}, {"name": "model_205/tf.nn.convolution_582/convolution/filter", "op": "Const", "attr": {"dtype": {"type": "DT_FLOAT"}, "value": {"tensor": {"dtype": "DT_FLOAT", "tensorShape": {"dim": [{"size": "3"}, {"size": "3"}, {"size": "1"}, {"size": "1"}]}}}}}, {"name": "model_205/tf.nn.convolution_583/convolution/filter", "op": "Const", "attr": {"value": {"tensor": {"dtype": "DT_FLOAT", "tensorShape": {"dim": [{"size": "3"}, {"size": "3"}, {"size": "1"}, {"size": "1"}]}}}, "dtype": {"type": "DT_FLOAT"}}}, {"name": "model_205/tf.nn.convolution_584/convolution/filter", "op": "Const", "attr": {"value": {"tensor": {"dtype": "DT_FLOAT", "tensorShape": {"dim": [{"size": "3"}, {"size": "3"}, {"size": "1"}, {"size": "1"}]}}}, "dtype": {"type": "DT_FLOAT"}}}, {"name": "model_205/tf.nn.convolution_585/convolution/filter", "op": "Const", "attr": {"dtype": {"type": "DT_FLOAT"}, "value": {"tensor": {"dtype": "DT_FLOAT", "tensorShape": {"dim": [{"size": "3"}, {"size": "3"}, {"size": "1"}, {"size": "1"}]}}}}}, {"name": "model_205/tf.nn.convolution_586/convolution/filter", "op": "Const", "attr": {"dtype": {"type": "DT_FLOAT"}, "value": {"tensor": {"dtype": "DT_FLOAT", "tensorShape": {"dim": [{"size": "3"}, {"size": "3"}, {"size": "1"}, {"size": "1"}]}}}}}, {"name": "model_205/tf.nn.convolution_587/convolution/filter", "op": "Const", "attr": {"value": {"tensor": {"dtype": "DT_FLOAT", "tensorShape": {"dim": [{"size": "3"}, {"size": "3"}, {"size": "1"}, {"size": "1"}]}}}, "dtype": {"type": "DT_FLOAT"}}}, {"name": "model_205/tf.nn.convolution_588/convolution/filter", "op": "Const", "attr": {"value": {"tensor": {"dtype": "DT_FLOAT", "tensorShape": {"dim": [{"size": "3"}, {"size": "3"}, {"size": "1"}, {"size": "1"}]}}}, "dtype": {"type": "DT_FLOAT"}}}, {"name": "model_205/tf.nn.convolution_589/convolution/filter", "op": "Const", "attr": {"dtype": {"type": "DT_FLOAT"}, "value": {"tensor": {"dtype": "DT_FLOAT", "tensorShape": {"dim": [{"size": "3"}, {"size": "3"}, {"size": "1"}, {"size": "1"}]}}}}}, {"name": "model_205/tf.nn.convolution_590/convolution/filter", "op": "Const", "attr": {"value": {"tensor": {"dtype": "DT_FLOAT", "tensorShape": {"dim": [{"size": "3"}, {"size": "3"}, {"size": "1"}, {"size": "1"}]}}}, "dtype": {"type": "DT_FLOAT"}}}, {"name": "model_205/tf.nn.convolution_591/convolution/filter", "op": "Const", "attr": {"dtype": {"type": "DT_FLOAT"}, "value": {"tensor": {"dtype": "DT_FLOAT", "tensorShape": {"dim": [{"size": "3"}, {"size": "3"}, {"size": "1"}, {"size": "1"}]}}}}}, {"name": "model_205/tf.nn.convolution_592/convolution/filter", "op": "Const", "attr": {"dtype": {"type": "DT_FLOAT"}, "value": {"tensor": {"dtype": "DT_FLOAT", "tensorShape": {"dim": [{"size": "3"}, {"size": "3"}, {"size": "1"}, {"size": "1"}]}}}}}, {"name": "model_205/tf.nn.convolution_593/convolution/filter", "op": "Const", "attr": {"dtype": {"type": "DT_FLOAT"}, "value": {"tensor": {"dtype": "DT_FLOAT", "tensorShape": {"dim": [{"size": "3"}, {"size": "3"}, {"size": "1"}, {"size": "1"}]}}}}}, {"name": "model_205/tf.nn.convolution_594/convolution/filter", "op": "Const", "attr": {"value": {"tensor": {"dtype": "DT_FLOAT", "tensorShape": {"dim": [{"size": "3"}, {"size": "3"}, {"size": "1"}, {"size": "1"}]}}}, "dtype": {"type": "DT_FLOAT"}}}, {"name": "model_205/tf.nn.convolution_595/convolution/filter", "op": "Const", "attr": {"value": {"tensor": {"dtype": "DT_FLOAT", "tensorShape": {"dim": [{"size": "3"}, {"size": "3"}, {"size": "1"}, {"size": "1"}]}}}, "dtype": {"type": "DT_FLOAT"}}}, {"name": "model_205/tf.nn.convolution_596/convolution/filter", "op": "Const", "attr": {"value": {"tensor": {"dtype": "DT_FLOAT", "tensorShape": {"dim": [{"size": "3"}, {"size": "3"}, {"size": "1"}, {"size": "1"}]}}}, "dtype": {"type": "DT_FLOAT"}}}, {"name": "model_205/tf.nn.convolution_597/convolution/filter", "op": "Const", "attr": {"dtype": {"type": "DT_FLOAT"}, "value": {"tensor": {"dtype": "DT_FLOAT", "tensorShape": {"dim": [{"size": "3"}, {"size": "3"}, {"size": "1"}, {"size": "1"}]}}}}}, {"name": "model_205/tf.nn.convolution_598/convolution/filter", "op": "Const", "attr": {"value": {"tensor": {"dtype": "DT_FLOAT", "tensorShape": {"dim": [{"size": "3"}, {"size": "3"}, {"size": "1"}, {"size": "1"}]}}}, "dtype": {"type": "DT_FLOAT"}}}, {"name": "model_205/tf.nn.convolution_599/convolution/filter", "op": "Const", "attr": {"value": {"tensor": {"dtype": "DT_FLOAT", "tensorShape": {"dim": [{"size": "3"}, {"size": "3"}, {"size": "1"}, {"size": "1"}]}}}, "dtype": {"type": "DT_FLOAT"}}}, {"name": "model_205/tf.nn.convolution_600/convolution/filter", "op": "Const", "attr": {"dtype": {"type": "DT_FLOAT"}, "value": {"tensor": {"dtype": "DT_FLOAT", "tensorShape": {"dim": [{"size": "3"}, {"size": "3"}, {"size": "1"}, {"size": "1"}]}}}}}, {"name": "model_205/tf.nn.convolution_601/convolution/filter", "op": "Const", "attr": {"value": {"tensor": {"dtype": "DT_FLOAT", "tensorShape": {"dim": [{"size": "3"}, {"size": "3"}, {"size": "1"}, {"size": "1"}]}}}, "dtype": {"type": "DT_FLOAT"}}}, {"name": "model_205/tf.nn.convolution_602/convolution/filter", "op": "Const", "attr": {"value": {"tensor": {"dtype": "DT_FLOAT", "tensorShape": {"dim": [{"size": "3"}, {"size": "3"}, {"size": "1"}, {"size": "1"}]}}}, "dtype": {"type": "DT_FLOAT"}}}, {"name": "model_205/tf.nn.convolution_603/convolution/filter", "op": "Const", "attr": {"value": {"tensor": {"dtype": "DT_FLOAT", "tensorShape": {"dim": [{"size": "3"}, {"size": "3"}, {"size": "1"}, {"size": "1"}]}}}, "dtype": {"type": "DT_FLOAT"}}}, {"name": "model_205/tf.nn.convolution_604/convolution/filter", "op": "Const", "attr": {"value": {"tensor": {"dtype": "DT_FLOAT", "tensorShape": {"dim": [{"size": "3"}, {"size": "3"}, {"size": "1"}, {"size": "1"}]}}}, "dtype": {"type": "DT_FLOAT"}}}, {"name": "model_205/tf.nn.convolution_605/convolution/filter", "op": "Const", "attr": {"dtype": {"type": "DT_FLOAT"}, "value": {"tensor": {"dtype": "DT_FLOAT", "tensorShape": {"dim": [{"size": "3"}, {"size": "3"}, {"size": "1"}, {"size": "1"}]}}}}}, {"name": "model_205/tf.nn.convolution_606/convolution/filter", "op": "Const", "attr": {"value": {"tensor": {"dtype": "DT_FLOAT", "tensorShape": {"dim": [{"size": "3"}, {"size": "3"}, {"size": "1"}, {"size": "1"}]}}}, "dtype": {"type": "DT_FLOAT"}}}, {"name": "model_205/tf.nn.convolution_607/convolution/filter", "op": "Const", "attr": {"dtype": {"type": "DT_FLOAT"}, "value": {"tensor": {"dtype": "DT_FLOAT", "tensorShape": {"dim": [{"size": "3"}, {"size": "3"}, {"size": "1"}, {"size": "1"}]}}}}}, {"name": "model_205/tf.nn.convolution_608/convolution/filter", "op": "Const", "attr": {"dtype": {"type": "DT_FLOAT"}, "value": {"tensor": {"dtype": "DT_FLOAT", "tensorShape": {"dim": [{"size": "3"}, {"size": "3"}, {"size": "1"}, {"size": "1"}]}}}}}, {"name": "model_205/tf.nn.convolution_609/convolution/filter", "op": "Const", "attr": {"dtype": {"type": "DT_FLOAT"}, "value": {"tensor": {"dtype": "DT_FLOAT", "tensorShape": {"dim": [{"size": "3"}, {"size": "3"}, {"size": "1"}, {"size": "1"}]}}}}}, {"name": "model_205/tf.nn.convolution_610/convolution/filter", "op": "Const", "attr": {"dtype": {"type": "DT_FLOAT"}, "value": {"tensor": {"dtype": "DT_FLOAT", "tensorShape": {"dim": [{"size": "3"}, {"size": "3"}, {"size": "1"}, {"size": "1"}]}}}}}, {"name": "model_205/tf.nn.convolution_611/convolution/filter", "op": "Const", "attr": {"dtype": {"type": "DT_FLOAT"}, "value": {"tensor": {"dtype": "DT_FLOAT", "tensorShape": {"dim": [{"size": "3"}, {"size": "3"}, {"size": "1"}, {"size": "1"}]}}}}}, {"name": "model_205/tf.nn.convolution_612/convolution/filter", "op": "Const", "attr": {"value": {"tensor": {"dtype": "DT_FLOAT", "tensorShape": {"dim": [{"size": "3"}, {"size": "3"}, {"size": "1"}, {"size": "1"}]}}}, "dtype": {"type": "DT_FLOAT"}}}, {"name": "model_205/tf.nn.convolution_613/convolution/filter", "op": "Const", "attr": {"value": {"tensor": {"dtype": "DT_FLOAT", "tensorShape": {"dim": [{"size": "3"}, {"size": "3"}, {"size": "1"}, {"size": "1"}]}}}, "dtype": {"type": "DT_FLOAT"}}}, {"name": "model_205/tf.nn.convolution_614/convolution/filter", "op": "Const", "attr": {"value": {"tensor": {"dtype": "DT_FLOAT", "tensorShape": {"dim": [{"size": "3"}, {"size": "3"}, {"size": "1"}, {"size": "1"}]}}}, "dtype": {"type": "DT_FLOAT"}}}, {"name": "model_205/tf.nn.convolution_615/convolution/filter", "op": "Const", "attr": {"dtype": {"type": "DT_FLOAT"}, "value": {"tensor": {"dtype": "DT_FLOAT", "tensorShape": {"dim": [{"size": "3"}, {"size": "3"}, {"size": "1"}, {"size": "1"}]}}}}}, {"name": "model_205/tf.nn.convolution_616/convolution/filter", "op": "Const", "attr": {"dtype": {"type": "DT_FLOAT"}, "value": {"tensor": {"dtype": "DT_FLOAT", "tensorShape": {"dim": [{"size": "3"}, {"size": "3"}, {"size": "1"}, {"size": "1"}]}}}}}, {"name": "model_205/tf.nn.convolution_617/convolution/filter", "op": "Const", "attr": {"dtype": {"type": "DT_FLOAT"}, "value": {"tensor": {"dtype": "DT_FLOAT", "tensorShape": {"dim": [{"size": "3"}, {"size": "3"}, {"size": "1"}, {"size": "1"}]}}}}}, {"name": "model_205/tf.split_6/split/split_dim", "op": "Const", "attr": {"value": {"tensor": {"dtype": "DT_INT32", "tensorShape": {}}}, "dtype": {"type": "DT_INT32"}}}, {"name": "model_205/tf.split_5/split/split_dim", "op": "Const", "attr": {"dtype": {"type": "DT_INT32"}, "value": {"tensor": {"dtype": "DT_INT32", "tensorShape": {}}}}}, {"name": "model_205/tf.strided_slice_80/ones_like/tensor", "op": "Const", "attr": {"value": {"tensor": {"dtype": "DT_INT64", "tensorShape": {"dim": [{"size": "4"}]}}}, "dtype": {"type": "DT_INT64"}}}, {"name": "model_205/tf.strided_slice_80/StridedSlice/end", "op": "Const", "attr": {"value": {"tensor": {"dtype": "DT_INT64", "tensorShape": {"dim": [{"size": "4"}]}}}, "dtype": {"type": "DT_INT64"}}}, {"name": "model_205/tf.strided_slice_80/ones_like", "op": "Const", "attr": {"dtype": {"type": "DT_INT64"}, "value": {"tensor": {"dtype": "DT_INT64", "tensorShape": {"dim": [{"size": "4"}]}}}}}, {"name": "model_205/tf.nn.convolution_479/convolution/filter", "op": "Const", "attr": {"value": {"tensor": {"dtype": "DT_FLOAT", "tensorShape": {"dim": [{"size": "1"}, {"size": "1"}, {"size": "128"}, {"size": "64"}]}}}, "dtype": {"type": "DT_FLOAT"}}}, {"name": "model_205/tf.math.add_337/Add/y", "op": "Const", "attr": {"value": {"tensor": {"dtype": "DT_FLOAT", "tensorShape": {"dim": [{"size": "64"}]}}}, "dtype": {"type": "DT_FLOAT"}}}, {"name": "model_205/tf.nn.convolution_481/convolution/filter", "op": "Const", "attr": {"value": {"tensor": {"dtype": "DT_FLOAT", "tensorShape": {"dim": [{"size": "3"}, {"size": "3"}, {"size": "64"}, {"size": "64"}]}}}, "dtype": {"type": "DT_FLOAT"}}}, {"name": "model_205/tf.math.add_339/Add/y", "op": "Const", "attr": {"value": {"tensor": {"dtype": "DT_FLOAT", "tensorShape": {"dim": [{"size": "64"}]}}}, "dtype": {"type": "DT_FLOAT"}}}, {"name": "model_205/tf.nn.convolution_482/convolution/filter", "op": "Const", "attr": {"dtype": {"type": "DT_FLOAT"}, "value": {"tensor": {"dtype": "DT_FLOAT", "tensorShape": {"dim": [{"size": "3"}, {"size": "3"}, {"size": "64"}, {"size": "64"}]}}}}}, {"name": "model_205/tf.math.add_340/Add/y", "op": "Const", "attr": {"dtype": {"type": "DT_FLOAT"}, "value": {"tensor": {"dtype": "DT_FLOAT", "tensorShape": {"dim": [{"size": "64"}]}}}}}, {"name": "model_205/tf.nn.convolution_483/convolution/filter", "op": "Const", "attr": {"value": {"tensor": {"dtype": "DT_FLOAT", "tensorShape": {"dim": [{"size": "3"}, {"size": "3"}, {"size": "64"}, {"size": "64"}]}}}, "dtype": {"type": "DT_FLOAT"}}}, {"name": "model_205/tf.math.add_343/Add/y", "op": "Const", "attr": {"value": {"tensor": {"dtype": "DT_FLOAT", "tensorShape": {"dim": [{"size": "64"}]}}}, "dtype": {"type": "DT_FLOAT"}}}, {"name": "model_205/tf.nn.convolution_484/convolution/filter", "op": "Const", "attr": {"dtype": {"type": "DT_FLOAT"}, "value": {"tensor": {"dtype": "DT_FLOAT", "tensorShape": {"dim": [{"size": "3"}, {"size": "3"}, {"size": "64"}, {"size": "64"}]}}}}}, {"name": "model_205/tf.math.add_344/Add/y", "op": "Const", "attr": {"value": {"tensor": {"dtype": "DT_FLOAT", "tensorShape": {"dim": [{"size": "64"}]}}}, "dtype": {"type": "DT_FLOAT"}}}, {"name": "model_205/tf.strided_slice_78/ones_like/tensor", "op": "Const", "attr": {"value": {"tensor": {"dtype": "DT_INT64", "tensorShape": {"dim": [{"size": "4"}]}}}, "dtype": {"type": "DT_INT64"}}}, {"name": "model_205/tf.strided_slice_78/StridedSlice/end", "op": "Const", "attr": {"dtype": {"type": "DT_INT64"}, "value": {"tensor": {"dtype": "DT_INT64", "tensorShape": {"dim": [{"size": "4"}]}}}}}, {"name": "model_205/tf.strided_slice_78/ones_like", "op": "Const", "attr": {"dtype": {"type": "DT_INT64"}, "value": {"tensor": {"dtype": "DT_INT64", "tensorShape": {"dim": [{"size": "4"}]}}}}}, {"name": "model_205/tf.nn.convolution_469/convolution/filter", "op": "Const", "attr": {"dtype": {"type": "DT_FLOAT"}, "value": {"tensor": {"dtype": "DT_FLOAT", "tensorShape": {"dim": [{"size": "1"}, {"size": "1"}, {"size": "64"}, {"size": "32"}]}}}}}, {"name": "model_205/tf.math.add_323/Add/y", "op": "Const", "attr": {"value": {"tensor": {"dtype": "DT_FLOAT", "tensorShape": {"dim": [{"size": "32"}]}}}, "dtype": {"type": "DT_FLOAT"}}}, {"name": "model_205/tf.nn.convolution_471/convolution/filter", "op": "Const", "attr": {"value": {"tensor": {"dtype": "DT_FLOAT", "tensorShape": {"dim": [{"size": "3"}, {"size": "3"}, {"size": "32"}, {"size": "32"}]}}}, "dtype": {"type": "DT_FLOAT"}}}, {"name": "model_205/tf.math.add_325/Add/y", "op": "Const", "attr": {"value": {"tensor": {"dtype": "DT_FLOAT", "tensorShape": {"dim": [{"size": "32"}]}}}, "dtype": {"type": "DT_FLOAT"}}}, {"name": "model_205/tf.nn.convolution_472/convolution/filter", "op": "Const", "attr": {"dtype": {"type": "DT_FLOAT"}, "value": {"tensor": {"dtype": "DT_FLOAT", "tensorShape": {"dim": [{"size": "3"}, {"size": "3"}, {"size": "32"}, {"size": "32"}]}}}}}, {"name": "model_205/tf.math.add_326/Add/y", "op": "Const", "attr": {"value": {"tensor": {"dtype": "DT_FLOAT", "tensorShape": {"dim": [{"size": "32"}]}}}, "dtype": {"type": "DT_FLOAT"}}}, {"name": "model_205/tf.nn.convolution_473/convolution/filter", "op": "Const", "attr": {"value": {"tensor": {"dtype": "DT_FLOAT", "tensorShape": {"dim": [{"size": "3"}, {"size": "3"}, {"size": "32"}, {"size": "32"}]}}}, "dtype": {"type": "DT_FLOAT"}}}, {"name": "model_205/tf.math.add_329/Add/y", "op": "Const", "attr": {"dtype": {"type": "DT_FLOAT"}, "value": {"tensor": {"dtype": "DT_FLOAT", "tensorShape": {"dim": [{"size": "32"}]}}}}}, {"name": "model_205/tf.nn.convolution_474/convolution/filter", "op": "Const", "attr": {"dtype": {"type": "DT_FLOAT"}, "value": {"tensor": {"dtype": "DT_FLOAT", "tensorShape": {"dim": [{"size": "3"}, {"size": "3"}, {"size": "32"}, {"size": "32"}]}}}}}, {"name": "model_205/tf.math.add_330/Add/y", "op": "Const", "attr": {"value": {"tensor": {"dtype": "DT_FLOAT", "tensorShape": {"dim": [{"size": "32"}]}}}, "dtype": {"type": "DT_FLOAT"}}}, {"name": "model_205/tf.strided_slice_76/ones_like/tensor", "op": "Const", "attr": {"value": {"tensor": {"dtype": "DT_INT64", "tensorShape": {"dim": [{"size": "4"}]}}}, "dtype": {"type": "DT_INT64"}}}, {"name": "model_205/tf.strided_slice_76/StridedSlice/end", "op": "Const", "attr": {"value": {"tensor": {"dtype": "DT_INT64", "tensorShape": {"dim": [{"size": "4"}]}}}, "dtype": {"type": "DT_INT64"}}}, {"name": "model_205/tf.strided_slice_76/ones_like", "op": "Const", "attr": {"value": {"tensor": {"dtype": "DT_INT64", "tensorShape": {"dim": [{"size": "4"}]}}}, "dtype": {"type": "DT_INT64"}}}, {"name": "model_205/tf.strided_slice_74/ones_like/tensor", "op": "Const", "attr": {"value": {"tensor": {"dtype": "DT_INT64", "tensorShape": {"dim": [{"size": "4"}]}}}, "dtype": {"type": "DT_INT64"}}}, {"name": "model_205/tf.strided_slice_74/StridedSlice/end", "op": "Const", "attr": {"dtype": {"type": "DT_INT64"}, "value": {"tensor": {"dtype": "DT_INT64", "tensorShape": {"dim": [{"size": "4"}]}}}}}, {"name": "model_205/tf.strided_slice_74/ones_like", "op": "Const", "attr": {"value": {"tensor": {"dtype": "DT_INT64", "tensorShape": {"dim": [{"size": "4"}]}}}, "dtype": {"type": "DT_INT64"}}}, {"name": "model_205/tf.compat.v1.pad_17/Pad/paddings", "op": "Const", "attr": {"value": {"tensor": {"dtype": "DT_INT32", "tensorShape": {"dim": [{"size": "4"}, {"size": "2"}]}}}, "dtype": {"type": "DT_INT32"}}}, {"name": "model_205/tf.nn.convolution_456/convolution/filter", "op": "Const", "attr": {"dtype": {"type": "DT_FLOAT"}, "value": {"tensor": {"dtype": "DT_FLOAT", "tensorShape": {"dim": [{"size": "3"}, {"size": "3"}, {"size": "3"}, {"size": "16"}]}}}}}, {"name": "model_205/tf.math.add_306/Add/y", "op": "Const", "attr": {"value": {"tensor": {"dtype": "DT_FLOAT", "tensorShape": {"dim": [{"size": "16"}]}}}, "dtype": {"type": "DT_FLOAT"}}}, {"name": "model_205/tf.compat.v1.pad_18/Pad/paddings", "op": "Const", "attr": {"dtype": {"type": "DT_INT32"}, "value": {"tensor": {"dtype": "DT_INT32", "tensorShape": {"dim": [{"size": "4"}, {"size": "2"}]}}}}}, {"name": "model_205/tf.nn.convolution_457/convolution/filter", "op": "Const", "attr": {"value": {"tensor": {"dtype": "DT_FLOAT", "tensorShape": {"dim": [{"size": "3"}, {"size": "3"}, {"size": "16"}, {"size": "32"}]}}}, "dtype": {"type": "DT_FLOAT"}}}, {"name": "model_205/tf.math.add_307/Add/y", "op": "Const", "attr": {"dtype": {"type": "DT_FLOAT"}, "value": {"tensor": {"dtype": "DT_FLOAT", "tensorShape": {"dim": [{"size": "32"}]}}}}}, {"name": "model_205/tf.nn.convolution_458/convolution/filter", "op": "Const", "attr": {"value": {"tensor": {"dtype": "DT_FLOAT", "tensorShape": {"dim": [{"size": "1"}, {"size": "1"}, {"size": "32"}, {"size": "32"}]}}}, "dtype": {"type": "DT_FLOAT"}}}, {"name": "model_205/tf.math.add_308/Add/y", "op": "Const", "attr": {"dtype": {"type": "DT_FLOAT"}, "value": {"tensor": {"dtype": "DT_FLOAT", "tensorShape": {"dim": [{"size": "32"}]}}}}}, {"name": "model_205/tf.strided_slice_75/ones_like/tensor", "op": "Const", "attr": {"dtype": {"type": "DT_INT64"}, "value": {"tensor": {"dtype": "DT_INT64", "tensorShape": {"dim": [{"size": "4"}]}}}}}, {"name": "model_205/tf.strided_slice_75/StridedSlice/end", "op": "Const", "attr": {"dtype": {"type": "DT_INT64"}, "value": {"tensor": {"dtype": "DT_INT64", "tensorShape": {"dim": [{"size": "4"}]}}}}}, {"name": "model_205/tf.strided_slice_75/ones_like", "op": "Const", "attr": {"dtype": {"type": "DT_INT64"}, "value": {"tensor": {"dtype": "DT_INT64", "tensorShape": {"dim": [{"size": "4"}]}}}}}, {"name": "model_205/tf.nn.convolution_459/convolution/filter", "op": "Const", "attr": {"value": {"tensor": {"dtype": "DT_FLOAT", "tensorShape": {"dim": [{"size": "3"}, {"size": "3"}, {"size": "16"}, {"size": "8"}]}}}, "dtype": {"type": "DT_FLOAT"}}}, {"name": "model_205/tf.math.add_309/Add/y", "op": "Const", "attr": {"dtype": {"type": "DT_FLOAT"}, "value": {"tensor": {"dtype": "DT_FLOAT", "tensorShape": {"dim": [{"size": "8"}]}}}}}, {"name": "model_205/tf.nn.convolution_460/convolution/filter", "op": "Const", "attr": {"dtype": {"type": "DT_FLOAT"}, "value": {"tensor": {"dtype": "DT_FLOAT", "tensorShape": {"dim": [{"size": "3"}, {"size": "3"}, {"size": "8"}, {"size": "16"}]}}}}}, {"name": "model_205/tf.math.add_310/Add/y", "op": "Const", "attr": {"dtype": {"type": "DT_FLOAT"}, "value": {"tensor": {"dtype": "DT_FLOAT", "tensorShape": {"dim": [{"size": "16"}]}}}}}, {"name": "model_205/tf.concat_74/concat/axis", "op": "Const", "attr": {"dtype": {"type": "DT_INT32"}, "value": {"tensor": {"dtype": "DT_INT32", "tensorShape": {}}}}}, {"name": "model_205/tf.nn.convolution_461/convolution/filter", "op": "Const", "attr": {"dtype": {"type": "DT_FLOAT"}, "value": {"tensor": {"dtype": "DT_FLOAT", "tensorShape": {"dim": [{"size": "1"}, {"size": "1"}, {"size": "48"}, {"size": "64"}]}}}}}, {"name": "model_205/tf.math.add_313/Add/y", "op": "Const", "attr": {"value": {"tensor": {"dtype": "DT_FLOAT", "tensorShape": {"dim": [{"size": "64"}]}}}, "dtype": {"type": "DT_FLOAT"}}}, {"name": "model_205/tf.compat.v1.pad_19/Pad/paddings", "op": "Const", "attr": {"dtype": {"type": "DT_INT32"}, "value": {"tensor": {"dtype": "DT_INT32", "tensorShape": {"dim": [{"size": "4"}, {"size": "2"}]}}}}}, {"name": "model_205/tf.nn.convolution_462/convolution/filter", "op": "Const", "attr": {"dtype": {"type": "DT_FLOAT"}, "value": {"tensor": {"dtype": "DT_FLOAT", "tensorShape": {"dim": [{"size": "3"}, {"size": "3"}, {"size": "64"}, {"size": "64"}]}}}}}, {"name": "model_205/tf.math.add_314/Add/y", "op": "Const", "attr": {"dtype": {"type": "DT_FLOAT"}, "value": {"tensor": {"dtype": "DT_FLOAT", "tensorShape": {"dim": [{"size": "64"}]}}}}}, {"name": "model_205/tf.nn.convolution_463/convolution/filter", "op": "Const", "attr": {"dtype": {"type": "DT_FLOAT"}, "value": {"tensor": {"dtype": "DT_FLOAT", "tensorShape": {"dim": [{"size": "1"}, {"size": "1"}, {"size": "64"}, {"size": "64"}]}}}}}, {"name": "model_205/tf.math.add_315/Add/y", "op": "Const", "attr": {"dtype": {"type": "DT_FLOAT"}, "value": {"tensor": {"dtype": "DT_FLOAT", "tensorShape": {"dim": [{"size": "64"}]}}}}}, {"name": "model_205/tf.strided_slice_77/ones_like/tensor", "op": "Const", "attr": {"value": {"tensor": {"dtype": "DT_INT64", "tensorShape": {"dim": [{"size": "4"}]}}}, "dtype": {"type": "DT_INT64"}}}, {"name": "model_205/tf.strided_slice_77/StridedSlice/end", "op": "Const", "attr": {"value": {"tensor": {"dtype": "DT_INT64", "tensorShape": {"dim": [{"size": "4"}]}}}, "dtype": {"type": "DT_INT64"}}}, {"name": "model_205/tf.strided_slice_77/ones_like", "op": "Const", "attr": {"dtype": {"type": "DT_INT64"}, "value": {"tensor": {"dtype": "DT_INT64", "tensorShape": {"dim": [{"size": "4"}]}}}}}, {"name": "model_205/tf.nn.convolution_464/convolution/filter", "op": "Const", "attr": {"value": {"tensor": {"dtype": "DT_FLOAT", "tensorShape": {"dim": [{"size": "3"}, {"size": "3"}, {"size": "32"}, {"size": "16"}]}}}, "dtype": {"type": "DT_FLOAT"}}}, {"name": "model_205/tf.math.add_316/Add/y", "op": "Const", "attr": {"value": {"tensor": {"dtype": "DT_FLOAT", "tensorShape": {"dim": [{"size": "16"}]}}}, "dtype": {"type": "DT_FLOAT"}}}, {"name": "model_205/tf.nn.convolution_465/convolution/filter", "op": "Const", "attr": {"value": {"tensor": {"dtype": "DT_FLOAT", "tensorShape": {"dim": [{"size": "3"}, {"size": "3"}, {"size": "16"}, {"size": "32"}]}}}, "dtype": {"type": "DT_FLOAT"}}}, {"name": "model_205/tf.math.add_317/Add/y", "op": "Const", "attr": {"value": {"tensor": {"dtype": "DT_FLOAT", "tensorShape": {"dim": [{"size": "32"}]}}}, "dtype": {"type": "DT_FLOAT"}}}, {"name": "model_205/tf.concat_75/concat/axis", "op": "Const", "attr": {"value": {"tensor": {"dtype": "DT_INT32", "tensorShape": {}}}, "dtype": {"type": "DT_INT32"}}}, {"name": "model_205/tf.nn.convolution_466/convolution/filter", "op": "Const", "attr": {"dtype": {"type": "DT_FLOAT"}, "value": {"tensor": {"dtype": "DT_FLOAT", "tensorShape": {"dim": [{"size": "1"}, {"size": "1"}, {"size": "96"}, {"size": "128"}]}}}}}, {"name": "model_205/tf.math.add_320/Add/y", "op": "Const", "attr": {"dtype": {"type": "DT_FLOAT"}, "value": {"tensor": {"dtype": "DT_FLOAT", "tensorShape": {"dim": [{"size": "128"}]}}}}}, {"name": "model_205/tf.compat.v1.pad_20/Pad/paddings", "op": "Const", "attr": {"value": {"tensor": {"dtype": "DT_INT32", "tensorShape": {"dim": [{"size": "4"}, {"size": "2"}]}}}, "dtype": {"type": "DT_INT32"}}}, {"name": "model_205/tf.nn.convolution_467/convolution/filter", "op": "Const", "attr": {"dtype": {"type": "DT_FLOAT"}, "value": {"tensor": {"dtype": "DT_FLOAT", "tensorShape": {"dim": [{"size": "3"}, {"size": "3"}, {"size": "128"}, {"size": "128"}]}}}}}, {"name": "model_205/tf.math.add_321/Add/y", "op": "Const", "attr": {"value": {"tensor": {"dtype": "DT_FLOAT", "tensorShape": {"dim": [{"size": "128"}]}}}, "dtype": {"type": "DT_FLOAT"}}}, {"name": "model_205/tf.nn.convolution_468/convolution/filter", "op": "Const", "attr": {"dtype": {"type": "DT_FLOAT"}, "value": {"tensor": {"dtype": "DT_FLOAT", "tensorShape": {"dim": [{"size": "1"}, {"size": "1"}, {"size": "128"}, {"size": "128"}]}}}}}, {"name": "model_205/tf.math.add_322/Add/y", "op": "Const", "attr": {"value": {"tensor": {"dtype": "DT_FLOAT", "tensorShape": {"dim": [{"size": "128"}]}}}, "dtype": {"type": "DT_FLOAT"}}}, {"name": "model_205/tf.strided_slice_79/ones_like/tensor", "op": "Const", "attr": {"dtype": {"type": "DT_INT64"}, "value": {"tensor": {"dtype": "DT_INT64", "tensorShape": {"dim": [{"size": "4"}]}}}}}, {"name": "model_205/tf.strided_slice_79/StridedSlice/end", "op": "Const", "attr": {"value": {"tensor": {"dtype": "DT_INT64", "tensorShape": {"dim": [{"size": "4"}]}}}, "dtype": {"type": "DT_INT64"}}}, {"name": "model_205/tf.strided_slice_79/ones_like", "op": "Const", "attr": {"value": {"tensor": {"dtype": "DT_INT64", "tensorShape": {"dim": [{"size": "4"}]}}}, "dtype": {"type": "DT_INT64"}}}, {"name": "model_205/tf.nn.convolution_470/convolution/filter", "op": "Const", "attr": {"value": {"tensor": {"dtype": "DT_FLOAT", "tensorShape": {"dim": [{"size": "1"}, {"size": "1"}, {"size": "64"}, {"size": "32"}]}}}, "dtype": {"type": "DT_FLOAT"}}}, {"name": "model_205/tf.math.add_324/Add/y", "op": "Const", "attr": {"dtype": {"type": "DT_FLOAT"}, "value": {"tensor": {"dtype": "DT_FLOAT", "tensorShape": {"dim": [{"size": "32"}]}}}}}, {"name": "model_205/tf.concat_76/concat/axis", "op": "Const", "attr": {"dtype": {"type": "DT_INT32"}, "value": {"tensor": {"dtype": "DT_INT32", "tensorShape": {}}}}}, {"name": "model_205/tf.nn.convolution_475/convolution/filter", "op": "Const", "attr": {"dtype": {"type": "DT_FLOAT"}, "value": {"tensor": {"dtype": "DT_FLOAT", "tensorShape": {"dim": [{"size": "1"}, {"size": "1"}, {"size": "64"}, {"size": "64"}]}}}}}, {"name": "model_205/tf.math.add_333/Add/y", "op": "Const", "attr": {"value": {"tensor": {"dtype": "DT_FLOAT", "tensorShape": {"dim": [{"size": "64"}]}}}, "dtype": {"type": "DT_FLOAT"}}}, {"name": "model_205/tf.concat_77/concat/axis", "op": "Const", "attr": {"value": {"tensor": {"dtype": "DT_INT32", "tensorShape": {}}}, "dtype": {"type": "DT_INT32"}}}, {"name": "model_205/tf.nn.convolution_476/convolution/filter", "op": "Const", "attr": {"value": {"tensor": {"dtype": "DT_FLOAT", "tensorShape": {"dim": [{"size": "1"}, {"size": "1"}, {"size": "192"}, {"size": "128"}]}}}, "dtype": {"type": "DT_FLOAT"}}}, {"name": "model_205/tf.math.add_334/Add/y", "op": "Const", "attr": {"dtype": {"type": "DT_FLOAT"}, "value": {"tensor": {"dtype": "DT_FLOAT", "tensorShape": {"dim": [{"size": "128"}]}}}}}, {"name": "model_205/tf.compat.v1.pad_21/Pad/paddings", "op": "Const", "attr": {"value": {"tensor": {"dtype": "DT_INT32", "tensorShape": {"dim": [{"size": "4"}, {"size": "2"}]}}}, "dtype": {"type": "DT_INT32"}}}, {"name": "model_205/tf.nn.convolution_477/convolution/filter", "op": "Const", "attr": {"dtype": {"type": "DT_FLOAT"}, "value": {"tensor": {"dtype": "DT_FLOAT", "tensorShape": {"dim": [{"size": "3"}, {"size": "3"}, {"size": "128"}, {"size": "256"}]}}}}}, {"name": "model_205/tf.math.add_335/Add/y", "op": "Const", "attr": {"value": {"tensor": {"dtype": "DT_FLOAT", "tensorShape": {"dim": [{"size": "256"}]}}}, "dtype": {"type": "DT_FLOAT"}}}, {"name": "model_205/tf.nn.convolution_478/convolution/filter", "op": "Const", "attr": {"dtype": {"type": "DT_FLOAT"}, "value": {"tensor": {"dtype": "DT_FLOAT", "tensorShape": {"dim": [{"size": "1"}, {"size": "1"}, {"size": "256"}, {"size": "256"}]}}}}}, {"name": "model_205/tf.math.add_336/Add/y", "op": "Const", "attr": {"value": {"tensor": {"dtype": "DT_FLOAT", "tensorShape": {"dim": [{"size": "256"}]}}}, "dtype": {"type": "DT_FLOAT"}}}, {"name": "model_205/tf.strided_slice_81/ones_like/tensor", "op": "Const", "attr": {"value": {"tensor": {"dtype": "DT_INT64", "tensorShape": {"dim": [{"size": "4"}]}}}, "dtype": {"type": "DT_INT64"}}}, {"name": "model_205/tf.strided_slice_81/StridedSlice/end", "op": "Const", "attr": {"dtype": {"type": "DT_INT64"}, "value": {"tensor": {"dtype": "DT_INT64", "tensorShape": {"dim": [{"size": "4"}]}}}}}, {"name": "model_205/tf.strided_slice_81/ones_like", "op": "Const", "attr": {"dtype": {"type": "DT_INT64"}, "value": {"tensor": {"dtype": "DT_INT64", "tensorShape": {"dim": [{"size": "4"}]}}}}}, {"name": "model_205/tf.nn.convolution_480/convolution/filter", "op": "Const", "attr": {"value": {"tensor": {"dtype": "DT_FLOAT", "tensorShape": {"dim": [{"size": "1"}, {"size": "1"}, {"size": "128"}, {"size": "64"}]}}}, "dtype": {"type": "DT_FLOAT"}}}, {"name": "model_205/tf.math.add_338/Add/y", "op": "Const", "attr": {"dtype": {"type": "DT_FLOAT"}, "value": {"tensor": {"dtype": "DT_FLOAT", "tensorShape": {"dim": [{"size": "64"}]}}}}}, {"name": "model_205/tf.concat_78/concat/axis", "op": "Const", "attr": {"dtype": {"type": "DT_INT32"}, "value": {"tensor": {"dtype": "DT_INT32", "tensorShape": {}}}}}, {"name": "model_205/tf.nn.convolution_485/convolution/filter", "op": "Const", "attr": {"dtype": {"type": "DT_FLOAT"}, "value": {"tensor": {"dtype": "DT_FLOAT", "tensorShape": {"dim": [{"size": "1"}, {"size": "1"}, {"size": "128"}, {"size": "128"}]}}}}}, {"name": "model_205/tf.math.add_347/Add/y", "op": "Const", "attr": {"dtype": {"type": "DT_FLOAT"}, "value": {"tensor": {"dtype": "DT_FLOAT", "tensorShape": {"dim": [{"size": "128"}]}}}}}, {"name": "model_205/tf.concat_79/concat/axis", "op": "Const", "attr": {"value": {"tensor": {"dtype": "DT_INT32", "tensorShape": {}}}, "dtype": {"type": "DT_INT32"}}}, {"name": "model_205/tf.nn.convolution_486/convolution/filter", "op": "Const", "attr": {"value": {"tensor": {"dtype": "DT_FLOAT", "tensorShape": {"dim": [{"size": "1"}, {"size": "1"}, {"size": "384"}, {"size": "256"}]}}}, "dtype": {"type": "DT_FLOAT"}}}, {"name": "model_205/tf.math.add_348/Add/y", "op": "Const", "attr": {"dtype": {"type": "DT_FLOAT"}, "value": {"tensor": {"dtype": "DT_FLOAT", "tensorShape": {"dim": [{"size": "256"}]}}}}}, {"name": "model_205/tf.nn.convolution_487/convolution/filter", "op": "Const", "attr": {"dtype": {"type": "DT_FLOAT"}, "value": {"tensor": {"dtype": "DT_FLOAT", "tensorShape": {"dim": [{"size": "1"}, {"size": "1"}, {"size": "256"}, {"size": "128"}]}}}}}, {"name": "model_205/tf.math.add_349/Add/y", "op": "Const", "attr": {"value": {"tensor": {"dtype": "DT_FLOAT", "tensorShape": {"dim": [{"size": "128"}]}}}, "dtype": {"type": "DT_FLOAT"}}}, {"name": "model_205/tf.concat_80/concat/axis", "op": "Const", "attr": {"value": {"tensor": {"dtype": "DT_INT32", "tensorShape": {}}}, "dtype": {"type": "DT_INT32"}}}, {"name": "model_205/tf.nn.convolution_488/convolution/filter", "op": "Const", "attr": {"value": {"tensor": {"dtype": "DT_FLOAT", "tensorShape": {"dim": [{"size": "1"}, {"size": "1"}, {"size": "512"}, {"size": "256"}]}}}, "dtype": {"type": "DT_FLOAT"}}}, {"name": "model_205/tf.math.add_350/Add/y", "op": "Const", "attr": {"value": {"tensor": {"dtype": "DT_FLOAT", "tensorShape": {"dim": [{"size": "256"}]}}}, "dtype": {"type": "DT_FLOAT"}}}, {"name": "model_205/tf.nn.convolution_489/convolution/filter", "op": "Const", "attr": {"dtype": {"type": "DT_FLOAT"}, "value": {"tensor": {"dtype": "DT_FLOAT", "tensorShape": {"dim": [{"size": "1"}, {"size": "1"}, {"size": "256"}, {"size": "256"}]}}}}}, {"name": "model_205/tf.math.add_351/Add/y", "op": "Const", "attr": {"dtype": {"type": "DT_FLOAT"}, "value": {"tensor": {"dtype": "DT_FLOAT", "tensorShape": {"dim": [{"size": "256"}]}}}}}, {"name": "model_205/tf.nn.convolution_490/convolution/filter", "op": "Const", "attr": {"value": {"tensor": {"dtype": "DT_FLOAT", "tensorShape": {"dim": [{"size": "1"}, {"size": "1"}, {"size": "128"}, {"size": "256"}]}}}, "dtype": {"type": "DT_FLOAT"}}}, {"name": "model_205/tf.math.add_352/Add/y", "op": "Const", "attr": {"dtype": {"type": "DT_FLOAT"}, "value": {"tensor": {"dtype": "DT_FLOAT", "tensorShape": {"dim": [{"size": "256"}]}}}}}, {"name": "model_205/tf.compat.v1.transpose_475/transpose/perm", "op": "Const", "attr": {"dtype": {"type": "DT_INT32"}, "value": {"tensor": {"dtype": "DT_INT32", "tensorShape": {"dim": [{"size": "4"}]}}}}}, {"name": "model_205/tf.reshape_78/Reshape/shape", "op": "Const", "attr": {"value": {"tensor": {"dtype": "DT_INT32", "tensorShape": {"dim": [{"size": "4"}]}}}, "dtype": {"type": "DT_INT32"}}}, {"name": "model_205/tf.strided_slice_84/StridedSlice/begin", "op": "Const", "attr": {"value": {"tensor": {"dtype": "DT_INT32", "tensorShape": {"dim": [{"size": "4"}]}}}, "dtype": {"type": "DT_INT32"}}}, {"name": "model_205/tf.strided_slice_84/StridedSlice/end", "op": "Const", "attr": {"value": {"tensor": {"dtype": "DT_INT32", "tensorShape": {"dim": [{"size": "4"}]}}}, "dtype": {"type": "DT_INT32"}}}, {"name": "model_205/tf.strided_slice_84/ones_like", "op": "Const", "attr": {"value": {"tensor": {"dtype": "DT_INT32", "tensorShape": {"dim": [{"size": "4"}]}}}, "dtype": {"type": "DT_INT32"}}}, {"name": "model_205/tf.reshape_81/Reshape/shape", "op": "Const", "attr": {"value": {"tensor": {"dtype": "DT_INT32", "tensorShape": {"dim": [{"size": "4"}]}}}, "dtype": {"type": "DT_INT32"}}}, {"name": "model_205/tf.compat.v1.transpose_483/transpose/perm", "op": "Const", "attr": {"dtype": {"type": "DT_INT32"}, "value": {"tensor": {"dtype": "DT_INT32", "tensorShape": {"dim": [{"size": "4"}]}}}}}, {"name": "model_205/tf.nn.convolution_618/convolution/filter", "op": "Const", "attr": {"dtype": {"type": "DT_FLOAT"}, "value": {"tensor": {"dtype": "DT_FLOAT", "tensorShape": {"dim": [{"size": "3"}, {"size": "3"}, {"size": "1"}, {"size": "1"}]}}}}}, {"name": "model_205/tf.concat_81/concat/axis", "op": "Const", "attr": {"value": {"tensor": {"dtype": "DT_INT32", "tensorShape": {}}}, "dtype": {"type": "DT_INT32"}}}, {"name": "model_205/tf.nn.convolution_619/convolution/filter", "op": "Const", "attr": {"dtype": {"type": "DT_FLOAT"}, "value": {"tensor": {"dtype": "DT_FLOAT", "tensorShape": {"dim": [{"size": "1"}, {"size": "1"}, {"size": "128"}, {"size": "128"}]}}}}}, {"name": "model_205/tf.nn.convolution_620/convolution/filter", "op": "Const", "attr": {"dtype": {"type": "DT_FLOAT"}, "value": {"tensor": {"dtype": "DT_FLOAT", "tensorShape": {"dim": [{"size": "1"}, {"size": "1"}, {"size": "128"}, {"size": "256"}]}}}}}, {"name": "model_205/tf.math.add_359/Add/y", "op": "Const", "attr": {"value": {"tensor": {"dtype": "DT_FLOAT", "tensorShape": {"dim": [{"size": "256"}]}}}, "dtype": {"type": "DT_FLOAT"}}}, {"name": "model_205/tf.nn.convolution_621/convolution/filter", "op": "Const", "attr": {"value": {"tensor": {"dtype": "DT_FLOAT", "tensorShape": {"dim": [{"size": "1"}, {"size": "1"}, {"size": "256"}, {"size": "128"}]}}}, "dtype": {"type": "DT_FLOAT"}}}, {"name": "model_205/tf.concat_82/concat/axis", "op": "Const", "attr": {"value": {"tensor": {"dtype": "DT_INT32", "tensorShape": {}}}, "dtype": {"type": "DT_INT32"}}}, {"name": "model_205/tf.nn.convolution_622/convolution/filter", "op": "Const", "attr": {"dtype": {"type": "DT_FLOAT"}, "value": {"tensor": {"dtype": "DT_FLOAT", "tensorShape": {"dim": [{"size": "1"}, {"size": "1"}, {"size": "256"}, {"size": "256"}]}}}}}, {"name": "model_205/tf.math.add_363/Add/y", "op": "Const", "attr": {"value": {"tensor": {"dtype": "DT_FLOAT", "tensorShape": {"dim": [{"size": "256"}]}}}, "dtype": {"type": "DT_FLOAT"}}}, {"name": "model_205/tf.concat_92/concat/axis", "op": "Const", "attr": {"dtype": {"type": "DT_INT32"}, "value": {"tensor": {"dtype": "DT_INT32", "tensorShape": {}}}}}, {"name": "model_205/tf.nn.convolution_658/convolution/filter", "op": "Const", "attr": {"dtype": {"type": "DT_FLOAT"}, "value": {"tensor": {"dtype": "DT_FLOAT", "tensorShape": {"dim": [{"size": "1"}, {"size": "1"}, {"size": "384"}, {"size": "256"}]}}}}}, {"name": "model_205/tf.math.add_411/Add/y", "op": "Const", "attr": {"value": {"tensor": {"dtype": "DT_FLOAT", "tensorShape": {"dim": [{"size": "256"}]}}}, "dtype": {"type": "DT_FLOAT"}}}, {"name": "model_205/tf.strided_slice_92/ones_like/tensor", "op": "Const", "attr": {"dtype": {"type": "DT_INT64"}, "value": {"tensor": {"dtype": "DT_INT64", "tensorShape": {"dim": [{"size": "4"}]}}}}}, {"name": "model_205/tf.strided_slice_92/StridedSlice/end", "op": "Const", "attr": {"value": {"tensor": {"dtype": "DT_INT64", "tensorShape": {"dim": [{"size": "4"}]}}}, "dtype": {"type": "DT_INT64"}}}, {"name": "model_205/tf.strided_slice_92/ones_like", "op": "Const", "attr": {"value": {"tensor": {"dtype": "DT_INT64", "tensorShape": {"dim": [{"size": "4"}]}}}, "dtype": {"type": "DT_INT64"}}}, {"name": "model_205/tf.nn.convolution_662/convolution/filter", "op": "Const", "attr": {"value": {"tensor": {"dtype": "DT_FLOAT", "tensorShape": {"dim": [{"size": "1"}, {"size": "1"}, {"size": "128"}, {"size": "64"}]}}}, "dtype": {"type": "DT_FLOAT"}}}, {"name": "model_205/tf.math.add_416/Add/y", "op": "Const", "attr": {"value": {"tensor": {"dtype": "DT_FLOAT", "tensorShape": {"dim": [{"size": "64"}]}}}, "dtype": {"type": "DT_FLOAT"}}}, {"name": "model_205/tf.concat_94/concat/axis", "op": "Const", "attr": {"value": {"tensor": {"dtype": "DT_INT32", "tensorShape": {}}}, "dtype": {"type": "DT_INT32"}}}, {"name": "model_205/tf.nn.convolution_669/convolution/filter", "op": "Const", "attr": {"dtype": {"type": "DT_FLOAT"}, "value": {"tensor": {"dtype": "DT_FLOAT", "tensorShape": {"dim": [{"size": "1"}, {"size": "1"}, {"size": "128"}, {"size": "128"}]}}}}}, {"name": "model_205/tf.math.add_427/Add/y", "op": "Const", "attr": {"value": {"tensor": {"dtype": "DT_FLOAT", "tensorShape": {"dim": [{"size": "128"}]}}}, "dtype": {"type": "DT_FLOAT"}}}, {"name": "model_205/tf.concat_95/concat/axis", "op": "Const", "attr": {"dtype": {"type": "DT_INT32"}, "value": {"tensor": {"dtype": "DT_INT32", "tensorShape": {}}}}}, {"name": "model_205/tf.nn.convolution_670/convolution/filter", "op": "Const", "attr": {"dtype": {"type": "DT_FLOAT"}, "value": {"tensor": {"dtype": "DT_FLOAT", "tensorShape": {"dim": [{"size": "1"}, {"size": "1"}, {"size": "384"}, {"size": "256"}]}}}}}, {"name": "model_205/tf.math.add_428/Add/y", "op": "Const", "attr": {"value": {"tensor": {"dtype": "DT_FLOAT", "tensorShape": {"dim": [{"size": "256"}]}}}, "dtype": {"type": "DT_FLOAT"}}}, {"name": "model_205/tf.nn.convolution_671/convolution/filter", "op": "Const", "attr": {"dtype": {"type": "DT_FLOAT"}, "value": {"tensor": {"dtype": "DT_FLOAT", "tensorShape": {"dim": [{"size": "3"}, {"size": "3"}, {"size": "256"}, {"size": "32"}]}}}}}, {"name": "model_205/tf.math.add_429/Add/y", "op": "Const", "attr": {"value": {"tensor": {"dtype": "DT_FLOAT", "tensorShape": {"dim": [{"size": "32"}]}}}, "dtype": {"type": "DT_FLOAT"}}}, {"name": "model_205/tf.nn.convolution_673/convolution/filter", "op": "Const", "attr": {"value": {"tensor": {"dtype": "DT_FLOAT", "tensorShape": {"dim": [{"size": "3"}, {"size": "3"}, {"size": "32"}, {"size": "32"}]}}}, "dtype": {"type": "DT_FLOAT"}}}, {"name": "model_205/tf.math.add_432/Add/y", "op": "Const", "attr": {"value": {"tensor": {"dtype": "DT_FLOAT", "tensorShape": {"dim": [{"size": "32"}]}}}, "dtype": {"type": "DT_FLOAT"}}}, {"name": "model_205/tf.nn.convolution_676/convolution/filter", "op": "Const", "attr": {"value": {"tensor": {"dtype": "DT_FLOAT", "tensorShape": {"dim": [{"size": "1"}, {"size": "1"}, {"size": "32"}, {"size": "32"}]}}}, "dtype": {"type": "DT_FLOAT"}}}, {"name": "model_205/tf.math.add_435/Add/y", "op": "Const", "attr": {"value": {"tensor": {"dtype": "DT_FLOAT", "tensorShape": {"dim": [{"size": "32"}]}}}, "dtype": {"type": "DT_FLOAT"}}}, {"name": "model_205/tf.compat.v1.transpose_580/transpose/perm", "op": "Const", "attr": {"dtype": {"type": "DT_INT32"}, "value": {"tensor": {"dtype": "DT_INT32", "tensorShape": {"dim": [{"size": "4"}]}}}}}, {"name": "model_205/tf.reshape_99/Reshape/shape", "op": "Const", "attr": {"dtype": {"type": "DT_INT32"}, "value": {"tensor": {"dtype": "DT_INT32", "tensorShape": {"dim": [{"size": "3"}]}}}}}, {"name": "model_205/tf.concat_96/concat/axis", "op": "Const", "attr": {"value": {"tensor": {"dtype": "DT_INT32", "tensorShape": {}}}, "dtype": {"type": "DT_INT32"}}}, {"name": "model_205/tf.concat_103/concat/axis", "op": "Const", "attr": {"dtype": {"type": "DT_INT32"}, "value": {"tensor": {"dtype": "DT_INT32", "tensorShape": {}}}}}, {"name": "model_205/tf.compat.v1.transpose_603/transpose/perm", "op": "Const", "attr": {"dtype": {"type": "DT_INT32"}, "value": {"tensor": {"dtype": "DT_INT32", "tensorShape": {"dim": [{"size": "3"}]}}}}}, {"name": "model_205/tf.strided_slice_98/ones_like/tensor", "op": "Const", "attr": {"value": {"tensor": {"dtype": "DT_INT64", "tensorShape": {"dim": [{"size": "3"}]}}}, "dtype": {"type": "DT_INT64"}}}, {"name": "model_205/tf.strided_slice_98/StridedSlice/end", "op": "Const", "attr": {"value": {"tensor": {"dtype": "DT_INT64", "tensorShape": {"dim": [{"size": "3"}]}}}, "dtype": {"type": "DT_INT64"}}}, {"name": "model_205/tf.strided_slice_98/ones_like", "op": "Const", "attr": {"value": {"tensor": {"dtype": "DT_INT64", "tensorShape": {"dim": [{"size": "3"}]}}}, "dtype": {"type": "DT_INT64"}}}, {"name": "model_205/tf.math.reduce_max_5/Max/reduction_indices", "op": "Const", "attr": {"value": {"tensor": {"dtype": "DT_INT32", "tensorShape": {"dim": [{"size": "1"}]}}}, "dtype": {"type": "DT_INT32"}}}, {"name": "model_205/tf.compat.v1.gather_31/GatherV2/indices", "op": "Const", "attr": {"dtype": {"type": "DT_INT32"}, "value": {"tensor": {"dtype": "DT_INT32", "tensorShape": {}}}}}, {"name": "model_205/tf.compat.v1.gather_31/GatherV2/axis", "op": "Const", "attr": {"value": {"tensor": {"dtype": "DT_INT32", "tensorShape": {}}}, "dtype": {"type": "DT_INT32"}}}, {"name": "model_205/tf.math.greater_2/Greater/y", "op": "Const", "attr": {"value": {"tensor": {"dtype": "DT_FLOAT", "tensorShape": {}}}, "dtype": {"type": "DT_FLOAT"}}}, {"name": "model_205/tf.math.top_k_4/TopKV2/k", "op": "Const", "attr": {"value": {"tensor": {"dtype": "DT_INT32", "tensorShape": {}}}, "dtype": {"type": "DT_INT32"}}}, {"name": "x", "op": "Placeholder", "attr": {"dtype": {"type": "DT_FLOAT"}, "shape": {"shape": {"dim": [{"size": "1"}, {"size": "640"}, {"size": "640"}, {"size": "3"}]}}}}, {"name": "model_205/tf.compat.v1.pad_17/Pad", "op": "Pad", "input": ["x", "model_205/tf.compat.v1.pad_17/Pad/paddings"], "attr": {"T": {"type": "DT_FLOAT"}, "Tpaddings": {"type": "DT_INT32"}}}, {"name": "model_205/tf.math.add_306/Add", "op": "_FusedConv2D", "input": ["model_205/tf.compat.v1.pad_17/Pad", "model_205/tf.nn.convolution_456/convolution/filter", "model_205/tf.math.add_306/Add/y"], "device": "/device:CPU:0", "attr": {"num_args": {"i": "1"}, "TArgs": {"list": {"type": ["DT_FLOAT"]}}, "explicit_paddings": {"list": {}}, "fused_ops": {"list": {"s": ["Qmlhc0FkZA=="]}}, "padding": {"s": "VkFMSUQ="}, "use_cudnn_on_gpu": {"b": true}, "strides": {"list": {"i": ["1", "2", "2", "1"]}}, "T": {"type": "DT_FLOAT"}, "data_format": {"s": "TkhXQw=="}, "epsilon": {"f": 0.0}, "filter_format": {"s": "SFdJTw=="}, "leakyrelu_alpha": {"f": 0.2}, "num_host_args": {"i": "0"}, "dilations": {"list": {"i": ["1", "1", "1", "1"]}}}}, {"name": "model_205/tf.math.sigmoid_163/Sigmoid", "op": "Sigmoid", "input": ["model_205/tf.math.add_306/Add"], "attr": {"T": {"type": "DT_FLOAT"}}}, {"name": "model_205/tf.math.multiply_968/Mul", "op": "Mul", "input": ["model_205/tf.math.add_306/Add", "model_205/tf.math.sigmoid_163/Sigmoid"], "attr": {"T": {"type": "DT_FLOAT"}}}, {"name": "model_205/tf.compat.v1.pad_18/Pad", "op": "Pad", "input": ["model_205/tf.math.multiply_968/Mul", "model_205/tf.compat.v1.pad_18/Pad/paddings"], "attr": {"T": {"type": "DT_FLOAT"}, "Tpaddings": {"type": "DT_INT32"}}}, {"name": "model_205/tf.math.add_307/Add", "op": "_FusedConv2D", "input": ["model_205/tf.compat.v1.pad_18/Pad", "model_205/tf.nn.convolution_457/convolution/filter", "model_205/tf.math.add_307/Add/y"], "device": "/device:CPU:0", "attr": {"num_args": {"i": "1"}, "TArgs": {"list": {"type": ["DT_FLOAT"]}}, "explicit_paddings": {"list": {}}, "fused_ops": {"list": {"s": ["Qmlhc0FkZA=="]}}, "use_cudnn_on_gpu": {"b": true}, "padding": {"s": "VkFMSUQ="}, "strides": {"list": {"i": ["1", "2", "2", "1"]}}, "T": {"type": "DT_FLOAT"}, "data_format": {"s": "TkhXQw=="}, "filter_format": {"s": "SFdJTw=="}, "epsilon": {"f": 0.0}, "leakyrelu_alpha": {"f": 0.2}, "num_host_args": {"i": "0"}, "dilations": {"list": {"i": ["1", "1", "1", "1"]}}}}, {"name": "model_205/tf.math.sigmoid_164/Sigmoid", "op": "Sigmoid", "input": ["model_205/tf.math.add_307/Add"], "attr": {"T": {"type": "DT_FLOAT"}}}, {"name": "model_205/tf.math.multiply_972/Mul", "op": "Mul", "input": ["model_205/tf.math.add_307/Add", "model_205/tf.math.sigmoid_164/Sigmoid"], "attr": {"T": {"type": "DT_FLOAT"}}}, {"name": "model_205/tf.math.add_308/Add", "op": "_FusedConv2D", "input": ["model_205/tf.math.multiply_972/Mul", "model_205/tf.nn.convolution_458/convolution/filter", "model_205/tf.math.add_308/Add/y"], "device": "/device:CPU:0", "attr": {"explicit_paddings": {"list": {}}, "TArgs": {"list": {"type": ["DT_FLOAT"]}}, "num_args": {"i": "1"}, "fused_ops": {"list": {"s": ["Qmlhc0FkZA=="]}}, "use_cudnn_on_gpu": {"b": true}, "padding": {"s": "U0FNRQ=="}, "strides": {"list": {"i": ["1", "1", "1", "1"]}}, "T": {"type": "DT_FLOAT"}, "data_format": {"s": "TkhXQw=="}, "epsilon": {"f": 0.0}, "filter_format": {"s": "SFdJTw=="}, "leakyrelu_alpha": {"f": 0.2}, "num_host_args": {"i": "0"}, "dilations": {"list": {"i": ["1", "1", "1", "1"]}}}}, {"name": "model_205/tf.math.sigmoid_165/Sigmoid", "op": "Sigmoid", "input": ["model_205/tf.math.add_308/Add"], "attr": {"T": {"type": "DT_FLOAT"}}}, {"name": "model_205/tf.math.multiply_976/Mul", "op": "Mul", "input": ["model_205/tf.math.add_308/Add", "model_205/tf.math.sigmoid_165/Sigmoid"], "attr": {"T": {"type": "DT_FLOAT"}}}, {"name": "model_205/tf.strided_slice_74/StridedSlice", "op": "StridedSlice", "input": ["model_205/tf.math.multiply_976/Mul", "model_205/tf.strided_slice_74/ones_like/tensor", "model_205/tf.strided_slice_74/StridedSlice/end", "model_205/tf.strided_slice_74/ones_like"], "attr": {"ellipsis_mask": {"i": "0"}, "new_axis_mask": {"i": "0"}, "end_mask": {"i": "7"}, "T": {"type": "DT_FLOAT"}, "begin_mask": {"i": "15"}, "shrink_axis_mask": {"i": "0"}, "Index": {"type": "DT_INT64"}}}, {"name": "model_205/tf.strided_slice_75/StridedSlice", "op": "StridedSlice", "input": ["model_205/tf.math.multiply_976/Mul", "model_205/tf.strided_slice_75/ones_like/tensor", "model_205/tf.strided_slice_75/StridedSlice/end", "model_205/tf.strided_slice_75/ones_like"], "attr": {"ellipsis_mask": {"i": "0"}, "new_axis_mask": {"i": "0"}, "end_mask": {"i": "7"}, "begin_mask": {"i": "7"}, "T": {"type": "DT_FLOAT"}, "shrink_axis_mask": {"i": "0"}, "Index": {"type": "DT_INT64"}}}, {"name": "model_205/tf.math.add_309/Add", "op": "_FusedConv2D", "input": ["model_205/tf.strided_slice_75/StridedSlice", "model_205/tf.nn.convolution_459/convolution/filter", "model_205/tf.math.add_309/Add/y"], "device": "/device:CPU:0", "attr": {"explicit_paddings": {"list": {}}, "TArgs": {"list": {"type": ["DT_FLOAT"]}}, "num_args": {"i": "1"}, "fused_ops": {"list": {"s": ["Qmlhc0FkZA=="]}}, "padding": {"s": "U0FNRQ=="}, "use_cudnn_on_gpu": {"b": true}, "strides": {"list": {"i": ["1", "1", "1", "1"]}}, "T": {"type": "DT_FLOAT"}, "data_format": {"s": "TkhXQw=="}, "epsilon": {"f": 0.0}, "filter_format": {"s": "SFdJTw=="}, "leakyrelu_alpha": {"f": 0.2}, "num_host_args": {"i": "0"}, "dilations": {"list": {"i": ["1", "1", "1", "1"]}}}}, {"name": "model_205/tf.math.sigmoid_166/Sigmoid", "op": "Sigmoid", "input": ["model_205/tf.math.add_309/Add"], "attr": {"T": {"type": "DT_FLOAT"}}}, {"name": "model_205/tf.math.multiply_980/Mul", "op": "Mul", "input": ["model_205/tf.math.add_309/Add", "model_205/tf.math.sigmoid_166/Sigmoid"], "attr": {"T": {"type": "DT_FLOAT"}}}, {"name": "model_205/tf.math.add_310/Add", "op": "_FusedConv2D", "input": ["model_205/tf.math.multiply_980/Mul", "model_205/tf.nn.convolution_460/convolution/filter", "model_205/tf.math.add_310/Add/y"], "device": "/device:CPU:0", "attr": {"explicit_paddings": {"list": {}}, "TArgs": {"list": {"type": ["DT_FLOAT"]}}, "num_args": {"i": "1"}, "fused_ops": {"list": {"s": ["Qmlhc0FkZA=="]}}, "padding": {"s": "U0FNRQ=="}, "use_cudnn_on_gpu": {"b": true}, "strides": {"list": {"i": ["1", "1", "1", "1"]}}, "T": {"type": "DT_FLOAT"}, "data_format": {"s": "TkhXQw=="}, "filter_format": {"s": "SFdJTw=="}, "epsilon": {"f": 0.0}, "leakyrelu_alpha": {"f": 0.2}, "num_host_args": {"i": "0"}, "dilations": {"list": {"i": ["1", "1", "1", "1"]}}}}, {"name": "model_205/tf.math.sigmoid_167/Sigmoid", "op": "Sigmoid", "input": ["model_205/tf.math.add_310/Add"], "attr": {"T": {"type": "DT_FLOAT"}}}, {"name": "model_205/tf.math.multiply_984/Mul", "op": "Mul", "input": ["model_205/tf.math.add_310/Add", "model_205/tf.math.sigmoid_167/Sigmoid"], "attr": {"T": {"type": "DT_FLOAT"}}}, {"name": "model_205/tf.math.add_312/Add", "op": "AddV2", "input": ["model_205/tf.strided_slice_75/StridedSlice", "model_205/tf.math.multiply_984/Mul"], "attr": {"T": {"type": "DT_FLOAT"}}}, {"name": "model_205/tf.concat_74/concat", "op": "ConcatV2", "input": ["model_205/tf.strided_slice_74/StridedSlice", "model_205/tf.strided_slice_75/StridedSlice", "model_205/tf.math.add_312/Add", "model_205/tf.concat_74/concat/axis"], "attr": {"T": {"type": "DT_FLOAT"}, "N": {"i": "3"}, "Tidx": {"type": "DT_INT32"}}}, {"name": "model_205/tf.math.add_313/Add", "op": "_FusedConv2D", "input": ["model_205/tf.concat_74/concat", "model_205/tf.nn.convolution_461/convolution/filter", "model_205/tf.math.add_313/Add/y"], "device": "/device:CPU:0", "attr": {"explicit_paddings": {"list": {}}, "TArgs": {"list": {"type": ["DT_FLOAT"]}}, "num_args": {"i": "1"}, "fused_ops": {"list": {"s": ["Qmlhc0FkZA=="]}}, "padding": {"s": "U0FNRQ=="}, "use_cudnn_on_gpu": {"b": true}, "strides": {"list": {"i": ["1", "1", "1", "1"]}}, "T": {"type": "DT_FLOAT"}, "data_format": {"s": "TkhXQw=="}, "epsilon": {"f": 0.0}, "filter_format": {"s": "SFdJTw=="}, "leakyrelu_alpha": {"f": 0.2}, "num_host_args": {"i": "0"}, "dilations": {"list": {"i": ["1", "1", "1", "1"]}}}}, {"name": "model_205/tf.math.sigmoid_168/Sigmoid", "op": "Sigmoid", "input": ["model_205/tf.math.add_313/Add"], "attr": {"T": {"type": "DT_FLOAT"}}}, {"name": "model_205/tf.math.multiply_990/Mul", "op": "Mul", "input": ["model_205/tf.math.add_313/Add", "model_205/tf.math.sigmoid_168/Sigmoid"], "attr": {"T": {"type": "DT_FLOAT"}}}, {"name": "model_205/tf.compat.v1.pad_19/Pad", "op": "Pad", "input": ["model_205/tf.math.multiply_990/Mul", "model_205/tf.compat.v1.pad_19/Pad/paddings"], "attr": {"Tpaddings": {"type": "DT_INT32"}, "T": {"type": "DT_FLOAT"}}}, {"name": "model_205/tf.math.add_314/Add", "op": "_FusedConv2D", "input": ["model_205/tf.compat.v1.pad_19/Pad", "model_205/tf.nn.convolution_462/convolution/filter", "model_205/tf.math.add_314/Add/y"], "device": "/device:CPU:0", "attr": {"explicit_paddings": {"list": {}}, "TArgs": {"list": {"type": ["DT_FLOAT"]}}, "num_args": {"i": "1"}, "fused_ops": {"list": {"s": ["Qmlhc0FkZA=="]}}, "padding": {"s": "VkFMSUQ="}, "use_cudnn_on_gpu": {"b": true}, "strides": {"list": {"i": ["1", "2", "2", "1"]}}, "T": {"type": "DT_FLOAT"}, "data_format": {"s": "TkhXQw=="}, "epsilon": {"f": 0.0}, "filter_format": {"s": "SFdJTw=="}, "leakyrelu_alpha": {"f": 0.2}, "num_host_args": {"i": "0"}, "dilations": {"list": {"i": ["1", "1", "1", "1"]}}}}, {"name": "model_205/tf.math.sigmoid_169/Sigmoid", "op": "Sigmoid", "input": ["model_205/tf.math.add_314/Add"], "attr": {"T": {"type": "DT_FLOAT"}}}, {"name": "model_205/tf.math.multiply_994/Mul", "op": "Mul", "input": ["model_205/tf.math.add_314/Add", "model_205/tf.math.sigmoid_169/Sigmoid"], "attr": {"T": {"type": "DT_FLOAT"}}}, {"name": "model_205/tf.math.add_315/Add", "op": "_FusedConv2D", "input": ["model_205/tf.math.multiply_994/Mul", "model_205/tf.nn.convolution_463/convolution/filter", "model_205/tf.math.add_315/Add/y"], "device": "/device:CPU:0", "attr": {"num_args": {"i": "1"}, "TArgs": {"list": {"type": ["DT_FLOAT"]}}, "explicit_paddings": {"list": {}}, "fused_ops": {"list": {"s": ["Qmlhc0FkZA=="]}}, "padding": {"s": "U0FNRQ=="}, "use_cudnn_on_gpu": {"b": true}, "strides": {"list": {"i": ["1", "1", "1", "1"]}}, "T": {"type": "DT_FLOAT"}, "data_format": {"s": "TkhXQw=="}, "epsilon": {"f": 0.0}, "filter_format": {"s": "SFdJTw=="}, "leakyrelu_alpha": {"f": 0.2}, "num_host_args": {"i": "0"}, "dilations": {"list": {"i": ["1", "1", "1", "1"]}}}}, {"name": "model_205/tf.math.sigmoid_170/Sigmoid", "op": "Sigmoid", "input": ["model_205/tf.math.add_315/Add"], "attr": {"T": {"type": "DT_FLOAT"}}}, {"name": "model_205/tf.math.multiply_998/Mul", "op": "Mul", "input": ["model_205/tf.math.add_315/Add", "model_205/tf.math.sigmoid_170/Sigmoid"], "attr": {"T": {"type": "DT_FLOAT"}}}, {"name": "model_205/tf.strided_slice_76/StridedSlice", "op": "StridedSlice", "input": ["model_205/tf.math.multiply_998/Mul", "model_205/tf.strided_slice_76/ones_like/tensor", "model_205/tf.strided_slice_76/StridedSlice/end", "model_205/tf.strided_slice_76/ones_like"], "attr": {"ellipsis_mask": {"i": "0"}, "new_axis_mask": {"i": "0"}, "end_mask": {"i": "7"}, "begin_mask": {"i": "15"}, "T": {"type": "DT_FLOAT"}, "shrink_axis_mask": {"i": "0"}, "Index": {"type": "DT_INT64"}}}, {"name": "model_205/tf.strided_slice_77/StridedSlice", "op": "StridedSlice", "input": ["model_205/tf.math.multiply_998/Mul", "model_205/tf.strided_slice_77/ones_like/tensor", "model_205/tf.strided_slice_77/StridedSlice/end", "model_205/tf.strided_slice_77/ones_like"], "attr": {"ellipsis_mask": {"i": "0"}, "new_axis_mask": {"i": "0"}, "end_mask": {"i": "7"}, "T": {"type": "DT_FLOAT"}, "begin_mask": {"i": "7"}, "shrink_axis_mask": {"i": "0"}, "Index": {"type": "DT_INT64"}}}, {"name": "model_205/tf.math.add_316/Add", "op": "_FusedConv2D", "input": ["model_205/tf.strided_slice_77/StridedSlice", "model_205/tf.nn.convolution_464/convolution/filter", "model_205/tf.math.add_316/Add/y"], "device": "/device:CPU:0", "attr": {"explicit_paddings": {"list": {}}, "TArgs": {"list": {"type": ["DT_FLOAT"]}}, "num_args": {"i": "1"}, "fused_ops": {"list": {"s": ["Qmlhc0FkZA=="]}}, "use_cudnn_on_gpu": {"b": true}, "padding": {"s": "U0FNRQ=="}, "strides": {"list": {"i": ["1", "1", "1", "1"]}}, "T": {"type": "DT_FLOAT"}, "data_format": {"s": "TkhXQw=="}, "epsilon": {"f": 0.0}, "filter_format": {"s": "SFdJTw=="}, "leakyrelu_alpha": {"f": 0.2}, "num_host_args": {"i": "0"}, "dilations": {"list": {"i": ["1", "1", "1", "1"]}}}}, {"name": "model_205/tf.math.sigmoid_171/Sigmoid", "op": "Sigmoid", "input": ["model_205/tf.math.add_316/Add"], "attr": {"T": {"type": "DT_FLOAT"}}}, {"name": "model_205/tf.math.multiply_1002/Mul", "op": "Mul", "input": ["model_205/tf.math.add_316/Add", "model_205/tf.math.sigmoid_171/Sigmoid"], "attr": {"T": {"type": "DT_FLOAT"}}}, {"name": "model_205/tf.math.add_317/Add", "op": "_FusedConv2D", "input": ["model_205/tf.math.multiply_1002/Mul", "model_205/tf.nn.convolution_465/convolution/filter", "model_205/tf.math.add_317/Add/y"], "device": "/device:CPU:0", "attr": {"num_args": {"i": "1"}, "TArgs": {"list": {"type": ["DT_FLOAT"]}}, "explicit_paddings": {"list": {}}, "fused_ops": {"list": {"s": ["Qmlhc0FkZA=="]}}, "use_cudnn_on_gpu": {"b": true}, "padding": {"s": "U0FNRQ=="}, "strides": {"list": {"i": ["1", "1", "1", "1"]}}, "T": {"type": "DT_FLOAT"}, "data_format": {"s": "TkhXQw=="}, "epsilon": {"f": 0.0}, "filter_format": {"s": "SFdJTw=="}, "leakyrelu_alpha": {"f": 0.2}, "num_host_args": {"i": "0"}, "dilations": {"list": {"i": ["1", "1", "1", "1"]}}}}, {"name": "model_205/tf.math.sigmoid_172/Sigmoid", "op": "Sigmoid", "input": ["model_205/tf.math.add_317/Add"], "attr": {"T": {"type": "DT_FLOAT"}}}, {"name": "model_205/tf.math.multiply_1006/Mul", "op": "Mul", "input": ["model_205/tf.math.add_317/Add", "model_205/tf.math.sigmoid_172/Sigmoid"], "attr": {"T": {"type": "DT_FLOAT"}}}, {"name": "model_205/tf.math.add_319/Add", "op": "AddV2", "input": ["model_205/tf.strided_slice_77/StridedSlice", "model_205/tf.math.multiply_1006/Mul"], "attr": {"T": {"type": "DT_FLOAT"}}}, {"name": "model_205/tf.concat_75/concat", "op": "ConcatV2", "input": ["model_205/tf.strided_slice_76/StridedSlice", "model_205/tf.strided_slice_77/StridedSlice", "model_205/tf.math.add_319/Add", "model_205/tf.concat_75/concat/axis"], "attr": {"T": {"type": "DT_FLOAT"}, "N": {"i": "3"}, "Tidx": {"type": "DT_INT32"}}}, {"name": "model_205/tf.math.add_320/Add", "op": "_FusedConv2D", "input": ["model_205/tf.concat_75/concat", "model_205/tf.nn.convolution_466/convolution/filter", "model_205/tf.math.add_320/Add/y"], "device": "/device:CPU:0", "attr": {"num_args": {"i": "1"}, "TArgs": {"list": {"type": ["DT_FLOAT"]}}, "explicit_paddings": {"list": {}}, "fused_ops": {"list": {"s": ["Qmlhc0FkZA=="]}}, "use_cudnn_on_gpu": {"b": true}, "padding": {"s": "U0FNRQ=="}, "strides": {"list": {"i": ["1", "1", "1", "1"]}}, "T": {"type": "DT_FLOAT"}, "data_format": {"s": "TkhXQw=="}, "epsilon": {"f": 0.0}, "filter_format": {"s": "SFdJTw=="}, "leakyrelu_alpha": {"f": 0.2}, "num_host_args": {"i": "0"}, "dilations": {"list": {"i": ["1", "1", "1", "1"]}}}}, {"name": "model_205/tf.math.sigmoid_173/Sigmoid", "op": "Sigmoid", "input": ["model_205/tf.math.add_320/Add"], "attr": {"T": {"type": "DT_FLOAT"}}}, {"name": "model_205/tf.math.multiply_1012/Mul", "op": "Mul", "input": ["model_205/tf.math.add_320/Add", "model_205/tf.math.sigmoid_173/Sigmoid"], "attr": {"T": {"type": "DT_FLOAT"}}}, {"name": "model_205/tf.compat.v1.pad_20/Pad", "op": "Pad", "input": ["model_205/tf.math.multiply_1012/Mul", "model_205/tf.compat.v1.pad_20/Pad/paddings"], "attr": {"Tpaddings": {"type": "DT_INT32"}, "T": {"type": "DT_FLOAT"}}}, {"name": "model_205/tf.math.add_321/Add", "op": "_FusedConv2D", "input": ["model_205/tf.compat.v1.pad_20/Pad", "model_205/tf.nn.convolution_467/convolution/filter", "model_205/tf.math.add_321/Add/y"], "device": "/device:CPU:0", "attr": {"num_args": {"i": "1"}, "TArgs": {"list": {"type": ["DT_FLOAT"]}}, "explicit_paddings": {"list": {}}, "fused_ops": {"list": {"s": ["Qmlhc0FkZA=="]}}, "padding": {"s": "VkFMSUQ="}, "use_cudnn_on_gpu": {"b": true}, "strides": {"list": {"i": ["1", "2", "2", "1"]}}, "T": {"type": "DT_FLOAT"}, "data_format": {"s": "TkhXQw=="}, "filter_format": {"s": "SFdJTw=="}, "epsilon": {"f": 0.0}, "leakyrelu_alpha": {"f": 0.2}, "num_host_args": {"i": "0"}, "dilations": {"list": {"i": ["1", "1", "1", "1"]}}}}, {"name": "model_205/tf.math.sigmoid_174/Sigmoid", "op": "Sigmoid", "input": ["model_205/tf.math.add_321/Add"], "attr": {"T": {"type": "DT_FLOAT"}}}, {"name": "model_205/tf.math.multiply_1016/Mul", "op": "Mul", "input": ["model_205/tf.math.add_321/Add", "model_205/tf.math.sigmoid_174/Sigmoid"], "attr": {"T": {"type": "DT_FLOAT"}}}, {"name": "model_205/tf.math.add_322/Add", "op": "_FusedConv2D", "input": ["model_205/tf.math.multiply_1016/Mul", "model_205/tf.nn.convolution_468/convolution/filter", "model_205/tf.math.add_322/Add/y"], "device": "/device:CPU:0", "attr": {"num_args": {"i": "1"}, "TArgs": {"list": {"type": ["DT_FLOAT"]}}, "explicit_paddings": {"list": {}}, "fused_ops": {"list": {"s": ["Qmlhc0FkZA=="]}}, "padding": {"s": "U0FNRQ=="}, "use_cudnn_on_gpu": {"b": true}, "strides": {"list": {"i": ["1", "1", "1", "1"]}}, "T": {"type": "DT_FLOAT"}, "data_format": {"s": "TkhXQw=="}, "epsilon": {"f": 0.0}, "filter_format": {"s": "SFdJTw=="}, "leakyrelu_alpha": {"f": 0.2}, "num_host_args": {"i": "0"}, "dilations": {"list": {"i": ["1", "1", "1", "1"]}}}}, {"name": "model_205/tf.math.sigmoid_175/Sigmoid", "op": "Sigmoid", "input": ["model_205/tf.math.add_322/Add"], "attr": {"T": {"type": "DT_FLOAT"}}}, {"name": "model_205/tf.math.multiply_1020/Mul", "op": "Mul", "input": ["model_205/tf.math.add_322/Add", "model_205/tf.math.sigmoid_175/Sigmoid"], "attr": {"T": {"type": "DT_FLOAT"}}}, {"name": "model_205/tf.strided_slice_78/StridedSlice", "op": "StridedSlice", "input": ["model_205/tf.math.multiply_1020/Mul", "model_205/tf.strided_slice_78/ones_like/tensor", "model_205/tf.strided_slice_78/StridedSlice/end", "model_205/tf.strided_slice_78/ones_like"], "attr": {"ellipsis_mask": {"i": "0"}, "new_axis_mask": {"i": "0"}, "end_mask": {"i": "7"}, "begin_mask": {"i": "15"}, "T": {"type": "DT_FLOAT"}, "shrink_axis_mask": {"i": "0"}, "Index": {"type": "DT_INT64"}}}, {"name": "model_205/tf.strided_slice_79/StridedSlice", "op": "StridedSlice", "input": ["model_205/tf.math.multiply_1020/Mul", "model_205/tf.strided_slice_79/ones_like/tensor", "model_205/tf.strided_slice_79/StridedSlice/end", "model_205/tf.strided_slice_79/ones_like"], "attr": {"ellipsis_mask": {"i": "0"}, "new_axis_mask": {"i": "0"}, "end_mask": {"i": "7"}, "begin_mask": {"i": "7"}, "T": {"type": "DT_FLOAT"}, "shrink_axis_mask": {"i": "0"}, "Index": {"type": "DT_INT64"}}}, {"name": "model_205/tf.math.add_323/Add", "op": "_FusedConv2D", "input": ["model_205/tf.strided_slice_79/StridedSlice", "model_205/tf.nn.convolution_469/convolution/filter", "model_205/tf.math.add_323/Add/y"], "device": "/device:CPU:0", "attr": {"explicit_paddings": {"list": {}}, "TArgs": {"list": {"type": ["DT_FLOAT"]}}, "num_args": {"i": "1"}, "fused_ops": {"list": {"s": ["Qmlhc0FkZA=="]}}, "padding": {"s": "U0FNRQ=="}, "use_cudnn_on_gpu": {"b": true}, "strides": {"list": {"i": ["1", "1", "1", "1"]}}, "T": {"type": "DT_FLOAT"}, "data_format": {"s": "TkhXQw=="}, "epsilon": {"f": 0.0}, "filter_format": {"s": "SFdJTw=="}, "leakyrelu_alpha": {"f": 0.2}, "num_host_args": {"i": "0"}, "dilations": {"list": {"i": ["1", "1", "1", "1"]}}}}, {"name": "model_205/tf.math.add_324/Add", "op": "_FusedConv2D", "input": ["model_205/tf.strided_slice_79/StridedSlice", "model_205/tf.nn.convolution_470/convolution/filter", "model_205/tf.math.add_324/Add/y"], "device": "/device:CPU:0", "attr": {"num_args": {"i": "1"}, "TArgs": {"list": {"type": ["DT_FLOAT"]}}, "explicit_paddings": {"list": {}}, "fused_ops": {"list": {"s": ["Qmlhc0FkZA=="]}}, "padding": {"s": "U0FNRQ=="}, "use_cudnn_on_gpu": {"b": true}, "strides": {"list": {"i": ["1", "1", "1", "1"]}}, "T": {"type": "DT_FLOAT"}, "data_format": {"s": "TkhXQw=="}, "epsilon": {"f": 0.0}, "filter_format": {"s": "SFdJTw=="}, "leakyrelu_alpha": {"f": 0.2}, "num_host_args": {"i": "0"}, "dilations": {"list": {"i": ["1", "1", "1", "1"]}}}}, {"name": "model_205/tf.math.sigmoid_176/Sigmoid", "op": "Sigmoid", "input": ["model_205/tf.math.add_323/Add"], "attr": {"T": {"type": "DT_FLOAT"}}}, {"name": "model_205/tf.math.sigmoid_177/Sigmoid", "op": "Sigmoid", "input": ["model_205/tf.math.add_324/Add"], "attr": {"T": {"type": "DT_FLOAT"}}}, {"name": "model_205/tf.math.multiply_1024/Mul", "op": "Mul", "input": ["model_205/tf.math.add_323/Add", "model_205/tf.math.sigmoid_176/Sigmoid"], "attr": {"T": {"type": "DT_FLOAT"}}}, {"name": "model_205/tf.math.multiply_1028/Mul", "op": "Mul", "input": ["model_205/tf.math.add_324/Add", "model_205/tf.math.sigmoid_177/Sigmoid"], "attr": {"T": {"type": "DT_FLOAT"}}}, {"name": "model_205/tf.math.add_325/Add", "op": "_FusedConv2D", "input": ["model_205/tf.math.multiply_1024/Mul", "model_205/tf.nn.convolution_471/convolution/filter", "model_205/tf.math.add_325/Add/y"], "device": "/device:CPU:0", "attr": {"num_args": {"i": "1"}, "TArgs": {"list": {"type": ["DT_FLOAT"]}}, "explicit_paddings": {"list": {}}, "fused_ops": {"list": {"s": ["Qmlhc0FkZA=="]}}, "use_cudnn_on_gpu": {"b": true}, "padding": {"s": "U0FNRQ=="}, "strides": {"list": {"i": ["1", "1", "1", "1"]}}, "T": {"type": "DT_FLOAT"}, "data_format": {"s": "TkhXQw=="}, "epsilon": {"f": 0.0}, "filter_format": {"s": "SFdJTw=="}, "leakyrelu_alpha": {"f": 0.2}, "num_host_args": {"i": "0"}, "dilations": {"list": {"i": ["1", "1", "1", "1"]}}}}, {"name": "model_205/tf.math.sigmoid_178/Sigmoid", "op": "Sigmoid", "input": ["model_205/tf.math.add_325/Add"], "attr": {"T": {"type": "DT_FLOAT"}}}, {"name": "model_205/tf.math.multiply_1032/Mul", "op": "Mul", "input": ["model_205/tf.math.add_325/Add", "model_205/tf.math.sigmoid_178/Sigmoid"], "attr": {"T": {"type": "DT_FLOAT"}}}, {"name": "model_205/tf.math.add_326/Add", "op": "_FusedConv2D", "input": ["model_205/tf.math.multiply_1032/Mul", "model_205/tf.nn.convolution_472/convolution/filter", "model_205/tf.math.add_326/Add/y"], "device": "/device:CPU:0", "attr": {"explicit_paddings": {"list": {}}, "TArgs": {"list": {"type": ["DT_FLOAT"]}}, "num_args": {"i": "1"}, "fused_ops": {"list": {"s": ["Qmlhc0FkZA=="]}}, "padding": {"s": "U0FNRQ=="}, "use_cudnn_on_gpu": {"b": true}, "strides": {"list": {"i": ["1", "1", "1", "1"]}}, "T": {"type": "DT_FLOAT"}, "data_format": {"s": "TkhXQw=="}, "filter_format": {"s": "SFdJTw=="}, "epsilon": {"f": 0.0}, "leakyrelu_alpha": {"f": 0.2}, "num_host_args": {"i": "0"}, "dilations": {"list": {"i": ["1", "1", "1", "1"]}}}}, {"name": "model_205/tf.math.sigmoid_179/Sigmoid", "op": "Sigmoid", "input": ["model_205/tf.math.add_326/Add"], "attr": {"T": {"type": "DT_FLOAT"}}}, {"name": "model_205/tf.math.multiply_1036/Mul", "op": "Mul", "input": ["model_205/tf.math.add_326/Add", "model_205/tf.math.sigmoid_179/Sigmoid"], "attr": {"T": {"type": "DT_FLOAT"}}}, {"name": "model_205/tf.math.add_328/Add", "op": "AddV2", "input": ["model_205/tf.math.multiply_1024/Mul", "model_205/tf.math.multiply_1036/Mul"], "attr": {"T": {"type": "DT_FLOAT"}}}, {"name": "model_205/tf.math.add_329/Add", "op": "_FusedConv2D", "input": ["model_205/tf.math.add_328/Add", "model_205/tf.nn.convolution_473/convolution/filter", "model_205/tf.math.add_329/Add/y"], "device": "/device:CPU:0", "attr": {"num_args": {"i": "1"}, "TArgs": {"list": {"type": ["DT_FLOAT"]}}, "explicit_paddings": {"list": {}}, "fused_ops": {"list": {"s": ["Qmlhc0FkZA=="]}}, "use_cudnn_on_gpu": {"b": true}, "padding": {"s": "U0FNRQ=="}, "strides": {"list": {"i": ["1", "1", "1", "1"]}}, "T": {"type": "DT_FLOAT"}, "data_format": {"s": "TkhXQw=="}, "filter_format": {"s": "SFdJTw=="}, "epsilon": {"f": 0.0}, "leakyrelu_alpha": {"f": 0.2}, "num_host_args": {"i": "0"}, "dilations": {"list": {"i": ["1", "1", "1", "1"]}}}}, {"name": "model_205/tf.math.sigmoid_180/Sigmoid", "op": "Sigmoid", "input": ["model_205/tf.math.add_329/Add"], "attr": {"T": {"type": "DT_FLOAT"}}}, {"name": "model_205/tf.math.multiply_1042/Mul", "op": "Mul", "input": ["model_205/tf.math.add_329/Add", "model_205/tf.math.sigmoid_180/Sigmoid"], "attr": {"T": {"type": "DT_FLOAT"}}}, {"name": "model_205/tf.math.add_330/Add", "op": "_FusedConv2D", "input": ["model_205/tf.math.multiply_1042/Mul", "model_205/tf.nn.convolution_474/convolution/filter", "model_205/tf.math.add_330/Add/y"], "device": "/device:CPU:0", "attr": {"num_args": {"i": "1"}, "TArgs": {"list": {"type": ["DT_FLOAT"]}}, "explicit_paddings": {"list": {}}, "fused_ops": {"list": {"s": ["Qmlhc0FkZA=="]}}, "padding": {"s": "U0FNRQ=="}, "use_cudnn_on_gpu": {"b": true}, "strides": {"list": {"i": ["1", "1", "1", "1"]}}, "T": {"type": "DT_FLOAT"}, "data_format": {"s": "TkhXQw=="}, "epsilon": {"f": 0.0}, "filter_format": {"s": "SFdJTw=="}, "leakyrelu_alpha": {"f": 0.2}, "num_host_args": {"i": "0"}, "dilations": {"list": {"i": ["1", "1", "1", "1"]}}}}, {"name": "model_205/tf.math.sigmoid_181/Sigmoid", "op": "Sigmoid", "input": ["model_205/tf.math.add_330/Add"], "attr": {"T": {"type": "DT_FLOAT"}}}, {"name": "model_205/tf.math.multiply_1046/Mul", "op": "Mul", "input": ["model_205/tf.math.add_330/Add", "model_205/tf.math.sigmoid_181/Sigmoid"], "attr": {"T": {"type": "DT_FLOAT"}}}, {"name": "model_205/tf.math.add_332/Add", "op": "AddV2", "input": ["model_205/tf.math.add_328/Add", "model_205/tf.math.multiply_1046/Mul"], "attr": {"T": {"type": "DT_FLOAT"}}}, {"name": "model_205/tf.concat_76/concat", "op": "ConcatV2", "input": ["model_205/tf.math.add_332/Add", "model_205/tf.math.multiply_1028/Mul", "model_205/tf.concat_76/concat/axis"], "attr": {"T": {"type": "DT_FLOAT"}, "N": {"i": "2"}, "Tidx": {"type": "DT_INT32"}}}, {"name": "model_205/tf.math.add_333/Add", "op": "_FusedConv2D", "input": ["model_205/tf.concat_76/concat", "model_205/tf.nn.convolution_475/convolution/filter", "model_205/tf.math.add_333/Add/y"], "device": "/device:CPU:0", "attr": {"num_args": {"i": "1"}, "TArgs": {"list": {"type": ["DT_FLOAT"]}}, "explicit_paddings": {"list": {}}, "fused_ops": {"list": {"s": ["Qmlhc0FkZA=="]}}, "padding": {"s": "U0FNRQ=="}, "use_cudnn_on_gpu": {"b": true}, "strides": {"list": {"i": ["1", "1", "1", "1"]}}, "T": {"type": "DT_FLOAT"}, "data_format": {"s": "TkhXQw=="}, "epsilon": {"f": 0.0}, "filter_format": {"s": "SFdJTw=="}, "leakyrelu_alpha": {"f": 0.2}, "num_host_args": {"i": "0"}, "dilations": {"list": {"i": ["1", "1", "1", "1"]}}}}, {"name": "model_205/tf.math.sigmoid_182/Sigmoid", "op": "Sigmoid", "input": ["model_205/tf.math.add_333/Add"], "attr": {"T": {"type": "DT_FLOAT"}}}, {"name": "model_205/tf.math.multiply_1052/Mul", "op": "Mul", "input": ["model_205/tf.math.add_333/Add", "model_205/tf.math.sigmoid_182/Sigmoid"], "attr": {"T": {"type": "DT_FLOAT"}}}, {"name": "model_205/tf.concat_77/concat", "op": "ConcatV2", "input": ["model_205/tf.strided_slice_78/StridedSlice", "model_205/tf.strided_slice_79/StridedSlice", "model_205/tf.math.multiply_1052/Mul", "model_205/tf.concat_77/concat/axis"], "attr": {"T": {"type": "DT_FLOAT"}, "N": {"i": "3"}, "Tidx": {"type": "DT_INT32"}}}, {"name": "model_205/tf.math.add_334/Add", "op": "_FusedConv2D", "input": ["model_205/tf.concat_77/concat", "model_205/tf.nn.convolution_476/convolution/filter", "model_205/tf.math.add_334/Add/y"], "device": "/device:CPU:0", "attr": {"num_args": {"i": "1"}, "TArgs": {"list": {"type": ["DT_FLOAT"]}}, "explicit_paddings": {"list": {}}, "fused_ops": {"list": {"s": ["Qmlhc0FkZA=="]}}, "use_cudnn_on_gpu": {"b": true}, "padding": {"s": "U0FNRQ=="}, "strides": {"list": {"i": ["1", "1", "1", "1"]}}, "T": {"type": "DT_FLOAT"}, "data_format": {"s": "TkhXQw=="}, "epsilon": {"f": 0.0}, "filter_format": {"s": "SFdJTw=="}, "leakyrelu_alpha": {"f": 0.2}, "num_host_args": {"i": "0"}, "dilations": {"list": {"i": ["1", "1", "1", "1"]}}}}, {"name": "model_205/tf.math.sigmoid_183/Sigmoid", "op": "Sigmoid", "input": ["model_205/tf.math.add_334/Add"], "attr": {"T": {"type": "DT_FLOAT"}}}, {"name": "model_205/tf.math.multiply_1056/Mul", "op": "Mul", "input": ["model_205/tf.math.add_334/Add", "model_205/tf.math.sigmoid_183/Sigmoid"], "attr": {"T": {"type": "DT_FLOAT"}}}, {"name": "model_205/tf.compat.v1.pad_21/Pad", "op": "Pad", "input": ["model_205/tf.math.multiply_1056/Mul", "model_205/tf.compat.v1.pad_21/Pad/paddings"], "attr": {"Tpaddings": {"type": "DT_INT32"}, "T": {"type": "DT_FLOAT"}}}, {"name": "model_205/tf.math.add_335/Add", "op": "_FusedConv2D", "input": ["model_205/tf.compat.v1.pad_21/Pad", "model_205/tf.nn.convolution_477/convolution/filter", "model_205/tf.math.add_335/Add/y"], "device": "/device:CPU:0", "attr": {"explicit_paddings": {"list": {}}, "TArgs": {"list": {"type": ["DT_FLOAT"]}}, "num_args": {"i": "1"}, "fused_ops": {"list": {"s": ["Qmlhc0FkZA=="]}}, "padding": {"s": "VkFMSUQ="}, "use_cudnn_on_gpu": {"b": true}, "strides": {"list": {"i": ["1", "2", "2", "1"]}}, "T": {"type": "DT_FLOAT"}, "data_format": {"s": "TkhXQw=="}, "epsilon": {"f": 0.0}, "filter_format": {"s": "SFdJTw=="}, "leakyrelu_alpha": {"f": 0.2}, "num_host_args": {"i": "0"}, "dilations": {"list": {"i": ["1", "1", "1", "1"]}}}}, {"name": "model_205/tf.math.sigmoid_184/Sigmoid", "op": "Sigmoid", "input": ["model_205/tf.math.add_335/Add"], "attr": {"T": {"type": "DT_FLOAT"}}}, {"name": "model_205/tf.math.multiply_1060/Mul", "op": "Mul", "input": ["model_205/tf.math.add_335/Add", "model_205/tf.math.sigmoid_184/Sigmoid"], "attr": {"T": {"type": "DT_FLOAT"}}}, {"name": "model_205/tf.math.add_336/Add", "op": "_FusedConv2D", "input": ["model_205/tf.math.multiply_1060/Mul", "model_205/tf.nn.convolution_478/convolution/filter", "model_205/tf.math.add_336/Add/y"], "device": "/device:CPU:0", "attr": {"explicit_paddings": {"list": {}}, "TArgs": {"list": {"type": ["DT_FLOAT"]}}, "num_args": {"i": "1"}, "fused_ops": {"list": {"s": ["Qmlhc0FkZA=="]}}, "use_cudnn_on_gpu": {"b": true}, "padding": {"s": "U0FNRQ=="}, "strides": {"list": {"i": ["1", "1", "1", "1"]}}, "T": {"type": "DT_FLOAT"}, "data_format": {"s": "TkhXQw=="}, "filter_format": {"s": "SFdJTw=="}, "epsilon": {"f": 0.0}, "leakyrelu_alpha": {"f": 0.2}, "num_host_args": {"i": "0"}, "dilations": {"list": {"i": ["1", "1", "1", "1"]}}}}, {"name": "model_205/tf.math.sigmoid_185/Sigmoid", "op": "Sigmoid", "input": ["model_205/tf.math.add_336/Add"], "attr": {"T": {"type": "DT_FLOAT"}}}, {"name": "model_205/tf.math.multiply_1064/Mul", "op": "Mul", "input": ["model_205/tf.math.add_336/Add", "model_205/tf.math.sigmoid_185/Sigmoid"], "attr": {"T": {"type": "DT_FLOAT"}}}, {"name": "model_205/tf.strided_slice_80/StridedSlice", "op": "StridedSlice", "input": ["model_205/tf.math.multiply_1064/Mul", "model_205/tf.strided_slice_80/ones_like/tensor", "model_205/tf.strided_slice_80/StridedSlice/end", "model_205/tf.strided_slice_80/ones_like"], "attr": {"ellipsis_mask": {"i": "0"}, "new_axis_mask": {"i": "0"}, "end_mask": {"i": "7"}, "begin_mask": {"i": "15"}, "T": {"type": "DT_FLOAT"}, "shrink_axis_mask": {"i": "0"}, "Index": {"type": "DT_INT64"}}}, {"name": "model_205/tf.strided_slice_81/StridedSlice", "op": "StridedSlice", "input": ["model_205/tf.math.multiply_1064/Mul", "model_205/tf.strided_slice_81/ones_like/tensor", "model_205/tf.strided_slice_81/StridedSlice/end", "model_205/tf.strided_slice_81/ones_like"], "attr": {"ellipsis_mask": {"i": "0"}, "new_axis_mask": {"i": "0"}, "end_mask": {"i": "7"}, "begin_mask": {"i": "7"}, "T": {"type": "DT_FLOAT"}, "shrink_axis_mask": {"i": "0"}, "Index": {"type": "DT_INT64"}}}, {"name": "model_205/tf.math.add_337/Add", "op": "_FusedConv2D", "input": ["model_205/tf.strided_slice_81/StridedSlice", "model_205/tf.nn.convolution_479/convolution/filter", "model_205/tf.math…
 "model_205/tf.compat.v1.gather_34/GatherV2/axis", "shape": [], "dtype": "int32"}, {"name": "model_205/tf.reshape_109/Reshape/shape", "shape": [2], "dtype": "int32"}, {"name": "ConstantFolding/model_205/tf.math.multiply_1366/Mul-broadcastto_shape-0", "shape": [2], "dtype": "int32"}, {"name": "model_205/192924", "shape": [1500, 4], "dtype": "float32"}, {"name": "model_205/tf.tensor_scatter_nd_update_4/TensorScatterUpdate/indices", "shape": [1500, 2, 2], "dtype": "int32"}, {"name": "model_205/tf.tensor_scatter_nd_update_5/TensorScatterUpdate/indices", "shape": [1500, 2, 2], "dtype": "int32"}, {"name": "model_205/tf.strided_slice_100/StridedSlice/begin", "shape": [2], "dtype": "int32"}, {"name": "model_205/tf.strided_slice_100/StridedSlice/end", "shape": [2], "dtype": "int32"}, {"name": "model_205/tf.strided_slice_100/StridedSlice/strides", "shape": [2], "dtype": "int32"}, {"name": "model_205/tf.strided_slice_97/ones_like/tensor", "shape": [3], "dtype": "int32"}, {"name": "model_205/tf.strided_slice_97/StridedSlice/end", "shape": [3], "dtype": "int32"}, {"name": "model_205/tf.strided_slice_97/ones_like", "shape": [3], "dtype": "int32"}, {"name": "model_205/tf.compat.v1.gather_28/GatherV2/indices", "shape": [], "dtype": "int32"}, {"name": "model_205/tf.compat.v1.gather_28/GatherV2/axis", "shape": [], "dtype": "int32"}, {"name": "model_205/tf.math.less_18/Less/y", "shape": [], "dtype": "int32"}, {"name": "model_205/tf.__operators__.getitem_33/strided_slice", "shape": [], "dtype": "int32"}, {"name": "model_205/tf.compat.v1.gather_32/GatherV2/axis", "shape": [], "dtype": "int32"}, {"name": "model_205/tf.strided_slice_101/StridedSlice/begin", "shape": [2], "dtype": "int32"}, {"name": "model_205/tf.strided_slice_101/StridedSlice/end", "shape": [2], "dtype": "int32"}, {"name": "model_205/tf.strided_slice_101/StridedSlice/strides", "shape": [2], "dtype": "int32"}, {"name": "ConstantFolding/model_205/tf.math.divide_10/truediv_recip", "shape": [], "dtype": "float32"}, {"name": "ConstantFolding/model_205/tf.math.divide_11/truediv_recip", "shape": [], "dtype": "float32"}, {"name": "model_205/tf.strided_slice_103/StridedSlice/begin", "shape": [2], "dtype": "int32"}, {"name": "model_205/tf.strided_slice_103/StridedSlice/end", "shape": [2], "dtype": "int32"}, {"name": "model_205/tf.strided_slice_103/StridedSlice/strides", "shape": [2], "dtype": "int32"}, {"name": "model_205/tf.concat_104/concat/axis", "shape": [], "dtype": "int32"}, {"name": "model_205/tf.reshape_111/Reshape/shape", "shape": [3], "dtype": "int32"}, {"name": "model_205/tf.math.less_19/Less/y", "shape": [], "dtype": "int32"}, {"name": "model_205/tf.__operators__.getitem_34/strided_slice", "shape": [], "dtype": "int32"}, {"name": "model_205/tf.compat.v1.gather_33/GatherV2/axis", "shape": [], "dtype": "int32"}, {"name": "model_205/tf.reshape_110/Reshape/shape", "shape": [3], "dtype": "int32"}, {"name": "model_205/tf.compat.v1.squeeze_58/Squeeze", "shape": [], "dtype": "int32"}, {"name": "model_205/nms_layer_1/non_max_suppression/NonMaxSuppressionV4/iou_threshold", "shape": [], "dtype": "float32"}, {"name": "model_205/nms_layer_1/non_max_suppression/NonMaxSuppressionV4/score_threshold", "shape": [], "dtype": "float32"}, {"name": "model_205/tf.compat.v1.transpose_606/transpose/perm", "shape": [2], "dtype": "int32"}, {"name": "model_205/tf.compat.v1.pad_24/PadV2/constant_values", "shape": [], "dtype": "int32"}, {"name": "model_205/tf.compat.v1.pad_24/PadV2/paddings", "shape": [2, 2], "dtype": "int32"}, {"name": "model_205/tf.compat.v1.pad_25/PadV2/constant_values", "shape": [], "dtype": "int32"}, {"name": "model_205/tf.compat.v1.gather_36/GatherV2/indices", "shape": [1], "dtype": "int32"}, {"name": "model_205/tf.compat.v1.gather_36/GatherV2/axis", "shape": [], "dtype": "int32"}, {"name": "model_205/tf.strided_slice_107/StridedSlice/begin", "shape": [1], "dtype": "int32"}, {"name": "model_205/tf.strided_slice_107/StridedSlice/end", "shape": [1], "dtype": "int32"}, {"name": "model_205/tf.strided_slice_107/StridedSlice/strides", "shape": [1], "dtype": "int32"}, {"name": "model_205/tf.math.less_25/Less/y", "shape": [], "dtype": "int32"}, {"name": "model_205/tf.__operators__.getitem_42/strided_slice", "shape": [], "dtype": "int32"}, {"name": "model_205/tf.compat.v1.gather_40/GatherV2/axis", "shape": [], "dtype": "int32"}, {"name": "model_205/tf.concat_105/concat/axis", "shape": [], "dtype": "int32"}, {"name": "model_205/tf.reshape_118/Reshape/shape", "shape": [3], "dtype": "int32"}, {"name": "model_205/tf.nn.conv2d_transpose/conv2d_transpose/input_sizes", "shape": [4], "dtype": "int32"}, {"name": "model_205/tf.nn.conv2d_transpose/conv2d_transpose/filter", "shape": [2, 2, 64, 64], "dtype": "float32"}, {"name": "model_205/tf.nn.convolution_632/convolution/filter", "shape": [3, 3, 64, 64], "dtype": "float32"}, {"name": "model_205/tf.math.add_377/Add/y", "shape": [64], "dtype": "float32"}, {"name": "model_205/tf.math.add_381/Add/y", "shape": [64], "dtype": "float32"}, {"name": "model_205/tf.nn.convolution_639/convolution/filter", "shape": [3, 3, 64, 64], "dtype": "float32"}, {"name": "model_205/tf.math.add_386/Add/y", "shape": [64], "dtype": "float32"}, {"name": "model_205/tf.nn.convolution_642/convolution/filter", "shape": [1, 1, 64, 32], "dtype": "float32"}, {"name": "model_205/tf.math.add_392/Add/y", "shape": [32], "dtype": "float32"}, {"name": "ConstantFolding/model_205/tf.math.divide_9/truediv_recip", "shape": [], "dtype": "float32"}, {"name": "model_205/tf.strided_slice_96/ones_like/tensor", "shape": [3], "dtype": "int32"}, {"name": "model_205/tf.strided_slice_96/StridedSlice/end", "shape": [3], "dtype": "int32"}, {"name": "model_205/tf.strided_slice_96/ones_like", "shape": [3], "dtype": "int32"}, {"name": "model_205/tf.math.add_440/Add/y", "shape": [1, 2, 8400], "dtype": "float32"}, {"name": "model_205/192816", "shape": [1, 2, 8400], "dtype": "float32"}, {"name": "model_205/tf.strided_slice_93/StridedSlice/begin", "shape": [3], "dtype": "int32"}, {"name": "model_205/tf.strided_slice_93/StridedSlice/end", "shape": [3], "dtype": "int32"}, {"name": "model_205/tf.strided_slice_93/StridedSlice/strides", "shape": [3], "dtype": "int32"}, {"name": "model_205/tf.reshape_105/Reshape/shape", "shape": [4], "dtype": "int32"}, {"name": "model_205/tf.compat.v1.transpose_594/transpose/perm", "shape": [4], "dtype": "int32"}, {"name": "model_205/tf.compat.v1.transpose_595/transpose/perm", "shape": [4], "dtype": "int32"}, {"name": "model_205/tf.nn.convolution_680/convolution/filter", "shape": [1, 1, 16, 1], "dtype": "float32"}, {"name": "model_205/tf.compat.v1.transpose_600/transpose/perm", "shape": [4], "dtype": "int32"}, {"name": "model_205/tf.reshape_108/Reshape/shape", "shape": [3], "dtype": "int32"}, {"name": "model_205/tf.strided_slice_95/ones_like/tensor", "shape": [3], "dtype": "int32"}, {"name": "model_205/tf.strided_slice_95/StridedSlice/end", "shape": [3], "dtype": "int32"}, {"name": "model_205/tf.strided_slice_95/ones_like", "shape": [3], "dtype": "int32"}, {"name": "model_205/tf.concat_102/concat/axis", "shape": [], "dtype": "int32"}, {"name": "model_205/tf.math.multiply_1352/Mul/y", "shape": [1, 1, 8400], "dtype": "float32"}, {"name": "model_205/tf.nn.convolution_634/convolution/filter", "shape": [3, 3, 64, 64], "dtype": "float32"}, {"name": "model_205/tf.math.add_379/Add/y", "shape": [64], "dtype": "float32"}, {"name": "model_205/tf.nn.convolution_636/convolution/filter", "shape": [3, 3, 64, 64], "dtype": "float32"}, {"name": "model_205/tf.math.add_383/Add/y", "shape": [64], "dtype": "float32"}, {"name": "model_205/tf.nn.convolution_641/convolution/filter", "shape": [1, 1, 64, 64], "dtype": "float32"}, {"name": "model_205/tf.math.add_388/Add/y", "shape": [64], "dtype": "float32"}, {"name": "model_205/tf.compat.v1.nn.depthwise_conv2d_16/depthwise/filter_in", "shape": [3, 3, 64, 1], "dtype": "float32"}, {"name": "model_205/tf.math.add_380/Add/y", "shape": [64], "dtype": "float32"}, {"name": "model_205/tf.nn.convolution_637/convolution/filter", "shape": [1, 1, 64, 80], "dtype": "float32"}, {"name": "model_205/tf.math.add_384/Add/y", "shape": [80], "dtype": "float32"}, {"name": "model_205/tf.compat.v1.nn.depthwise_conv2d_19/depthwise/filter_in", "shape": [3, 3, 80, 1], "dtype": "float32"}, {"name": "model_205/tf.math.add_391/Add/y", "shape": [80], "dtype": "float32"}, {"name": "model_205/tf.nn.convolution_646/convolution/filter", "shape": [1, 1, 80, 80], "dtype": "float32"}, {"name": "model_205/tf.math.add_396/Add/y", "shape": [80], "dtype": "float32"}, {"name": "model_205/tf.nn.convolution_650/convolution/filter", "shape": [1, 1, 80, 80], "dtype": "float32"}, {"name": "model_205/tf.math.add_400/Add/y", "shape": [80], "dtype": "float32"}, {"name": "model_205/tf.concat_90/concat/axis", "shape": [], "dtype": "int32"}, {"name": "model_205/tf.compat.v1.transpose_537/transpose/perm", "shape": [4], "dtype": "int32"}, {"name": "model_205/tf.reshape_90/Reshape/shape", "shape": [3], "dtype": "int32"}, {"name": "model_205/tf.nn.convolution_654/convolution/filter", "shape": [3, 3, 128, 64], "dtype": "float32"}, {"name": "model_205/tf.math.add_406/Add/y", "shape": [64], "dtype": "float32"}, {"name": "model_205/tf.nn.convolution_656/convolution/filter", "shape": [3, 3, 64, 64], "dtype": "float32"}, {"name": "model_205/tf.math.add_409/Add/y", "shape": [64], "dtype": "float32"}, {"name": "model_205/tf.nn.convolution_660/convolution/filter", "shape": [1, 1, 64, 64], "dtype": "float32"}, {"name": "model_205/tf.math.add_413/Add/y", "shape": [64], "dtype": "float32"}, {"name": "model_205/tf.compat.v1.nn.depthwise_conv2d_20/depthwise/filter_in", "shape": [3, 3, 128, 1], "dtype": "float32"}, {"name": "model_205/tf.math.add_407/Add/y", "shape": [128], "dtype": "float32"}, {"name": "model_205/tf.nn.convolution_657/convolution/filter", "shape": [1, 1, 128, 80], "dtype": "float32"}, {"name": "model_205/tf.math.add_410/Add/y", "shape": [80], "dtype": "float32"}, {"name": "model_205/tf.compat.v1.nn.depthwise_conv2d_21/depthwise/filter_in", "shape": [3, 3, 80, 1], "dtype": "float32"}, {"name": "model_205/tf.math.add_414/Add/y", "shape": [80], "dtype": "float32"}, {"name": "model_205/tf.nn.convolution_663/convolution/filter", "shape": [1, 1, 80, 80], "dtype": "float32"}, {"name": "model_205/tf.math.add_417/Add/y", "shape": [80], "dtype": "float32"}, {"name": "model_205/tf.nn.convolution_665/convolution/filter", "shape": [1, 1, 80, 80], "dtype": "float32"}, {"name": "model_205/tf.math.add_419/Add/y", "shape": [80], "dtype": "float32"}, {"name": "model_205/tf.concat_93/concat/axis", "shape": [], "dtype": "int32"}, {"name": "model_205/tf.compat.v1.transpose_562/transpose/perm", "shape": [4], "dtype": "int32"}, {"name": "model_205/tf.reshape_96/Reshape/shape", "shape": [3], "dtype": "int32"}, {"name": "model_205/tf.nn.convolution_672/convolution/filter", "shape": [3, 3, 256, 64], "dtype": "float32"}, {"name": "model_205/tf.math.add_430/Add/y", "shape": [64], "dtype": "float32"}, {"name": "model_205/tf.nn.convolution_674/convolution/filter", "shape": [3, 3, 64, 64], "dtype": "float32"}, {"name": "model_205/tf.math.add_433/Add/y", "shape": [64], "dtype": "float32"}, {"name": "model_205/tf.nn.convolution_677/convolution/filter", "shape": [1, 1, 64, 64], "dtype": "float32"}, {"name": "model_205/tf.math.add_436/Add/y", "shape": [64], "dtype": "float32"}, {"name": "model_205/tf.compat.v1.nn.depthwise_conv2d_22/depthwise/filter_in", "shape": [3, 3, 256, 1], "dtype": "float32"}, {"name": "model_205/tf.math.add_431/Add/y", "shape": [256], "dtype": "float32"}, {"name": "model_205/tf.nn.convolution_675/convolution/filter", "shape": [1, 1, 256, 80], "dtype": "float32"}, {"name": "model_205/tf.math.add_434/Add/y", "shape": [80], "dtype": "float32"}, {"name": "model_205/tf.compat.v1.nn.depthwise_conv2d_23/depthwise/filter_in", "shape": [3, 3, 80, 1], "dtype": "float32"}, {"name": "model_205/tf.math.add_437/Add/y", "shape": [80], "dtype": "float32"}, {"name": "model_205/tf.nn.convolution_678/convolution/filter", "shape": [1, 1, 80, 80], "dtype": "float32"}, {"name": "model_205/tf.math.add_438/Add/y", "shape": [80], "dtype": "float32"}, {"name": "model_205/tf.nn.convolution_679/convolution/filter", "shape": [1, 1, 80, 80], "dtype": "float32"}, {"name": "model_205/tf.math.add_439/Add/y", "shape": [80], "dtype": "float32"}, {"name": "model_205/tf.concat_97/concat/axis", "shape": [], "dtype": "int32"}, {"name": "model_205/tf.compat.v1.transpose_587/transpose/perm", "shape": [4], "dtype": "int32"}, {"name": "model_205/tf.reshape_102/Reshape/shape", "shape": [3], "dtype": "int32"}, {"name": "model_205/tf.concat_98/concat/axis", "shape": [], "dtype": "int32"}, {"name": "model_205/tf.strided_slice_94/StridedSlice/begin", "shape": [3], "dtype": "int32"}, {"name": "model_205/tf.strided_slice_94/StridedSlice/end", "shape": [3], "dtype": "int32"}, {"name": "model_205/tf.strided_slice_94/StridedSlice/strides", "shape": [3], "dtype": "int32"}, {"name": "model_205/tf.nn.convolution_633/convolution/filter", "shape": [3, 3, 64, 32], "dtype": "float32"}, {"name": "model_205/tf.math.add_378/Add/y", "shape": [32], "dtype": "float32"}, {"name": "model_205/tf.nn.convolution_635/convolution/filter", "shape": [3, 3, 32, 32], "dtype": "float32"}, {"name": "model_205/tf.math.add_382/Add/y", "shape": [32], "dtype": "float32"}, {"name": "model_205/tf.nn.convolution_640/convolution/filter", "shape": [1, 1, 32, 32], "dtype": "float32"}, {"name": "model_205/tf.math.add_387/Add/y", "shape": [32], "dtype": "float32"}, {"name": "model_205/tf.compat.v1.transpose_521/transpose/perm", "shape": [4], "dtype": "int32"}, {"name": "model_205/tf.reshape_87/Reshape/shape", "shape": [3], "dtype": "int32"}, {"name": "model_205/tf.nn.convolution_653/convolution/filter", "shape": [3, 3, 128, 32], "dtype": "float32"}, {"name": "model_205/tf.math.add_405/Add/y", "shape": [32], "dtype": "float32"}, {"name": "model_205/tf.nn.convolution_655/convolution/filter", "shape": [3, 3, 32, 32], "dtype": "float32"}, {"name": "model_205/tf.math.add_408/Add/y", "shape": [32], "dtype": "float32"}, {"name": "model_205/tf.nn.convolution_659/convolution/filter", "shape": [1, 1, 32, 32], "dtype": "float32"}, {"name": "model_205/tf.math.add_412/Add/y", "shape": [32], "dtype": "float32"}, {"name": "model_205/tf.compat.v1.transpose_552/transpose/perm", "shape": [4], "dtype": "int32"}, {"name": "model_205/tf.reshape_93/Reshape/shape", "shape": [3], "dtype": "int32"}, {"name": "model_205/tf.strided_slice_91/ones_like/tensor", "shape": [4], "dtype": "int32"}, {"name": "model_205/tf.strided_slice_91/StridedSlice/end", "shape": [4], "dtype": "int32"}, {"name": "model_205/tf.strided_slice_91/ones_like", "shape": [4], "dtype": "int32"}, {"name": "model_205/tf.nn.convolution_661/convolution/filter", "shape": [1, 1, 128, 64], "dtype": "float32"}, {"name": "model_205/tf.math.add_415/Add/y", "shape": [64], "dtype": "float32"}, {"name": "model_205/tf.nn.convolution_664/convolution/filter", "shape": [3, 3, 64, 64], "dtype": "float32"}, {"name": "model_205/tf.math.add_418/Add/y", "shape": [64], "dtype": "float32"}, {"name": "model_205/tf.nn.convolution_666/convolution/filter", "shape": [3, 3, 64, 64], "dtype": "float32"}, {"name": "model_205/tf.math.add_420/Add/y", "shape": [64], "dtype": "float32"}, {"name": "model_205/tf.nn.convolution_667/convolution/filter", "shape": [3, 3, 64, 64], "dtype": "float32"}, {"name": "model_205/tf.math.add_423/Add/y", "shape": [64], "dtype": "float32"}, {"name": "model_205/tf.nn.convolution_668/convolution/filter", "shape": [3, 3, 64, 64], "dtype": "float32"}, {"name": "model_205/tf.math.add_424/Add/y", "shape": [64], "dtype": "float32"}, {"name": "model_205/tf.strided_slice_89/ones_like/tensor", "shape": [4], "dtype": "int32"}, {"name": "model_205/tf.strided_slice_89/StridedSlice/end", "shape": [4], "dtype": "int32"}, {"name": "model_205/tf.strided_slice_89/ones_like", "shape": [4], "dtype": "int32"}, {"name": "model_205/tf.strided_slice_87/ones_like/tensor", "shape": [4], "dtype": "int32"}, {"name": "model_205/tf.strided_slice_87/StridedSlice/end", "shape": [4], "dtype": "int32"}, {"name": "model_205/tf.strided_slice_87/ones_like", "shape": [4], "dtype": "int32"}, {"name": "model_205/tf.image.resize_5/resize/size", "shape": [2], "dtype": "int32"}, {"name": "model_205/tf.concat_85/concat/axis", "shape": [], "dtype": "int32"}, {"name": "model_205/tf.nn.convolution_627/convolution/filter", "shape": [1, 1, 256, 64], "dtype": "float32"}, {"name": "model_205/tf.math.add_370/Add/y", "shape": [64], "dtype": "float32"}, {"name": "model_205/tf.strided_slice_88/ones_like/tensor", "shape": [4], "dtype": "int32"}, {"name": "model_205/tf.strided_slice_88/StridedSlice/end", "shape": [4], "dtype": "int32"}, {"name": "model_205/tf.strided_slice_88/ones_like", "shape": [4], "dtype": "int32"}, {"name": "model_205/tf.nn.convolution_628/convolution/filter", "shape": [3, 3, 32, 16], "dtype": "float32"}, {"name": "model_205/tf.math.add_371/Add/y", "shape": [16], "dtype": "float32"}, {"name": "model_205/tf.nn.convolution_629/convolution/filter", "shape": [3, 3, 16, 32], "dtype": "float32"}, {"name": "model_205/tf.math.add_372/Add/y", "shape": [32], "dtype": "float32"}, {"name": "model_205/tf.concat_86/concat/axis", "shape": [], "dtype": "int32"}, {"name": "model_205/tf.nn.convolution_630/convolution/filter", "shape": [1, 1, 96, 64], "dtype": "float32"}, {"name": "model_205/tf.math.add_375/Add/y", "shape": [64], "dtype": "float32"}, {"name": "model_205/tf.compat.v1.pad_22/Pad/paddings", "shape": [4, 2], "dtype": "int32"}, {"name": "model_205/tf.nn.convolution_631/convolution/filter", "shape": [3, 3, 64, 64], "dtype": "float32"}, {"name": "model_205/tf.math.add_376/Add/y", "shape": [64], "dtype": "float32"}, {"name": "model_205/tf.strided_slice_85/ones_like/tensor", "shape": [4], "dtype": "int32"}, {"name": "model_205/tf.strided_slice_85/StridedSlice/end", "shape": [4], "dtype": "int32"}, {"name": "model_205/tf.strided_slice_85/ones_like", "shape": [4], "dtype": "int32"}, {"name": "model_205/tf.image.resize_4/resize/size", "shape": [2], "dtype": "int32"}, {"name": "model_205/tf.concat_83/concat/axis", "shape": [], "dtype": "int32"}, {"name": "model_205/tf.nn.convolution_623/convolution/filter", "shape": [1, 1, 384, 128], "dtype": "float32"}, {"name": "model_205/tf.math.add_364/Add/y", "shape": [128], "dtype": "float32"}, {"name": "model_205/tf.strided_slice_86/ones_like/tensor", "shape": [4], "dtype": "int32"}, {"name": "model_205/tf.strided_slice_86/StridedSlice/end", "shape": [4], "dtype": "int32"}, {"name": "model_205/tf.strided_slice_86/ones_like", "shape": [4], "dtype": "int32"}, {"name": "model_205/tf.nn.convolution_624/convolution/filter", "shape": [3, 3, 64, 32], "dtype": "float32"}, {"name": "model_205/tf.math.add_365/Add/y", "shape": [32], "dtype": "float32"}, {"name": "model_205/tf.nn.convolution_625/convolution/filter", "shape": [3, 3, 32, 64], "dtype": "float32"}, {"name": "model_205/tf.math.add_366/Add/y", "shape": [64], "dtype": "float32"}, {"name": "model_205/tf.concat_84/concat/axis", "shape": [], "dtype": "int32"}, {"name": "model_205/tf.nn.convolution_626/convolution/filter", "shape": [1, 1, 192, 128], "dtype": "float32"}, {"name": "model_205/tf.math.add_369/Add/y", "shape": [128], "dtype": "float32"}, {"name": "model_205/tf.concat_87/concat/axis", "shape": [], "dtype": "int32"}, {"name": "model_205/tf.nn.convolution_638/convolution/filter", "shape": [1, 1, 192, 128], "dtype": "float32"}, {"name": "model_205/tf.math.add_385/Add/y", "shape": [128], "dtype": "float32"}, {"name": "model_205/tf.strided_slice_90/ones_like/tensor", "shape": [4], "dtype": "int32"}, {"name": "model_205/tf.strided_slice_90/StridedSlice/end", "shape": [4], "dtype": "int32"}, {"name": "model_205/tf.strided_slice_90/ones_like", "shape": [4], "dtype": "int32"}, {"name": "model_205/tf.nn.convolution_643/convolution/filter", "shape": [3, 3, 64, 32], "dtype": "float32"}, {"name": "model_205/tf.math.add_393/Add/y", "shape": [32], "dtype": "float32"}, {"name": "model_205/tf.nn.convolution_647/convolution/filter", "shape": [3, 3, 32, 64], "dtype": "float32"}, {"name": "model_205/tf.math.add_397/Add/y", "shape": [64], "dtype": "float32"}, {"name": "model_205/tf.concat_91/concat/axis", "shape": [], "dtype": "int32"}, {"name": "model_205/tf.nn.convolution_651/convolution/filter", "shape": [1, 1, 192, 128], "dtype": "float32"}, {"name": "model_205/tf.math.add_403/Add/y", "shape": [128], "dtype": "float32"}, {"name": "model_205/tf.compat.v1.pad_23/Pad/paddings", "shape": [4, 2], "dtype": "int32"}, {"name": "model_205/tf.nn.convolution_652/convolution/filter", "shape": [3, 3, 128, 128], "dtype": "float32"}, {"name": "model_205/tf.math.add_404/Add/y", "shape": [128], "dtype": "float32"}, {"name": "model_205/tf.math.add_360/Add/y", "shape": [128], "dtype": "float32"}, {"name": "model_205/tf.math.add_356/Add/y", "shape": [128], "dtype": "float32"}, {"name": "model_205/tf.math.add_353/Add/y", "shape": [128], "dtype": "float32"}, {"name": "model_205/tf.strided_slice_82/StridedSlice/begin", "shape": [4], "dtype": "int32"}, {"name": "model_205/tf.strided_slice_82/StridedSlice/end", "shape": [4], "dtype": "int32"}, {"name": "model_205/tf.strided_slice_82/ones_like", "shape": [4], "dtype": "int32"}, {"name": "model_205/tf.strided_slice_83/StridedSlice/begin", "shape": [4], "dtype": "int32"}, {"name": "model_205/tf.strided_slice_83/StridedSlice/end", "shape": [4], "dtype": "int32"}, {"name": "model_205/tf.strided_slice_83/ones_like", "shape": [4], "dtype": "int32"}, {"name": "model_205/tf.math.multiply_1115/Mul/y", "shape": [], "dtype": "float32"}, {"name": "model_205/tf.reshape_84/Reshape/shape", "shape": [4], "dtype": "int32"}, {"name": "model_205/tf.compat.v1.transpose_490/transpose/perm", "shape": [4], "dtype": "int32"}, {"name": "model_205/tf.nn.convolution_491/convolution/filter", "shape": [3, 3, 1, 1], "dtype": "float32"}, {"name": "model_205/tf.nn.convolution_492/convolution/filter", "shape": [3, 3, 1, 1], "dtype": "float32"}, {"name": "model_205/tf.nn.convolution_493/convolution/filter", "shape": [3, 3, 1, 1], "dtype": "float32"}, {"name": "model_205/tf.nn.convolution_494/convolution/filter", "shape": [3, 3, 1, 1], "dtype": "float32"}, {"name": "model_205/tf.nn.convolution_495/convolution/filter", "shape": [3, 3, 1, 1], "dtype": "float32"}, {"name": "model_205/tf.nn.convolution_496/convolution/filter", "shape": [3, 3, 1, 1], "dtype": "float32"}, {"name": "model_205/tf.nn.convolution_497/convolution/filter", "shape": [3, 3, 1, 1], "dtype": "float32"}, {"name": "model_205/tf.nn.convolution_498/convolution/filter", "shape": [3, 3, 1, 1], "dtype": "float32"}, {"name": "model_205/tf.nn.convolution_499/convolution/filter", "shape": [3, 3, 1, 1], "dtype": "float32"}, {"name": "model_205/tf.nn.convolution_500/convolution/filter", "shape": [3, 3, 1, 1], "dtype": "float32"}, {"name": "model_205/tf.nn.convolution_501/convolution/filter", "shape": [3, 3, 1, 1], "dtype": "float32"}, {"name": "model_205/tf.nn.convolution_502/convolution/filter", "shape": [3, 3, 1, 1], "dtype": "float32"}, {"name": "model_205/tf.nn.convolution_503/convolution/filter", "shape": [3, 3, 1, 1], "dtype": "float32"}, {"name": "model_205/tf.nn.convolution_504/convolution/filter", "shape": [3, 3, 1, 1], "dtype": "float32"}, {"name": "model_205/tf.nn.convolution_505/convolution/filter", "shape": [3, 3, 1, 1], "dtype": "float32"}, {"name": "model_205/tf.nn.convolution_506/convolution/filter", "shape": [3, 3, 1, 1], "dtype": "float32"}, {"name": "model_205/tf.nn.convolution_507/convolution/filter", "shape": [3, 3, 1, 1], "dtype": "float32"}, {"name": "model_205/tf.nn.convolution_508/convolution/filter", "shape": [3, 3, 1, 1], "dtype": "float32"}, {"name": "model_205/tf.nn.convolution_509/convolution/filter", "shape": [3, 3, 1, 1], "dtype": "float32"}, {"name": "model_205/tf.nn.convolution_510/convolution/filter", "shape": [3, 3, 1, 1], "dtype": "float32"}, {"name": "model_205/tf.nn.convolution_511/convolution/filter", "shape": [3, 3, 1, 1], "dtype": "float32"}, {"name": "model_205/tf.nn.convolution_512/convolution/filter", "shape": [3, 3, 1, 1], "dtype": "float32"}, {"name": "model_205/tf.nn.convolution_513/convolution/filter", "shape": [3, 3, 1, 1], "dtype": "float32"}, {"name": "model_205/tf.nn.convolution_514/convolution/filter", "shape": [3, 3, 1, 1], "dtype": "float32"}, {"name": "model_205/tf.nn.convolution_515/convolution/filter", "shape": [3, 3, 1, 1], "dtype": "float32"}, {"name": "model_205/tf.nn.convolution_516/convolution/filter", "shape": [3, 3, 1, 1], "dtype": "float32"}, {"name": "model_205/tf.nn.convolution_517/convolution/filter", "shape": [3, 3, 1, 1], "dtype": "float32"}, {"name": "model_205/tf.nn.convolution_518/convolution/filter", "shape": [3, 3, 1, 1], "dtype": "float32"}, {"name": "model_205/tf.nn.convolution_519/convolution/filter", "shape": [3, 3, 1, 1], "dtype": "float32"}, {"name": "model_205/tf.nn.convolution_520/convolution/filter", "shape": [3, 3, 1, 1], "dtype": "float32"}, {"name": "model_205/tf.nn.convolution_521/convolution/filter", "shape": [3, 3, 1, 1], "dtype": "float32"}, {"name": "model_205/tf.nn.convolution_522/convolution/filter", "shape": [3, 3, 1, 1], "dtype": "float32"}, {"name": "model_205/tf.nn.convolution_523/convolution/filter", "shape": [3, 3, 1, 1], "dtype": "float32"}, {"name": "model_205/tf.nn.convolution_524/convolution/filter", "shape": [3, 3, 1, 1], "dtype": "float32"}, {"name": "model_205/tf.nn.convolution_525/convolution/filter", "shape": [3, 3, 1, 1], "dtype": "float32"}, {"name": "model_205/tf.nn.convolution_526/convolution/filter", "shape": [3, 3, 1, 1], "dtype": "float32"}, {"name": "model_205/tf.nn.convolution_527/convolution/filter", "shape": [3, 3, 1, 1], "dtype": "float32"}, {"name": "model_205/tf.nn.convolution_528/convolution/filter", "shape": [3, 3, 1, 1], "dtype": "float32"}, {"name": "model_205/tf.nn.convolution_529/convolution/filter", "shape": [3, 3, 1, 1], "dtype": "float32"}, {"name": "model_205/tf.nn.convolution_530/convolution/filter", "shape": [3, 3, 1, 1], "dtype": "float32"}, {"name": "model_205/tf.nn.convolution_531/convolution/filter", "shape": [3, 3, 1, 1], "dtype": "float32"}, {"name": "model_205/tf.nn.convolution_532/convolution/filter", "shape": [3, 3, 1, 1], "dtype": "float32"}, {"name": "model_205/tf.nn.convolution_533/convolution/filter", "shape": [3, 3, 1, 1], "dtype": "float32"}, {"name": "model_205/tf.nn.convolution_534/convolution/filter", "shape": [3, 3, 1, 1], "dtype": "float32"}, {"name": "model_205/tf.nn.convolution_535/convolution/filter", "shape": [3, 3, 1, 1], "dtype": "float32"}, {"name": "model_205/tf.nn.convolution_536/convolution/filter", "shape": [3, 3, 1, 1], "dtype": "float32"}, {"name": "model_205/tf.nn.convolution_537/convolution/filter", "shape": [3, 3, 1, 1], "dtype": "float32"}, {"name": "model_205/tf.nn.convolution_538/convolution/filter", "shape": [3, 3, 1, 1], "dtype": "float32"}, {"name": "model_205/tf.nn.convolution_539/convolution/filter", "shape": [3, 3, 1, 1], "dtype": "float32"}, {"name": "model_205/tf.nn.convolution_540/convolution/filter", "shape": [3, 3, 1, 1], "dtype": "float32"}, {"name": "model_205/tf.nn.convolution_541/convolution/filter", "shape": [3, 3, 1, 1], "dtype": "float32"}, {"name": "model_205/tf.nn.convolution_542/convolution/filter", "shape": [3, 3, 1, 1], "dtype": "float32"}, {"name": "model_205/tf.nn.convolution_543/convolution/filter", "shape": [3, 3, 1, 1], "dtype": "float32"}, {"name": "model_205/tf.nn.convolution_544/convolution/filter", "shape": [3, 3, 1, 1], "dtype": "float32"}, {"name": "model_205/tf.nn.convolution_545/convolution/filter", "shape": [3, 3, 1, 1], "dtype": "float32"}, {"name": "model_205/tf.nn.convolution_546/convolution/filter", "shape": [3, 3, 1, 1], "dtype": "float32"}, {"name": "model_205/tf.nn.convolution_547/convolution/filter", "shape": [3, 3, 1, 1], "dtype": "float32"}, {"name": "model_205/tf.nn.convolution_548/convolution/filter", "shape": [3, 3, 1, 1], "dtype": "float32"}, {"name": "model_205/tf.nn.convolution_549/convolution/filter", "shape": [3, 3, 1, 1], "dtype": "float32"}, {"name": "model_205/tf.nn.convolution_550/convolution/filter", "shape": [3, 3, 1, 1], "dtype": "float32"}, {"name": "model_205/tf.nn.convolution_551/convolution/filter", "shape": [3, 3, 1, 1], "dtype": "float32"}, {"name": "model_205/tf.nn.convolution_552/convolution/filter", "shape": [3, 3, 1, 1], "dtype": "float32"}, {"name": "model_205/tf.nn.convolution_553/convolution/filter", "shape": [3, 3, 1, 1], "dtype": "float32"}, {"name": "model_205/tf.nn.convolution_554/convolution/filter", "shape": [3, 3, 1, 1], "dtype": "float32"}, {"name": "model_205/tf.nn.convolution_555/convolution/filter", "shape": [3, 3, 1, 1], "dtype": "float32"}, {"name": "model_205/tf.nn.convolution_556/convolution/filter", "shape": [3, 3, 1, 1], "dtype": "float32"}, {"name": "model_205/tf.nn.convolution_557/convolution/filter", "shape": [3, 3, 1, 1], "dtype": "float32"}, {"name": "model_205/tf.nn.convolution_558/convolution/filter", "shape": [3, 3, 1, 1], "dtype": "float32"}, {"name": "model_205/tf.nn.convolution_559/convolution/filter", "shape": [3, 3, 1, 1], "dtype": "float32"}, {"name": "model_205/tf.nn.convolution_560/convolution/filter", "shape": [3, 3, 1, 1], "dtype": "float32"}, {"name": "model_205/tf.nn.convolution_561/convolution/filter", "shape": [3, 3, 1, 1], "dtype": "float32"}, {"name": "model_205/tf.nn.convolution_562/convolution/filter", "shape": [3, 3, 1, 1], "dtype": "float32"}, {"name": "model_205/tf.nn.convolution_563/convolution/filter", "shape": [3, 3, 1, 1], "dtype": "float32"}, {"name": "model_205/tf.nn.convolution_564/convolution/filter", "shape": [3, 3, 1, 1], "dtype": "float32"}, {"name": "model_205/tf.nn.convolution_565/convolution/filter", "shape": [3, 3, 1, 1], "dtype": "float32"}, {"name": "model_205/tf.nn.convolution_566/convolution/filter", "shape": [3, 3, 1, 1], "dtype": "float32"}, {"name": "model_205/tf.nn.convolution_567/convolution/filter", "shape": [3, 3, 1, 1], "dtype": "float32"}, {"name": "model_205/tf.nn.convolution_568/convolution/filter", "shape": [3, 3, 1, 1], "dtype": "float32"}, {"name": "model_205/tf.nn.convolution_569/convolution/filter", "shape": [3, 3, 1, 1], "dtype": "float32"}, {"name": "model_205/tf.nn.convolution_570/convolution/filter", "shape": [3, 3, 1, 1], "dtype": "float32"}, {"name": "model_205/tf.nn.convolution_571/convolution/filter", "shape": [3, 3, 1, 1], "dtype": "float32"}, {"name": "model_205/tf.nn.convolution_572/convolution/filter", "shape": [3, 3, 1, 1], "dtype": "float32"}, {"name": "model_205/tf.nn.convolution_573/convolution/filter", "shape": [3, 3, 1, 1], "dtype": "float32"}, {"name": "model_205/tf.nn.convolution_574/convolution/filter", "shape": [3, 3, 1, 1], "dtype": "float32"}, {"name": "model_205/tf.nn.convolution_575/convolution/filter", "shape": [3, 3, 1, 1], "dtype": "float32"}, {"name": "model_205/tf.nn.convolution_576/convolution/filter", "shape": [3, 3, 1, 1], "dtype": "float32"}, {"name": "model_205/tf.nn.convolution_577/convolution/filter", "shape": [3, 3, 1, 1], "dtype": "float32"}, {"name": "model_205/tf.nn.convolution_578/convolution/filter", "shape": [3, 3, 1, 1], "dtype": "float32"}, {"name": "model_205/tf.nn.convolution_579/convolution/filter", "shape": [3, 3, 1, 1], "dtype": "float32"}, {"name": "model_205/tf.nn.convolution_580/convolution/filter", "shape": [3, 3, 1, 1], "dtype": "float32"}, {"name": "model_205/tf.nn.convolution_581/convolution/filter", "shape": [3, 3, 1, 1], "dtype": "float32"}, {"name": "model_205/tf.nn.convolution_582/convolution/filter", "shape": [3, 3, 1, 1], "dtype": "float32"}, {"name": "model_205/tf.nn.convolution_583/convolution/filter", "shape": [3, 3, 1, 1], "dtype": "float32"}, {"name": "model_205/tf.nn.convolution_584/convolution/filter", "shape": [3, 3, 1, 1], "dtype": "float32"}, {"name": "model_205/tf.nn.convolution_585/convolution/filter", "shape": [3, 3, 1, 1], "dtype": "float32"}, {"name": "model_205/tf.nn.convolution_586/convolution/filter", "shape": [3, 3, 1, 1], "dtype": "float32"}, {"name": "model_205/tf.nn.convolution_587/convolution/filter", "shape": [3, 3, 1, 1], "dtype": "float32"}, {"name": "model_205/tf.nn.convolution_588/convolution/filter", "shape": [3, 3, 1, 1], "dtype": "float32"}, {"name": "model_205/tf.nn.convolution_589/convolution/filter", "shape": [3, 3, 1, 1], "dtype": "float32"}, {"name": "model_205/tf.nn.convolution_590/convolution/filter", "shape": [3, 3, 1, 1], "dtype": "float32"}, {"name": "model_205/tf.nn.convolution_591/convolution/filter", "shape": [3, 3, 1, 1], "dtype": "float32"}, {"name": "model_205/tf.nn.convolution_592/convolution/filter", "shape": [3, 3, 1, 1], "dtype": "float32"}, {"name": "model_205/tf.nn.convolution_593/convolution/filter", "shape": [3, 3, 1, 1], "dtype": "float32"}, {"name": "model_205/tf.nn.convolution_594/convolution/filter", "shape": [3, 3, 1, 1], "dtype": "float32"}, {"name": "model_205/tf.nn.convolution_595/convolution/filter", "shape": [3, 3, 1, 1], "dtype": "float32"}, {"name": "model_205/tf.nn.convolution_596/convolution/filter", "shape": [3, 3, 1, 1], "dtype": "float32"}, {"name": "model_205/tf.nn.convolution_597/convolution/filter", "shape": [3, 3, 1, 1], "dtype": "float32"}, {"name": "model_205/tf.nn.convolution_598/convolution/filter", "shape": [3, 3, 1, 1], "dtype": "float32"}, {"name": "model_205/tf.nn.convolution_599/convolution/filter", "shape": [3, 3, 1, 1], "dtype": "float32"}, {"name": "model_205/tf.nn.convolution_600/convolution/filter", "shape": [3, 3, 1, 1], "dtype": "float32"}, {"name": "model_205/tf.nn.convolution_601/convolution/filter", "shape": [3, 3, 1, 1], "dtype": "float32"}, {"name": "model_205/tf.nn.convolution_602/convolution/filter", "shape": [3, 3, 1, 1], "dtype": "float32"}, {"name": "model_205/tf.nn.convolution_603/convolution/filter", "shape": [3, 3, 1, 1], "dtype": "float32"}, {"name": "model_205/tf.nn.convolution_604/convolution/filter", "shape": [3, 3, 1, 1], "dtype": "float32"}, {"name": "model_205/tf.nn.convolution_605/convolution/filter", "shape": [3, 3, 1, 1], "dtype": "float32"}, {"name": "model_205/tf.nn.convolution_606/convolution/filter", "shape": [3, 3, 1, 1], "dtype": "float32"}, {"name": "model_205/tf.nn.convolution_607/convolution/filter", "shape": [3, 3, 1, 1], "dtype": "float32"}, {"name": "model_205/tf.nn.convolution_608/convolution/filter", "shape": [3, 3, 1, 1], "dtype": "float32"}, {"name": "model_205/tf.nn.convolution_609/convolution/filter", "shape": [3, 3, 1, 1], "dtype": "float32"}, {"name": "model_205/tf.nn.convolution_610/convolution/filter", "shape": [3, 3, 1, 1], "dtype": "float32"}, {"name": "model_205/tf.nn.convolution_611/convolution/filter", "shape": [3, 3, 1, 1], "dtype": "float32"}, {"name": "model_205/tf.nn.convolution_612/convolution/filter", "shape": [3, 3, 1, 1], "dtype": "float32"}, {"name": "model_205/tf.nn.convolution_613/convolution/filter", "shape": [3, 3, 1, 1], "dtype": "float32"}, {"name": "model_205/tf.nn.convolution_614/convolution/filter", "shape": [3, 3, 1, 1], "dtype": "float32"}, {"name": "model_205/tf.nn.convolution_615/convolution/filter", "shape": [3, 3, 1, 1], "dtype": "float32"}, {"name": "model_205/tf.nn.convolution_616/convolution/filter", "shape": [3, 3, 1, 1], "dtype": "float32"}, {"name": "model_205/tf.nn.convolution_617/convolution/filter", "shape": [3, 3, 1, 1], "dtype": "float32"}, {"name": "model_205/tf.split_6/split/split_dim", "shape": [], "dtype": "int32"}, {"name": "model_205/tf.split_5/split/split_dim", "shape": [], "dtype": "int32"}, {"name": "model_205/tf.strided_slice_80/ones_like/tensor", "shape": [4], "dtype": "int32"}, {"name": "model_205/tf.strided_slice_80/StridedSlice/end", "shape": [4], "dtype": "int32"}, {"name": "model_205/tf.strided_slice_80/ones_like", "shape": [4], "dtype": "int32"}, {"name": "model_205/tf.nn.convolution_479/convolution/filter", "shape": [1, 1, 128, 64], "dtype": "float32"}, {"name": "model_205/tf.math.add_337/Add/y", "shape": [64], "dtype": "float32"}, {"name": "model_205/tf.nn.convolution_481/convolution/filter", "shape": [3, 3, 64, 64], "dtype": "float32"}, {"name": "model_205/tf.math.add_339/Add/y", "shape": [64], "dtype": "float32"}, {"name": "model_205/tf.nn.convolution_482/convolution/filter", "shape": [3, 3, 64, 64], "dtype": "float32"}, {"name": "model_205/tf.math.add_340/Add/y", "shape": [64], "dtype": "float32"}, {"name": "model_205/tf.nn.convolution_483/convolution/filter", "shape": [3, 3, 64, 64], "dtype": "float32"}, {"name": "model_205/tf.math.add_343/Add/y", "shape": [64], "dtype": "float32"}, {"name": "model_205/tf.nn.convolution_484/convolution/filter", "shape": [3, 3, 64, 64], "dtype": "float32"}, {"name": "model_205/tf.math.add_344/Add/y", "shape": [64], "dtype": "float32"}, {"name": "model_205/tf.strided_slice_78/ones_like/tensor", "shape": [4], "dtype": "int32"}, {"name": "model_205/tf.strided_slice_78/StridedSlice/end", "shape": [4], "dtype": "int32"}, {"name": "model_205/tf.strided_slice_78/ones_like", "shape": [4], "dtype": "int32"}, {"name": "model_205/tf.nn.convolution_469/convolution/filter", "shape": [1, 1, 64, 32], "dtype": "float32"}, {"name": "model_205/tf.math.add_323/Add/y", "shape": [32], "dtype": "float32"}, {"name": "model_205/tf.nn.convolution_471/convolution/filter", "shape": [3, 3, 32, 32], "dtype": "float32"}, {"name": "model_205/tf.math.add_325/Add/y", "shape": [32], "dtype": "float32"}, {"name": "model_205/tf.nn.convolution_472/convolution/filter", "shape": [3, 3, 32, 32], "dtype": "float32"}, {"name": "model_205/tf.math.add_326/Add/y", "shape": [32], "dtype": "float32"}, {"name": "model_205/tf.nn.convolution_473/convolution/filter", "shape": [3, 3, 32, 32], "dtype": "float32"}, {"name": "model_205/tf.math.add_329/Add/y", "shape": [32], "dtype": "float32"}, {"name": "model_205/tf.nn.convolution_474/convolution/filter", "shape": [3, 3, 32, 32], "dtype": "float32"}, {"name": "model_205/tf.math.add_330/Add/y", "shape": [32], "dtype": "float32"}, {"name": "model_205/tf.strided_slice_76/ones_like/tensor", "shape": [4], "dtype": "int32"}, {"name": "model_205/tf.strided_slice_76/StridedSlice/end", "shape": [4], "dtype": "int32"}, {"name": "model_205/tf.strided_slice_76/ones_like", "shape": [4], "dtype": "int32"}, {"name": "model_205/tf.strided_slice_74/ones_like/tensor", "shape": [4], "dtype": "int32"}, {"name": "model_205/tf.strided_slice_74/StridedSlice/end", "shape": [4], "dtype": "int32"}, {"name": "model_205/tf.strided_slice_74/ones_like", "shape": [4], "dtype": "int32"}, {"name": "model_205/tf.compat.v1.pad_17/Pad/paddings", "shape": [4, 2], "dtype": "int32"}, {"name": "model_205/tf.nn.convolution_456/convolution/filter", "shape": [3, 3, 3, 16], "dtype": "float32"}, {"name": "model_205/tf.math.add_306/Add/y", "shape": [16], "dtype": "float32"}, {"name": "model_205/tf.compat.v1.pad_18/Pad/paddings", "shape": [4, 2], "dtype": "int32"}, {"name": "model_205/tf.nn.convolution_457/convolution/filter", "shape": [3, 3, 16, 32], "dtype": "float32"}, {"name": "model_205/tf.math.add_307/Add/y", "shape": [32], "dtype": "float32"}, {"name": "model_205/tf.nn.convolution_458/convolution/filter", "shape": [1, 1, 32, 32], "dtype": "float32"}, {"name": "model_205/tf.math.add_308/Add/y", "shape": [32], "dtype": "float32"}, {"name": "model_205/tf.strided_slice_75/ones_like/tensor", "shape": [4], "dtype": "int32"}, {"name": "model_205/tf.strided_slice_75/StridedSlice/end", "shape": [4], "dtype": "int32"}, {"name": "model_205/tf.strided_slice_75/ones_like", "shape": [4], "dtype": "int32"}, {"name": "model_205/tf.nn.convolution_459/convolution/filter", "shape": [3, 3, 16, 8], "dtype": "float32"}, {"name": "model_205/tf.math.add_309/Add/y", "shape": [8], "dtype": "float32"}, {"name": "model_205/tf.nn.convolution_460/convolution/filter", "shape": [3, 3, 8, 16], "dtype": "float32"}, {"name": "model_205/tf.math.add_310/Add/y", "shape": [16], "dtype": "float32"}, {"name": "model_205/tf.concat_74/concat/axis", "shape": [], "dtype": "int32"}, {"name": "model_205/tf.nn.convolution_461/convolution/filter", "shape": [1, 1, 48, 64], "dtype": "float32"}, {"name": "model_205/tf.math.add_313/Add/y", "shape": [64], "dtype": "float32"}, {"name": "model_205/tf.compat.v1.pad_19/Pad/paddings", "shape": [4, 2], "dtype": "int32"}, {"name": "model_205/tf.nn.convolution_462/convolution/filter", "shape": [3, 3, 64, 64], "dtype": "float32"}, {"name": "model_205/tf.math.add_314/Add/y", "shape": [64], "dtype": "float32"}, {"name": "model_205/tf.nn.convolution_463/convolution/filter", "shape": [1, 1, 64, 64], "dtype": "float32"}, {"name": "model_205/tf.math.add_315/Add/y", "shape": [64], "dtype": "float32"}, {"name": "model_205/tf.strided_slice_77/ones_like/tensor", "shape": [4], "dtype": "int32"}, {"name": "model_205/tf.strided_slice_77/StridedSlice/end", "shape": [4], "dtype": "int32"}, {"name": "model_205/tf.strided_slice_77/ones_like", "shape": [4], "dtype": "int32"}, {"name": "model_205/tf.nn.convolution_464/convolution/filter", "shape": [3, 3, 32, 16], "dtype": "float32"}, {"name": "model_205/tf.math.add_316/Add/y", "shape": [16], "dtype": "float32"}, {"name": "model_205/tf.nn.convolution_465/convolution/filter", "shape": [3, 3, 16, 32], "dtype": "float32"}, {"name": "model_205/tf.math.add_317/Add/y", "shape": [32], "dtype": "float32"}, {"name": "model_205/tf.concat_75/concat/axis", "shape": [], "dtype": "int32"}, {"name": "model_205/tf.nn.convolution_466/convolution/filter", "shape": [1, 1, 96, 128], "dtype": "float32"}, {"name": "model_205/tf.math.add_320/Add/y", "shape": [128], "dtype": "float32"}, {"name": "model_205/tf.compat.v1.pad_20/Pad/paddings", "shape": [4, 2], "dtype": "int32"}, {"name": "model_205/tf.nn.convolution_467/convolution/filter", "shape": [3, 3, 128, 128], "dtype": "float32"}, {"name": "model_205/tf.math.add_321/Add/y", "shape": [128], "dtype": "float32"}, {"name": "model_205/tf.nn.convolution_468/convolution/filter", "shape": [1, 1, 128, 128], "dtype": "float32"}, {"name": "model_205/tf.math.add_322/Add/y", "shape": [128], "dtype": "float32"}, {"name": "model_205/tf.strided_slice_79/ones_like/tensor", "shape": [4], "dtype": "int32"}, {"name": "model_205/tf.strided_slice_79/StridedSlice/end", "shape": [4], "dtype": "int32"}, {"name": "model_205/tf.strided_slice_79/ones_like", "shape": [4], "dtype": "int32"}, {"name": "model_205/tf.nn.convolution_470/convolution/filter", "shape": [1, 1, 64, 32], "dtype": "float32"}, {"name": "model_205/tf.math.add_324/Add/y", "shape": [32], "dtype": "float32"}, {"name": "model_205/tf.concat_76/concat/axis", "shape": [], "dtype": "int32"}, {"name": "model_205/tf.nn.convolution_475/convolution/filter", "shape": [1, 1, 64, 64], "dtype": "float32"}, {"name": "model_205/tf.math.add_333/Add/y", "shape": [64], "dtype": "float32"}, {"name": "model_205/tf.concat_77/concat/axis", "shape": [], "dtype": "int32"}, {"name": "model_205/tf.nn.convolution_476/convolution/filter", "shape": [1, 1, 192, 128], "dtype": "float32"}, {"name": "model_205/tf.math.add_334/Add/y", "shape": [128], "dtype": "float32"}, {"name": "model_205/tf.compat.v1.pad_21/Pad/paddings", "shape": [4, 2], "dtype": "int32"}, {"name": "model_205/tf.nn.convolution_477/convolution/filter", "shape": [3, 3, 128, 256], "dtype": "float32"}, {"name": "model_205/tf.math.add_335/Add/y", "shape": [256], "dtype": "float32"}, {"name": "model_205/tf.nn.convolution_478/convolution/filter", "shape": [1, 1, 256, 256], "dtype": "float32"}, {"name": "model_205/tf.math.add_336/Add/y", "shape": [256], "dtype": "float32"}, {"name": "model_205/tf.strided_slice_81/ones_like/tensor", "shape": [4], "dtype": "int32"}, {"name": "model_205/tf.strided_slice_81/StridedSlice/end", "shape": [4], "dtype": "int32"}, {"name": "model_205/tf.strided_slice_81/ones_like", "shape": [4], "dtype": "int32"}, {"name": "model_205/tf.nn.convolution_480/convolution/filter", "shape": [1, 1, 128, 64], "dtype": "float32"}, {"name": "model_205/tf.math.add_338/Add/y", "shape": [64], "dtype": "float32"}, {"name": "model_205/tf.concat_78/concat/axis", "shape": [], "dtype": "int32"}, {"name": "model_205/tf.nn.convolution_485/convolution/filter", "shape": [1, 1, 128, 128], "dtype": "float32"}, {"name": "model_205/tf.math.add_347/Add/y", "shape": [128], "dtype": "float32"}, {"name": "model_205/tf.concat_79/concat/axis", "shape": [], "dtype": "int32"}, {"name": "model_205/tf.nn.convolution_486/convolution/filter", "shape": [1, 1, 384, 256], "dtype": "float32"}, {"name": "model_205/tf.math.add_348/Add/y", "shape": [256], "dtype": "float32"}, {"name": "model_205/tf.nn.convolution_487/convolution/filter", "shape": [1, 1, 256, 128], "dtype": "float32"}, {"name": "model_205/tf.math.add_349/Add/y", "shape": [128], "dtype": "float32"}, {"name": "model_205/tf.concat_80/concat/axis", "shape": [], "dtype": "int32"}, {"name": "model_205/tf.nn.convolution_488/convolution/filter", "shape": [1, 1, 512, 256], "dtype": "float32"}, {"name": "model_205/tf.math.add_350/Add/y", "shape": [256], "dtype": "float32"}, {"name": "model_205/tf.nn.convolution_489/convolution/filter", "shape": [1, 1, 256, 256], "dtype": "float32"}, {"name": "model_205/tf.math.add_351/Add/y", "shape": [256], "dtype": "float32"}, {"name": "model_205/tf.nn.convolution_490/convolution/filter", "shape": [1, 1, 128, 256], "dtype": "float32"}, {"name": "model_205/tf.math.add_352/Add/y", "shape": [256], "dtype": "float32"}, {"name": "model_205/tf.compat.v1.transpose_475/transpose/perm", "shape": [4], "dtype": "int32"}, {"name": "model_205/tf.reshape_78/Reshape/shape", "shape": [4], "dtype": "int32"}, {"name": "model_205/tf.strided_slice_84/StridedSlice/begin", "shape": [4], "dtype": "int32"}, {"name": "model_205/tf.strided_slice_84/StridedSlice/end", "shape": [4], "dtype": "int32"}, {"name": "model_205/tf.strided_slice_84/ones_like", "shape": [4], "dtype": "int32"}, {"name": "model_205/tf.reshape_81/Reshape/shape", "shape": [4], "dtype": "int32"}, {"name": "model_205/tf.compat.v1.transpose_483/transpose/perm", "shape": [4], "dtype": "int32"}, {"name": "model_205/tf.nn.convolution_618/convolution/filter", "shape": [3, 3, 1, 1], "dtype": "float32"}, {"name": "model_205/tf.concat_81/concat/axis", "shape": [], "dtype": "int32"}, {"name": "model_205/tf.nn.convolution_619/convolution/filter", "shape": [1, 1, 128, 128], "dtype": "float32"}, {"name": "model_205/tf.nn.convolution_620/convolution/filter", "shape": [1, 1, 128, 256], "dtype": "float32"}, {"name": "model_205/tf.math.add_359/Add/y", "shape": [256], "dtype": "float32"}, {"name": "model_205/tf.nn.convolution_621/convolution/filter", "shape": [1, 1, 256, 128], "dtype": "float32"}, {"name": "model_205/tf.concat_82/concat/axis", "shape": [], "dtype": "int32"}, {"name": "model_205/tf.nn.convolution_622/convolution/filter", "shape": [1, 1, 256, 256], "dtype": "float32"}, {"name": "model_205/tf.math.add_363/Add/y", "shape": [256], "dtype": "float32"}, {"name": "model_205/tf.concat_92/concat/axis", "shape": [], "dtype": "int32"}, {"name": "model_205/tf.nn.convolution_658/convolution/filter", "shape": [1, 1, 384, 256], "dtype": "float32"}, {"name": "model_205/tf.math.add_411/Add/y", "shape": [256], "dtype": "float32"}, {"name": "model_205/tf.strided_slice_92/ones_like/tensor", "shape": [4], "dtype": "int32"}, {"name": "model_205/tf.strided_slice_92/StridedSlice/end", "shape": [4], "dtype": "int32"}, {"name": "model_205/tf.strided_slice_92/ones_like", "shape": [4], "dtype": "int32"}, {"name": "model_205/tf.nn.convolution_662/convolution/filter", "shape": [1, 1, 128, 64], "dtype": "float32"}, {"name": "model_205/tf.math.add_416/Add/y", "shape": [64], "dtype": "float32"}, {"name": "model_205/tf.concat_94/concat/axis", "shape": [], "dtype": "int32"}, {"name": "model_205/tf.nn.convolution_669/convolution/filter", "shape": [1, 1, 128, 128], "dtype": "float32"}, {"name": "model_205/tf.math.add_427/Add/y", "shape": [128], "dtype": "float32"}, {"name": "model_205/tf.concat_95/concat/axis", "shape": [], "dtype": "int32"}, {"name": "model_205/tf.nn.convolution_670/convolution/filter", "shape": [1, 1, 384, 256], "dtype": "float32"}, {"name": "model_205/tf.math.add_428/Add/y", "shape": [256], "dtype": "float32"}, {"name": "model_205/tf.nn.convolution_671/convolution/filter", "shape": [3, 3, 256, 32], "dtype": "float32"}, {"name": "model_205/tf.math.add_429/Add/y", "shape": [32], "dtype": "float32"}, {"name": "model_205/tf.nn.convolution_673/convolution/filter", "shape": [3, 3, 32, 32], "dtype": "float32"}, {"name": "model_205/tf.math.add_432/Add/y", "shape": [32], "dtype": "float32"}, {"name": "model_205/tf.nn.convolution_676/convolution/filter", "shape": [1, 1, 32, 32], "dtype": "float32"}, {"name": "model_205/tf.math.add_435/Add/y", "shape": [32], "dtype": "float32"}, {"name": "model_205/tf.compat.v1.transpose_580/transpose/perm", "shape": [4], "dtype": "int32"}, {"name": "model_205/tf.reshape_99/Reshape/shape", "shape": [3], "dtype": "int32"}, {"name": "model_205/tf.concat_96/concat/axis", "shape": [], "dtype": "int32"}, {"name": "model_205/tf.concat_103/concat/axis", "shape": [], "dtype": "int32"}, {"name": "model_205/tf.compat.v1.transpose_603/transpose/perm", "shape": [3], "dtype": "int32"}, {"name": "model_205/tf.strided_slice_98/ones_like/tensor", "shape": [3], "dtype": "int32"}, {"name": "model_205/tf.strided_slice_98/StridedSlice/end", "shape": [3], "dtype": "int32"}, {"name": "model_205/tf.strided_slice_98/ones_like", "shape": [3], "dtype": "int32"}, {"name": "model_205/tf.math.reduce_max_5/Max/reduction_indices", "shape": [1], "dtype": "int32"}, {"name": "model_205/tf.compat.v1.gather_31/GatherV2/indices", "shape": [], "dtype": "int32"}, {"name": "model_205/tf.compat.v1.gather_31/GatherV2/axis", "shape": [], "dtype": "int32"}, {"name": "model_205/tf.math.greater_2/Greater/y", "shape": [], "dtype": "float32"}, {"name": "model_205/tf.math.top_k_4/TopKV2/k", "shape": [], "dtype": "int32"}, {"name": "ConstantFolding/model_205/tf.compat.v1.transpose_606/transpose/a_const_axis", "shape": [], "dtype": "int32"}]}]}